logs/model_checkpoint_3500.pth (torch, 597761 bytes, 11 tensors)

actor_body.0.weight f4 [256, 18]
-0.03345766 -0.12291187 0.2055898 0.065105274 -0.20805188 0.019058242 0.23076925 -0.031606317
-0.1960983 0.21609575 -0.19771732 -0.18435152 0.0138605535 0.06360148 -0.06506875 -0.055533025
0.15577121 -0.092530735 -0.04420828 0.13813874 -0.003556913 0.15195738 -0.09953296 0.21351442
-0.14382927 -0.1888836 0.0065363017 -0.21853459 -0.19108005 -0.08160742 -0.17032014 0.02861681
0.04325669 -0.19706917 0.17214574 -0.20687106 0.084213845 -0.048303436 0.014313688 0.12592885
0.091259055 0.15329565 -0.00033810202 -0.16347633 0.063426256 -0.1588708 0.122307286 0.114990875
0.22196798 0.08064881 -0.1139156 -0.0035868655 0.073485106 -0.13244155 -0.1788254 -0.031597465
0.030745704 0.22803946 0.044412605 -0.09153349 0.054245353 -0.095878154 -0.218892 -0.06464279
0.04879807 0.22897229 0.21873127 0.013427228 0.027106099 -0.17056625 -0.21974227 -0.20292151
0.19547372 0.1382435 0.009399955 -0.004570404 0.17118232 -0.15528347 0.05824453 -0.0565534
-0.03151879 0.07431552 -0.030024515 -0.09379719 -0.16881426 -0.115417376 -0.020877302 -0.09784944
0.12287734 -0.12442036 -0.09110645 -0.03858738 0.03169314 0.18902224 0.14460868 -0.03992925
-0.06250386 -0.23141253 -0.015583488 0.14663063 -0.07397517 0.12770411 -0.15417376 -0.23251124
0.08606322 -0.09104863 0.09135939 -0.14564085 -0.09507323 -0.04352429 -0.1981674 -0.20190878
-0.11183675 0.15442468 -0.20174092 -0.16478021 0.056160733 -0.15357025 0.20817786 -0.13192342
-0.08760826 -0.09607001 -0.05672904 0.1304298 -0.19287132 0.048605572 -0.020946983 0.22289336
0.17456222 0.19340323 -0.19740246 0.19753501 0.17757776 -0.16432601 -0.22309561 0.1496509
-0.16171578 0.21418759 0.1365378 0.11099103 -0.06898501 0.0883514 -0.08327408 0.14065011
0.01622561 0.08065926 0.11210851 0.031491872 -0.2332734 -0.07799763 0.13692322 -0.17779677
0.10645499 -0.23474462 -0.22872958 -0.06529789 -0.0023201278 -0.072901435 -0.22346307 -0.19425316
0.15597026 -0.042048898 -0.14151484 0.11262922 -0.047838584 -0.07105281 0.020606691 0.07811837
-0.15966016 0.087212846 0.22074893 0.13344707 0.031444695 0.09705719 0.19984917 0.21500117
-0.14367613 0.13263083 -0.08656389 0.099249505 0.1549276 -0.024396816 0.13495497 0.1151312
-0.06839855 -0.16246936 0.2051264 0.13999775 0.21360815 -0.18834281 -0.049755674 -0.13309242
-0.1147705 0.19438286 -0.018708957 -0.1893051 0.15752986 -0.07767816 0.20528395 -0.21906918
-0.025546892 0.21545534 -0.17548709 0.08735538 -0.15406995 0.044034973 0.13976935 0.033724755
-0.17297699 0.0630262 0.059870187 0.22911274 -0.06817559 0.08856343 0.06556277 -0.11942321
0.12654935 0.14915818 0.07013862 0.19905692 -0.23060489 -0.17438436 -0.12245286 0.08575785
-0.19178246 -0.11420259 0.15845712 -0.12750001 0.051115897 0.20558552 -0.010387709 -0.2136642
0.2075986 0.06927374 0.0069144997 0.2166699 -0.110242866 0.20895149 0.09380871 -0.011870267
0.034900203 -0.07999893 0.11371383 0.15872866 -0.10906607 -0.09988989 0.14120229 0.017089536
-0.102821 -0.04590295 0.13371605 0.18951921 0.16906992 -0.14431767 -0.01803975 0.19462578
00000000: e60a 09bd 38b9 fbbd 2286 523e ea55 853d
00000010: 8d0b 55be 0820 9c3c c64e 6c3e a075 01bd
00000020: fecd 48be 3448 5d3e 6976 4abe a5c6 3cbe
00000030: 6017 633c 7e41 823d c442 85bd 9976 63bd
00000040: 7d82 1f3e c180 bdbd be13 35bd 3e74 0d3e
00000050: 191b 69bb b79a 1b3e f0d7 cbbd 86a3 5a3e
00000060: fb47 13be b46a 41be 792e d63b 88c7 5fbe
00000070: 7daa 43be cb21 a7bd 6768 2ebe cd6d ea3c
00000080: ed2d 313d 80cc 49be f946 303e 02d6 53be
00000090: 4f78 ac3d d3d9 45bd f583 6a3c 7ef3 003e
000000a0: 07e6 ba3d 89f9 1c3e 4943 b1b9 5766 27be
000000b0: a0e5 813d 07af 22be 3e7c fa3d 5680 eb3d
000000c0: 934b 633e 342b a53d 954c e9bd 9e11 6bbb
000000d0: 5c7f 963d c29e 07be 011e 37be 586c 01bd
000000e0: 6ade fb3c 2d83 693e fee9 353d e975 bbbd
000000f0: 6030 5e3d c45b c4bd 3925 60be 7063 84bd
00000100: 7ce0 473d b677 6a3e 17fb 5f3e e0fd 5b3c
00000110: 9c0d de3c eba8 2ebe 1e04 61be a8ca 4fbe
00000120: 432a 483e b48f 0d3e 4502 1a3c 54c3 95bb
00000130: 6b4a 2f3e a102 1fbe d191 6e3d 8aa4 67bd
00000140: d919 01bd bc32 983d f9f5 f5bc be18 c0bd
00000150: a5dd 2cbe f25f ecbd e006 abbc 4a65 c8bd
00000160: 1da7 fb3d 1ad0 febd 0596 babd cd0d 1ebd
00000170: aad0 013d 0c8f 413e 4c14 143e da8c 23bd
00000180: 0602 80bd 68f7 6cbe e351 7fbc 5726 163e
00000190: 4b80 97bd dec4 023e badf 1dbe 6d17 6ebe
000001a0: ea41 b03d b477 babd a21a bb3d e022 15be
000001b0: c1b5 c2bd 8746 32bd 65ec 4abe 2dc1 4ebe
000001c0: aa0a e5bd 8121 1e3e 2c95 4ebe 25bc 28be
000001d0: cc08 663d 8541 1dbe 942c 553e ef16 07be
000001e0: f66b b3bd 5ac0 c4bd b65c 68bd 648f 053e
000001f0: 0f80 45be a316 473d 0299 abbc 283e 643e
00000200: 70c0 323e 7f0b 463e df23 4abe 9e46 4a3e
00000210: f2d6 353e 1445 28be 2d73 64be 163e 193e
00000220: d298 25be fe53 5b3e 91d0 0b3e 444f e33d
00000230: 0348 8dbd 94f1 b43d 9a8b aabd 9506 103e
00000240: 92eb 843c af30 a53d 2699 e53d 9ffd 003d
00000250: 39df 6ebe 39bd 9fbd 9a35 0c3e 5b10 36be
00000260: 1305 da3d e560 70be 1638 6abe e6ba 85bd
00000270: 490d 18bb 594d 95bd 81d3 64be 4dea 46be
00000280: abb6 1f3e 773b 2cbd 44e9 10be 26aa e63d
00000290: 64f2 43bd 2384 91bd 5dcf a83c 86fc 9f3d
000002a0: f47d 23be a69c b23d 020c 623e 59a6 083e
000002b0: 27cc 003d ecc5 c63d 43a5 4c3e 4429 5c3e
000002c0: d61f 13be 60d0 073e 6948 b1bd 5343 cb3d
000002d0: 57a5 1e3e d5db c7bc a331 0a3e e8c9 eb3d
000002e0: 8a14 8cbd 5e5e 26be a80c 523e 925b 0f3e
000002f0: 18bc 5a3e f0dc 40be 9bcc 4bbd 6149 08be
00000300: cc0c ebbd 4d0c 473e 8743 99bc 32d9 41be
00000310: 824f 213e ba15 9fbd f535 523e ac53 60be
00000320: b747 d1bc 53a0 5c3e e3b2 33be 61e7 b23d
00000330: 83c4 1dbe 045e 343d b21f 0f3e f822 0a3d
00000340: e120 31be e113 813d 713a 753d 889c 6a3e
00000350: a59f 8bbd be60 b53d c645 863d 2894 f4bd
00000360: 2796 013e ecbc 183e d6a4 8f3d 94d5 4b3e
00000370: b023 6cbe d091 32be 91c8 fabd d0a1 af3d
00000380: 9f62 44be 0ce3 e9bd 9542 223e 5d8f 02be
00000390: e75e 513d 0385 523e 3631 2abc caca 5abe
000003a0: ba94 543e 64df 8d3d 0793 e23b b7de 5d3e
000003b0: 03c7 e1bd 61f7 553e c81e c03d 827b 42bc
000003c0: 84f3 0e3d 7bd6 a3bd cce2 e83d c489 223e
000003d0: 085e dfbd 1293 ccbd 5597 103e 5bff 8b3c
000003e0: d193 d2bd bb04 3cbd dcec 083e 5311 423e
000003f0: aa20 2d3e 03c8 13be 19c8 93bc fb4b 473e

actor_body.0.bias f4 [256]
-0.19326623 0.16458525 0.18680388 -0.01568214 -0.051056776 -0.19084992 0.13379894 0.1865853
-0.029650083 -0.0061387727 -0.11173793 -0.041000932 0.05401959 -0.16033088 0.23394139 0.17293563
-0.20816009 0.0723719 -0.16456085 -0.053383674 0.09039364 0.20127796 -0.01589619 0.21536584
-0.04221937 0.019768473 -0.14475529 0.108636424 -0.080912456 -0.022233812 -0.13466208 -0.05376061
-0.05245226 0.12151127 0.053403374 0.22524388 -0.105413936 -0.10284896 -0.104045905 0.11529139
-0.1847901 0.10226295 0.08672509 0.056763545 -0.23387331 0.047141757 0.050418057 -0.21006532
0.039506152 0.18707304 0.09654845 -0.09357696 -0.015862782 0.065573335 -0.1553836 -0.053422704
0.061001074 -0.020515176 -0.09198033 0.1620049 -0.022559129 0.16987093 -0.20579942 -0.032913655
0.12295517 0.2120742 0.16012023 0.21943748 -0.15902941 0.13360466 -0.08598963 -0.17827718
0.011275968 -0.056546543 0.15914142 -0.12167239 -0.21937533 0.028835835 0.002858006 0.2090743
0.09922501 -0.14924741 -0.034344316 -0.14943646 0.16329806 0.017074728 -0.22663398 0.095018215
0.0067321444 0.20161696 0.10805196 -0.173814 -0.20656246 0.20623529 0.14930193 0.17616566
-0.09580077 0.17351063 -0.21267244 -0.00996877 0.2102425 -0.11976859 -0.15700805 0.14327517
0.20320252 -0.106278196 0.042613246 -0.10985705 0.018087657 0.028731422 0.14326152 -0.2124592
-0.07937471 -0.0030195408 -0.059268136 0.12596676 -0.21160385 0.094128385 0.16133732 -0.11192073
0.2174962 0.17917514 0.1349571 -0.19202171 -0.17760457 -0.1911075 -0.082528956 0.089050956
-0.0696482 0.21787328 0.15792623 0.1668582 0.16323845 -0.08002444 0.19134967 -0.09140868
0.021002365 0.07654775 0.22755893 -0.019726973 -0.19708009 0.17871876 -0.14803438 0.11123343
-0.10491562 0.049190093 -0.12126707 -0.13303566 0.2158215 -0.055171013 0.11269651 0.23216037
-0.09939564 0.13583387 -0.1606542 0.08237897 0.17397936 0.11227696 -0.109683774 0.10286281
0.2092858 0.026491065 0.20306194 0.16485181 -0.20909943 0.112606965 -0.13253237 0.011899966
0.1696085 -0.11030041 0.0013764598 -0.22552288 0.17215116 0.08193684 -0.09712896 -0.22969796
-0.13252829 0.17263383 -0.03180286 -0.11559754 -0.039690334 0.07143301 -0.054791436 -0.03644129
-0.04557072 0.079523206 -0.01165439 0.11030089 0.16512084 -0.23094907 -0.13781053 0.20133057
-0.02036533 0.09071151 -0.14181712 -0.23085672 0.22646339 -0.13578553 -0.17748018 -0.1888865
0.1055159 0.2264496 0.16833848 0.053524923 0.09403892 -0.13163784 -0.11368227 -0.050102826
0.08407644 -0.0030714094 -0.19814521 -0.15423255 0.14481814 0.19040278 -0.19434345 0.13893819
-0.23085186 -0.22357681 0.14109725 0.16052186 0.0736945 -0.0079935435 0.15571311 0.2205061
-0.18631889 0.14493425 0.014599556 0.0033779857 0.103275515 -0.13965449 -0.02609584 -0.10314674
-0.1745315 -0.23161967 0.22572139 -0.020462913 -0.22641365 0.16703568 -0.14989361 0.03538613
0.05678844 0.22000837 -0.21096513 -0.14873177 0.03554817 0.006665749 -0.0014496268 0.096319206
-0.06731414 0.08996526 -0.10097803 0.07645902 -0.04279591 -0.095865816 0.07870368 -0.21790421
00000000: 95e7 45be 0989 283e 8449 3f3e d577 80bc
00000010: e920 51bd 296e 43be 9702 093e 3810 3f3e
00000020: bbe4 f2bc c227 c9bb dbd6 e4bd 98f0 27bd
00000030: a543 5d3d c72d 24be 558e 6f3e 0a16 313e
00000040: eb27 55be b837 943d a482 28be d7a8 5abd
00000050: 4d20 b93d cf1b 4e3e ba38 82bc dd88 5c3e
00000060: 38ee 2cbd 7ef1 a13c bb3a 14be c67c de3d
00000070: 6eb5 a5bd af23 b6bc dbe4 09be 1634 5cbd
00000080: 2ed8 56bd e7da f83d 7fbd 5a3d 55a6 663e
00000090: 43e3 d7bd 7aa2 d2bd 0516 d5bd e41d ec3d
000000a0: 9e39 3dbe 3d6f d13d ed9c b13d e480 683d
000000b0: 7c7c 6fbe b717 413d 2a83 4e3d 5d1b 57be
000000c0: 34d1 213d 1390 3f3e 32bb c53d 47a5 bfbd
000000d0: aaf2 81bc 504b 863d e11c 1fbe c4d1 5abd
000000e0: 43dc 793d 710f a8bc 2f60 bcbd 9de4 253e
000000f0: eccd b8bc a5f2 2d3e 15bd 52be 78d0 06bd
00000100: eccf fb3d fb29 593e 8ff6 233e 38b4 603e
00000110: 9bd8 22be a9cf 083e 551b b0bd 4b8e 36be
00000120: d6be 383c 599d 67bd f8f5 223e 602f f9bd
00000130: eda3 60be 2139 ec3c 624d 3b3b 9317 563e
00000140: 7b36 cb3d 50d4 18be a0ac 0cbd df05 19be
00000150: 9b37 273e 4de0 8b3c bd12 68be e998 c23d
00000160: 5299 dc3b ad74 4e3e 594a dd3d 4cfc 31be
00000170: 1c85 53be 582f 533e 9be2 183e c564 343e
00000180: 3233 c4bd c5ac 313e cec6 59be 0d54 23bc
00000190: cf49 573e 3c49 f5bd b8c6 20be bab6 123e
000001a0: 5214 503e 62a8 d9bd 3a8b 2e3d bcfc e0bd
000001b0: 912c 943c 295e eb3c 26b3 123e e88e 59be
000001c0: 358f a2bd 7de3 45bb 25c3 72bd 6efd 003e
000001d0: aeae 58be 62c6 c03d 9c35 253e b236 e5bd
000001e0: 53b7 5e3e b079 373e 3232 0a3e 57a1 44be
000001f0: f9dd 35be afb1 43be f104 a9bd 5960 b63d
00000200: b7a3 8ebd 2c1a 5f3e 6ab7 213e e0dc 2a3e
00000210: fb27 273e dbe3 a3bd 2bf1 433e 7934 bbbd
00000220: 270d ac3c 11c5 9c3d 3505 693e 769a a1bc
00000230: 5dcf 49be 0d02 373e 5396 17be 5ace e33d
00000240: 00de d6bd 8d7b 493d df5a f8bd 803a 08be
00000250: 5000 5d3e 00fb 61bd 6ecd e63d 73bb 6d3e
00000260: f18f cbbd 0918 0b3e 8982 24be 4eb6 a83d
00000270: a527 323e 76f1 e53d e3a1 e0bd bda9 d23d
00000280: 044f 563e ca03 d93c 78ef 4f3e eace 283e
00000290: 291e 56be 7b9e e63d 91b6 07be 13f8 423c
000002a0: daad 2d3e 2ee5 e1bd 546a b43a 78ef 66be
000002b0: 6548 303e 81ce a73d 8ceb c6bd f135 6bbe
000002c0: 7fb5 07be ecc6 303e b743 02bd 67be ecbd
000002d0: 5592 22bd 784b 923d fc6c 60bd 7643 15bd
000002e0: 5da8 3abd 10dd a23d 0ef2 3ebc 6fe5 e13d
000002f0: 7015 293e ea7d 6cbe 341e 0dbe 9a29 4e3e
00000300: 31d5 a6bc f5c6 b93d 8238 11be b465 6cbe
00000310: 05e6 673e 5d0b 0bbe 5dbd 35be 766b 41be
00000320: b818 d83d 67e2 673e ec60 2c3e f33c 5b3d
00000330: 7a97 c03d 12cc 06be 40d2 e8bd 9f38 4dbd
00000340: 4530 ac3d b349 49bb 94e6 4abe 23ef 1dbe
00000350: 354b 143e f2f8 423e f801 47be d045 0e3e
00000360: 6e64 6cbe 52f1 64be cc7b 103e d85f 243e
00000370: 24ed 963d 5af7 02bc 4273 1f3e 5acc 613e
00000380: 61ca 3ebe a569 143e fa32 6f3c 3261 5d3b
00000390: 1d82 d33d 9601 0fbe f1c6 d5bc 993e d3bd
000003a0: 63b8 32be b52d 6dbe 8223 673e d7a1 a7bc
000003b0: fbd8 67be 670b 2b3e b67d 19be 0cf1 103d
000003c0: ff9a 683d e049 613e 3e07 58be 244d 18be
000003d0: f59a 113d 5b6c da3b 6701 beba 0143 c53d
000003e0: ffdb 89bd b53f b83d 92cd cebd 8c96 9c3d
000003f0: c44a 2fbd 4c55 c4bd 652f a13d 4822 5fbe

actor_body.2.weight f4 [256, 256]
-0.025411911 -0.014599048 0.007848069 -0.060875453 0.055439264 0.041635424 0.040357865 0.0146249235
-0.04869946 0.034235694 0.038356997 0.0076224282 0.05391565 -0.046959944 -0.02229859 -0.011256792
0.009049945 0.043028876 0.03456687 0.028860971 -0.011397347 0.01111228 -0.032276466 -0.054530516
0.02061551 0.022719122 0.0021872371 -0.034240186 0.008575931 -0.012586281 0.056342907 0.015672162
-0.02396448 -0.011530951 0.049784087 0.054635383 -0.034160048 -0.056359544 -0.013866276 -0.031483583
-0.00817363 -0.019459464 0.020659 0.033468626 -0.03490439 0.01668097 0.034423985 -0.022181205
0.006589301 0.007411644 -0.03316067 0.059759334 -0.021294065 0.029600069 -0.048829652 0.0069740415
0.013898879 -0.062405236 0.037050307 0.01931063 0.04516489 -0.020948455 0.008917831 -0.0010108426
-0.022407845 0.013725743 -0.04249662 -0.060402893 -0.027292445 -0.04830721 -0.0067586154 0.011578418
-0.03636156 -0.02513808 -0.062132537 0.051597312 0.02647382 0.0077213943 0.020923711 -0.021212652
-0.04192812 -0.06032537 0.056595787 -0.013238937 -0.026245855 -0.0029600859 -0.016073696 -0.0093194395
-0.008866794 -0.004712701 -0.044508725 -0.06111011 -0.0062181056 0.025750354 -0.022064894 0.04774852
-0.027806014 -0.011178739 -0.04884097 0.019029759 0.0039992556 -0.043243125 -0.010479011 0.05623559
0.015121177 0.024173312 -0.014103845 -0.062240608 0.031440906 -0.035237454 0.019880638 -0.03673877
-0.053265505 0.02141609 -0.021761596 0.044260897 -0.04765456 -0.05559709 -0.0095153 0.017816909
-0.05618664 -0.019243129 -0.003163606 0.0007995665 -0.023940988 0.003787689 -0.05964344 -0.017289303
0.056385323 0.041287042 -0.010431215 0.022493407 0.031306475 -0.01735954 -0.04875218 -0.011718899
0.011976667 0.032657824 0.02681578 -0.04902827 0.053991847 -0.02320534 -0.0050138906 0.0072277337
-0.052971654 -0.025053166 0.012232937 -0.058666 0.045070864 0.002472408 0.045187548 0.049328707
-0.04671798 -0.051831275 -0.012749724 0.0237623 0.00026744604 -0.04783868 0.057437994 -0.015315026
-0.001714401 0.056596287 0.011603482 -0.06175419 0.025510825 -0.0409604 -0.050723284 0.042853065
0.0223936 -0.001983568 0.020414323 0.029855326 -0.00031860173 -0.04528387 0.030181602 -0.05074027
-0.024059266 -0.021281458 0.039215513 0.011395097 0.06202898 0.01734586 0.00093226135 0.000905253
-0.06220199 0.050276764 0.016694583 -0.019951157 0.04437398 -0.0062360168 -0.05716549 0.0022691563
0.03905128 -0.012174793 0.0531191 -0.0067913383 -0.047433116 0.010689519 -0.019277133 0.053979553
-0.022386193 -0.05311758 0.01701536 -0.015122421 0.05460681 0.018687963 -0.022321545 -0.019585706
0.050301194 -0.06125147 0.028814659 0.047266327 0.020517223 -0.03711886 0.04121813 -0.058494568
0.018797524 0.013923742 -0.011723764 -0.059701532 -0.019933052 0.0007568896 0.048587672 -0.0045762584
0.028518036 -0.033511348 -0.041146904 -0.009658113 -0.02468174 -0.004462801 -0.035375 -0.041393965
0.055628635 0.055434875 0.062082514 0.021984808 0.028706335 -0.056537375 -0.038194492 -0.011195168
0.009480901 0.010387756 -0.0012541115 -0.005100392 -0.023868255 -0.010805145 0.055462897 0.004961014
-0.013155676 -0.036907367 0.04863511 0.0053687766 -0.00062814355 0.0548205 -0.017516352 -0.0016728789
00000000: a42c d0bc d830 6fbc 3095 003c 8a58 79bd
00000010: 4814 633d e889 2a3d 4a4e 253d 609d 6f3c
00000020: 1679 47bd ba3a 0c3d 3a1c 1d3d 90c5 f93b
00000030: a8d6 5c3d 1259 40bd 88ab b6bc 686e 38bc
00000040: 3846 143c 0c3f 303d fe95 0d3d d86d ec3c
00000050: f0bb 3abc 4810 363c 5434 04bd 645b 5fbd
00000060: dce1 a83c 741d ba3c c057 0f3b 703f 0cbd
00000070: 1082 0c3c b036 4ebc d2c7 663d e862 803c
00000080: 2851 c4bc 50ec 3cbc 66ea 4b3d 5ac9 5f3d
00000090: 68eb 0bbd 44d9 66bd 602f 63bc eef4 00bd
000000a0: b0ea 05bc 7469 9fbc 103d a93c 6616 093d
000000b0: e8f7 0ebd 88a6 883c 2a00 0d3d 5cb5 b5bc
000000c0: 10eb d73b 60dd f23b 7cd3 07bd 34c6 743d
000000d0: e470 aebc d87b f23c 9a01 48bd 8086 e43b
000000e0: 20b8 633c a29c 7fbd 10c2 173d 5431 9e3c
000000f0: d2fe 383d 189c abbc 181c 123c 407e 84ba
00000100: a890 b7bc f0e1 603c f010 2ebd 0669 77bd
00000110: 6894 dfbc c8dd 45bd 6077 ddbb 68b3 3d3c
00000120: dcef 14bd 60ee cdbc b07e 7ebd b457 533d
00000130: a0df d83c c003 fd3b 3468 ab3c 28c6 adbc
00000140: d2bc 2bbd bc17 77bd fcd0 673d 20e8 58bc
00000150: 8c01 d7bc 00fe 41bb fcac 83bc 90b0 18bc
00000160: 0846 11bc 006d 9abb c84e 36bd 984e 7abd
00000170: 40c1 cbbb 68f2 d23c 70c1 b4bc f493 433d
00000180: 70c9 e3bc 0827 37bc 780d 48bd 4ce4 9b3c
00000190: 300c 833b b41f 31bd 28b0 2bbc 4a57 663d
000001a0: d0be 773c 1c07 c63c d013 67bc 02f0 7ebd
000001b0: 2ec8 003d 2655 10bd b8dc a23c 647b 16bd
000001c0: ee2c 5abd cc70 af3c 6045 b2bc ea4a 353d
000001d0: 6e31 43bd c6b9 63bd 10e6 1bbc c4f4 913c
000001e0: f623 66bd c4a3 9dbc 8054 4fbb 009a 513a
000001f0: e41f c4bc e03a 783b ae4c 74bd 4ca2 8dbc
00000200: 4cf4 663d 9a1c 293d b0e7 2abc 1844 b83c
00000210: 383b 003d 9835 8ebc 5eb0 47bd a000 40bc
00000220: c839 443c 36c4 053d c4ac db3c ded1 48bd
00000230: 8e26 5d3d 2019 bebc 904b a4bb a0d6 ec3b
00000240: cef8 58bd 4c3c cdbc a86c 483c c24b 70bd
00000250: 3a9c 383d 2008 223b 9416 393d e60c 4a3d
00000260: 5a5b 3fbd 084d 54bd 38e4 50bc 28a9 c23c
00000270: 0038 8c39 7ef2 43bd 1a44 6b3d e0eb 7abc
00000280: c0b5 e0ba 82d1 673d 881c 3e3c f6f1 7cbd
00000290: 14fc d03c 18c6 27bd 38c3 4fbd b286 2f3d
000002a0: c872 b73c c0fe 01bb f03b a73c 2893 f43c
000002b0: 000a a7b9 947b 39bd 683f f73c 08d5 4fbd
000002c0: f017 c5bc 7456 aebc 72a0 203d 80b2 3a3c
000002d0: 1a12 7e3d e818 8e3c 0063 743a 804e 6d3a
000002e0: 84c7 7ebd 02ef 4d3d 14c3 883c 9c70 a3bc
000002f0: 7ec1 353d 8057 ccbb 5c26 6abd 20b6 143b
00000300: 3cf4 1f3d c878 47bc 6a93 593d e089 debb
00000310: 3a49 42bd 1823 2f3c 14eb 9dbc aa19 5d3d
00000320: 4063 b7bc d291 59bd cc63 8b3c 08c4 77bc
00000330: 64ab 5f3d 8017 993c acdb b6bc 3472 a0bc
00000340: a008 4e3d d2e2 7abd b80c ec3c 569a 413d
00000350: bc13 a83c f209 18bd 58d4 283d 0098 6fbd
00000360: 44fd 993c 6820 643c 0815 40bc 9889 74bd
00000370: a44a a3bc 006a 463a de03 473d 70f4 95bb
00000380: a89e e93c 3243 09bd a889 28bd 103d 1ebc
00000390: 5c31 cabc b03c 92bb 60e5 10bd b88c 29bd
000003a0: dada 633d ae0f 633d 3c4a 7e3d 7c19 b43c
000003b0: 8c29 eb3c bc93 67bd d471 1cbd f06b 37bc
000003c0: c855 1b3c 6831 2a3c 0061 a4ba 3021 a7bb
000003d0: 5c87 c3bc 1008 31bc 102d 633d 0090 a23b
000003e0: e88a 57bc 2e2c 17bd 9c35 473d 90ec af3b
000003f0: 00aa 24ba 768b 603d 747e 8fbc 8044 dbba

actor_body.2.bias f4 [256]
-0.03340037 -0.016897038 -0.04531706 -0.02843739 0.005336657 0.05638904 0.031138346 -0.049565986
0.0006870255 -0.05139663 -0.028768398 0.017226577 0.013146371 0.03029836 0.04277598 0.050331973
-0.05129821 -0.0044210926 0.038919717 -0.018910222 0.010495126 0.059136994 -0.011784285 -0.012878455
-0.0096984655 0.010296829 0.045903586 0.05543893 -0.0058535635 0.034306034 0.039448783 -0.012765095
0.030460224 -0.04256589 -0.023582734 0.022435747 0.03966856 -0.03328924 0.011531338 -0.006247483
0.050042734 0.062429495 -0.03947836 -0.02633705 0.018197082 0.03335604 -0.022458896 0.061577387
-0.009992108 0.057970464 -0.034106977 0.020449713 -0.041831322 0.057274483 0.026459552 -0.048732646
-0.05626797 0.033966094 0.014982417 0.02510713 -0.038920514 -0.040887333 -0.03381195 -0.056558646
0.0179931 0.0009825453 0.020769216 -0.052517816 -0.0120733455 0.045989923 -0.01669819 0.017092384
-0.014364034 0.044623993 0.020921372 0.0062769055 0.043041244 -0.0036097988 -0.004829772 0.058393687
0.010732897 0.042710252 0.0045212805 -0.0018661618 0.05532074 -0.02386164 -0.059432812 0.020410493
-0.010426916 0.044555843 -0.036950827 -0.015135162 0.0025065541 0.013614789 -0.047521375 0.012444317
0.05076716 0.033654824 -0.033523202 -0.01749406 -0.012846954 0.009630159 -0.019000553 0.048697583
0.048529685 0.009469986 0.0011122897 -0.02756285 0.0027438253 0.06191273 0.053674974 -0.055086702
0.010459274 0.05385232 0.025172085 -0.0036676899 0.04507789 0.04645884 0.012657143 -0.00758224
-0.0577368 -0.044262215 0.06164985 0.0073534325 -0.023087718 0.04472676 0.014259785 0.051332258
0.017434046 -0.0072056875 0.023971438 0.026561312 0.026504934 -0.039964527 -0.025344111 0.056740463
-0.056912884 -0.040364824 0.056654572 0.04917649 -0.02529972 -0.06094391 -0.007578835 0.017750345
0.027921535 -0.020109147 0.031560577 -0.020898364 -0.041173443 0.034756966 -0.04299573 0.05264633
-0.042003915 -0.03367766 0.034826048 0.022728242 0.02574078 -0.011313602 -0.052685067 0.0395372
0.043531522 -0.009859264 0.045220733 0.062065534 0.044127524 -0.027120396 0.018238783 -0.014954507
0.005594127 -0.033727333 0.05850243 -0.0076831803 -0.027934253 -0.059958838 -0.01865732 0.041557096
0.026727408 -0.014516503 -0.0063160136 0.05466202 0.04840909 -0.014063589 0.020031586 -0.006659083
0.055197753 -0.009980664 0.013594091 0.0029448792 -0.010956094 0.00053949654 0.019502163 0.025297254
0.030099519 0.03963113 -0.004568942 -0.014667898 0.048267484 0.015460305 0.012785144 0.051672943
0.004836902 -0.0019473359 0.061552994 0.0065114573 0.039103195 0.05226524 0.0023021102 0.038499057
-0.059029654 0.025349908 0.034123622 -0.04888714 -0.032168016 -0.012106493 0.023332834 -0.0084894225
-0.0021854192 -0.012710899 0.048358753 -0.059509657 -0.010656536 -0.061731152 0.05372461 -0.01908347
-0.025445461 0.0036979914 -0.055752046 -0.023273073 0.013438411 -0.0240736 0.0038958043 -0.060765855
-0.05949557 -0.051187932 0.059428863 0.031642407 -0.06182968 0.049047954 0.049520336 -0.025141083
-0.024897486 0.019205779 -0.057480037 -0.021499254 -0.03501477 -0.035371482 0.042683326 -0.0043093637
0.009654127 0.0047897846 -0.035341166 0.044343688 0.054624513 -0.005336635 0.0066364706 0.006235197
00000000: d4ce 08bd a86b 8abc 629e 39bd 88f5 e8bc
00000010: 20df ae3b 32f8 663d d815 ff3c b405 4bbd
00000020: 8019 343a 4685 52bd b4ab ebbc c01e 8d3c
00000030: e063 573c 4434 f83c de35 2f3d e628 4e3d
00000040: 121e 52bd d0de 90bb 486a 1f3d 9ce9 9abc
00000050: c0f3 2b3c a239 723d e012 41bc 2800 53bc
00000060: 50e6 1ebc 08b4 283c 6605 3c3d ee13 633d
00000070: 40cf bfbb 7c84 0c3d 0c95 213d b024 51bc
00000080: b887 f93c 9259 2ebd 9430 c1bc 2ccb b73c
00000090: 807b 223d 4c5a 08bd f0ed 3c3c b0b7 ccbb
000000a0: 9cf9 4c3d 12b6 7f3d 10b4 21bd ccc0 d7bc
000000b0: 0c12 953c 58a0 083d b8fb b7bc 9238 7c3d
000000c0: f0b5 23bc 7072 6d3d c2b3 0bbd 2886 a73c
000000d0: 5257 2bbd a698 6a3d b4c1 d83c e29b 47bd
000000e0: 3e79 66bd 0820 0b3d d078 753c 78ad cd3c
000000f0: 1e6b 1fbd 7a79 27bd 667e 0abd 0aaa 67bd
00000100: 4466 933c c0c8 803a 3424 aa3c ec1c 57bd
00000110: 48cf 45bc ee5f 3c3d a4ca 88bc 5405 8c3c
00000120: 2057 6bbc a6c7 363d 4c63 ab3c 80ae cd3b
00000130: 044c 303d 6092 6cbb 1043 9ebb 382e 6f3d
00000140: 08d9 2f3c f2f0 2e3d 4027 943b 009a f4ba
00000150: 0098 623d 7c79 c3bc d26f 73bd e833 a73c
00000160: a8d5 2abc 3080 363d c059 17bd 78f9 77bc
00000170: 0045 243b 9010 5f3c c6a5 42bd 40e3 4b3c
00000180: 3af1 4f3d a4d9 093d a04f 09bd b44f 8fbc
00000190: 087c 52bc d0c7 1d3c 0ca7 9bbc 1e77 473d
000001a0: 10c7 463d 0028 1b3c 40ca 913a 7ccb e1bc
000001b0: c0d1 333b 3498 7d3d 4ada 5b3d 98a2 61bd
000001c0: 605d 2b3c 4094 5c3d b035 ce3c a05d 70bb
000001d0: 98a3 383d a04b 3e3d e85f 4f3c 7074 f8bb
000001e0: 6c7d 6cbd 4c4c 35bd 8e84 7c3d 10f5 f03b
000001f0: 7422 bdbc 6833 373d e0a1 693c c641 523d
00000200: d8d1 8e3c b01d ecbb c05f c43c 1c97 d93c
00000210: e020 d93c d8b1 23bd 749e cfbc b068 683d
00000220: 7c1d 69bd 9655 25bd a00e 683d 4a6d 493d
00000230: 5c41 cfbc 52a0 79bd e057 f8bb 2c69 913c
00000240: b4bb e43c f0bb a4bc aa45 013d 0c33 abbc
00000250: 7ca5 28bd 525d 0e3d 4a1c 30bd aea3 573d
00000260: 4c0c 2cbd 96f1 09bd c2a5 0e3d 9430 ba3c
00000270: 54de d23c b05c 39bc 4ccc 57bd c2f1 213d
00000280: 1c4e 323d c088 21bc 6039 393d 6e38 7e3d
00000290: 10bf 343d 982b debc 8069 953c c003 75bc
000002a0: f04e b73b ac25 0abd 3ea0 6f3d 30c3 fbbb
000002b0: 60d6 e4bc 6697 75bd 3cd7 98bc c637 2a3d
000002c0: 70f3 da3c a0d6 6dbc 90f6 cebb 48e5 5f3d
000002d0: 9c48 463d f86a 66bc 4819 a43c 7034 dabb
000002e0: 0a17 623d f085 23bc c0b9 5e3c e0fe 403b
000002f0: 3081 33bc 006d 0d3a 00c3 9f3c 303c cf3c
00000300: 4493 f63c 4054 223d 10b7 95bb a051 70bc
00000310: 20b4 453d 384d 7d3c c878 513c 02a7 533d
00000320: e07e 9e3b c03d ffba fe1e 7c3d 105e d53b
00000330: ac2a 203d 1414 563d 00df 163b 30b1 1d3d
00000340: 14c9 71bd 9caa cf3c 36c5 0b3d e23d 48bd
00000350: 9cc2 03bd 505a 46bc 8024 bf3c 3817 0bbc
00000360: 4039 0fbb 6041 50bc d413 463d 66c0 73bd
00000370: c098 2ebc ced9 7cbd 560e 5c3d f054 9cbc
00000380: 0073 d0bc 005a 723b 425c 64bd 2ca7 bebc
00000390: c82c 5c3c 0036 c5bc c050 7f3b 9ee5 78bd
000003a0: a0b1 73bd 70aa 51bd ae6b 733d 789b 013d
000003b0: 1e41 7dbd 82e6 483d d6d5 4a3d acf4 cdbc
000003c0: d0f5 cbbc 7055 9d3c 3070 6bbd 341f b0bc
000003d0: a66b 0fbd b0e1 10bd b6d4 2e3d 9035 8dbb
000003e0: 582c 1e3c a0f3 9c3b e6c1 10bd baa1 353d
000003f0: f4bd 5f3d f0de aebb c076 d93b a050 cc3b

actor_output.weight f4 [27, 256]
0.03921525 0.0029278845 -0.056437455 -0.03206376 -0.011844926 0.034983404 0.005510129 -0.016806029
-0.046594426 -0.0031343773 -0.012601078 0.009683207 0.03534335 -0.037515976 0.0067127123 0.008155942
0.017951906 0.029346265 0.03666787 -0.0023596138 -0.022178724 -0.013538964 0.029394574 -0.018040843
0.04526083 -0.038594916 0.037705384 -0.00427106 -0.04489828 -0.026453964 -0.013634279 -0.04392349
0.05876424 -0.022408813 -0.017970778 -0.020714514 -0.04950258 -0.060336813 0.028221965 -0.0049864873
-0.042385846 -0.046459466 -0.05010111 -0.045592785 0.05985772 -0.0068467036 0.03938911 -0.03733225
0.025359862 -0.018326983 -0.043179743 -0.03175895 0.044740103 0.018900923 0.049354047 -0.02528239
-0.045254216 0.050465673 0.032947943 -0.03183244 0.013816491 -0.036435716 0.027374439 -0.04273797
0.04110884 0.0042862594 0.057607837 0.0027088746 0.006787479 0.0031462088 0.0026062876 0.015101522
-0.05879096 -0.046556786 -0.062487 0.05337636 0.034230404 -0.006106071 0.024139822 -0.004658401
-0.046518862 0.0520875 0.0022129118 -0.058926217 0.02585473 0.021687068 0.032189965 0.010573491
-0.047190055 -0.04327242 0.048322894 0.035591267 0.052029952 0.027537853 0.040649183 0.018521518
0.024760999 0.04876385 0.023004241 0.011018686 0.0175253 0.021519795 0.06220881 0.03387209
-0.049390562 -0.036817506 0.029168874 0.036436237 -0.03446333 0.004623227 0.0061981604 -0.025576212
0.0004619956 -0.010489993 -0.03656546 0.010076135 0.013356298 -0.04031439 -0.010372341 0.031276517
0.03275127 -0.038717218 -0.049671866 -0.02683758 0.027642772 -0.048899338 -0.00039449334 -0.06159722
0.03780739 -0.06121841 -0.051524647 0.049757637 0.047619797 -0.021346487 0.031169139 0.013842888
-0.03780967 -0.048059054 -0.056053042 -0.058233894 -0.048982 0.011009768 -0.0012583211 0.0147168115
-0.02572754 0.020499125 -0.017917015 0.020414524 0.008701347 0.030118346 -0.03862959 0.0052170306
0.009956598 0.059189014 -0.035415493 0.03902039 0.05366277 -0.010162458 -0.024038956 -0.047340795
0.05608491 -0.053443454 -0.05539798 0.001096189 0.048877552 0.012822352 0.020199113 0.03175181
-0.06106426 0.033896454 0.04698939 -0.06119705 0.04786741 -0.051503994 -0.0075274557 0.03126943
0.037215456 -4.4040382e-05 0.05373604 0.045333937 -0.031510517 0.004787907 0.022618085 0.044745505
-0.009706132 0.008114465 -0.012068175 -0.02295088 -0.021957226 0.060452826 0.039471276 -0.038309716
0.06210746 -0.033184826 0.0015097857 -0.039501473 -0.00821019 -0.031625725 0.039868362 -0.054856688
-0.00983303 -0.011711612 0.0463311 0.050918132 -0.008819506 -0.031999856 0.059637435 0.04582881
0.04653144 0.0025412887 -0.044921793 -0.012142628 0.012071162 -0.044538304 0.02902101 0.03404715
-0.05688481 -0.0044270605 -0.029615603 0.05730293 0.0045734867 -0.060085244 0.011596441 0.057652235
0.028316818 0.0005720854 -0.05000305 -0.03442607 -0.039280623 0.041556537 -0.057064578 -0.01891394
-0.036886662 0.03396716 -0.024120197 -0.043124706 -0.026432216 -0.059162408 0.048107922 -0.03411924
-0.037791736 0.019224241 -0.033762097 -0.05412671 -0.028985068 0.04595872 -0.039242133 0.010644503
-0.03385082 0.05631388 -0.050018556 -0.011798829 -0.01738979 -0.043755956 -0.029348485 -0.030858152
00000000: 2ca0 203d c0e1 3f3b f62a 67bd 4a55 03bd
00000010: 3811 42bc c24a 0f3d 508e b43b ccac 89bc
00000020: ccd9 3ebd 206a 4dbb c074 4ebc 50a6 1e3c
00000030: 30c4 103d 5aaa 19bd 50f6 db3b 80a0 053c
00000040: e00f 933c 9467 f03c 0c31 163d c0a3 1abb
00000050: 28b0 b5bc 88d2 5dbc e4cc f03c 64ca 93bc
00000060: 6c63 393d b415 1ebd f670 1a3d 40f4 8bbb
00000070: 42e7 37bd fcb5 d8bc 5062 5fbc 1ee9 33bd
00000080: c6b2 703d b092 b7bc 7437 93bc 7cb1 a9bc
00000090: 38c3 4abd bc23 77bd c031 e73c b065 a3bb
000000a0: c89c 2dbd 484c 3ebd d236 4dbd 80bf 3abd
000000b0: 5e2d 753d 505a e0bb 7a56 213d b4e9 18bd
000000c0: 7cbf cf3c 7822 96bc 3edd 30bd ac15 02bd
000000d0: 6641 373d 1cd6 9a3c 7827 4a3d 041d cfbc
000000e0: 7c5c 39bd 18b5 4e3d 6cf4 063d bc62 02bd
000000f0: 905e 623c 9e3d 15bd 5c40 e03c 020e 2fbd
00000100: be61 283d c073 8c3b 32f6 6b3d 6087 313b
00000110: 8069 de3b a030 4e3b 40ce 2a3b 606c 773c
00000120: cace 70bd 54b2 3ebd 5ef2 7fbd 2ca1 5a3d
00000130: 2e35 0c3d 7015 c8bb e0c0 c53c 80a5 98bb
00000140: 908a 3ebd b459 553d 8006 113b 9e5c 71bd
00000150: 4ccd d33c 14a9 b13c a0d9 033d 703c 2d3c
00000160: 5c4a 41bd 6c3e 31bd 3aee 453d 26c8 113d
00000170: 5c1d 553d 1097 e13c c27f 263d 70ba 973c
00000180: 94d7 ca3c 9abc 473d 6473 bc3c b887 343c
00000190: 3891 8f3c 484a b03c aace 7e3d 76bd 0a3d
000001a0: c24d 4abd f4cd 16bd 90f3 ee3c 2a3e 153d
000001b0: 6c29 0dbd 707e 973b f019 cb3b 3485 d1bc
000001c0: 0038 f239 38de 2bbc aac5 15bd 6016 253c
000001d0: 60d4 5a3c b420 25bd c0f0 29bc ce1b 003d
000001e0: 3226 063d f295 1ebd ba74 4bbd 7cda dbbc
000001f0: 1873 e23c ac4a 48bd 00d4 ceb9 5e4d 7cbd
00000200: ecdb 1a3d 28c0 7abd 820b 53bd aace 4b3d
00000210: fa0c 433d d4de aebc 6c56 ff3c 48cd 623c
00000220: 50de 1abd 92d9 44bd e097 65bd aa86 6ebd
00000230: 5aa1 48bd 5062 343c 40ee a4ba c81e 713c
00000240: 90c2 d2bc c8ed a73c b4c6 92bc 5c3c a73c
00000250: 1890 0e3c c0ba f63c 103a 1ebd a0f3 aa3b
00000260: 0021 233c 2e70 723d d60f 11bd d8d3 1f3d
00000270: 7ecd 5b3d 7080 26bc 58ed c4bc 6ce8 41bd
00000280: 4ab9 653d 86e7 5abd fee8 62bd 00ae 8f3a
00000290: d433 483d d814 523c 9c78 a53c 300e 023d
000002a0: 841e 7abd 02d7 0a3d f277 403d c2a9 7abd
000002b0: 9e10 443d daf5 52bd e0a8 f6bb 6014 003d
000002c0: 3c6f 183d 00b8 38b8 521a 5c3d 14b0 393d
000002d0: 2c11 01bd e0e3 9c3b 9049 b93c 1047 373d
000002e0: 7806 1fbc 88f2 043c 98b9 45bc 7c03 bcbc
000002f0: a4df b3bc 629d 773d a2ac 213d a6ea 1cbd
00000300: 6464 7e3d d0ec 07bd 00e4 c53a 4ccc 21bd
00000310: 0884 06bc fa89 01bd 024d 233d 68b1 60bd
00000320: b81a 21bc 10e2 3fbc aec5 3d3d 888f 503d
00000330: b07f 10bc 4812 03bd 6246 743d feb6 3b3d
00000340: c097 3e3d c08b 263b eaff 37bd e0f1 46bc
00000350: 20c6 453c cc6d 36bd 78bd ed3c 0675 0b3d
00000360: 0c00 69bd e010 91bb 6c9c f2bc 7ab6 6a3d
00000370: 30dd 953b f21b 76bd 00ff 3d3c c024 6c3d
00000380: acf8 e73c 00f8 153a 00d0 4cbd 5a02 0dbd
00000390: b8e4 20bd 3037 2a3d 8cbc 69bd 68f1 9abc
000003a0: 7816 17bd 2621 0b3d b897 c5bc 88a3 30bd
000003b0: 6088 d8bc 4854 72bd d00c 453d 9ec0 0bbd
000003c0: 82cb 1abd 287c 9d3c 204a 0abd f8b3 5dbd
000003d0: 1872 edbc 363f 3c3d 5cbc 20bd 4866 2e3c
000003e0: 28a7 0abd 62a9 663d 42e0 4cbd e04f 41bc
000003f0: 0875 8ebc 7239 33bd 3c6c f0bc 3cca fcbc

actor_output.bias f4 [27]
0.058355823 0.03543295 0.04496464 0.02184777 0.03732471 0.016394854 -0.024603955 -0.0014576763
-0.017373815 -0.038746662 0.0053004473 0.013062373 0.010048449 0.015658543 0.037110485 -0.011110477
-0.05813708 0.042833418 -0.012870021 0.0437299 0.018296473 0.0312749 -0.02671314 -0.059907034
-0.043165646 -0.023215346 -0.006296009
00000000: 8406 6f3d 2422 113d d82c 383d 18fa b23c
00000010: cce1 183d 804e 863c 3c8e c9bc 800f bfba
00000020: 8853 8ebc d2b4 1ebd 60af ad3b 9003 563c
00000030: 40a2 243c 5846 803c 2a01 183d b808 36bc
00000040: 2621 6ebd 1872 2f3d c8dc 52bc 201e 333d
00000050: 7ce2 953c 1c1a 003d 84d5 dabc 1461 75bd
00000060: 76ce 30bd 1c2e bebc c04e cebb

critic_body.0.weight f4 [256, 18]
-0.07407528 -0.11446863 -0.26850468 0.23968267 -0.11202536 0.005496698 0.2412594 0.12809563
-0.043334328 0.26365015 0.1184619 0.07652165 -0.017758183 0.004623589 0.008175425 0.17913958
0.021440541 -0.15381089 -0.019572731 0.04261269 -0.1138253 -0.16655166 -0.04422485 0.019383915
0.17556977 -0.38651648 -0.3817066 -0.09628722 0.43189237 0.106796615 0.023972565 -0.0027279463
0.0012825576 0.058574088 0.39955586 0.15880848 -0.06592599 -0.08438998 -0.17108466 -0.1312618
-0.15181705 -0.1736745 0.083949246 0.15560488 0.021112965 -0.1902898 0.04754538 -0.26031968
-0.02218291 -0.09478474 -0.014008173 -0.31850708 0.039817207 -0.26271835 0.18805076 0.22272271
0.02943727 -0.22008507 -0.13606587 -0.13855578 -0.02437079 0.10318663 0.1184061 0.08271929
0.056402385 0.14489771 0.06805732 0.057221696 0.032318998 0.3121805 -0.03393102 -0.121928126
0.030835675 -0.122018024 -0.24102305 0.039538737 0.004555806 -0.13458365 0.17539215 -0.23185702
-0.17075527 0.008225025 0.34546843 0.09870475 -0.13055381 0.07883726 -0.025209622 0.10325386
0.30883032 -0.19304252 -0.15089464 -0.1383615 -0.17745228 0.21747637 0.096080236 0.15178685
0.1070858 0.09472392 -0.018626586 0.06505027 0.16035733 0.1231804 -0.17824727 -0.06814087
-0.08685657 0.28802085 -0.12339589 -0.032000292 0.14802448 -0.07267916 -0.2271111 -0.04439876
0.007495145 -0.13982177 0.070448786 0.11237132 -0.08951486 0.16200587 0.275616 0.050837595
0.009058399 0.0039714333 -0.010953886 -0.033083938 -0.11543783 -0.029104143 -0.18293811 -0.18549012
-0.21341637 0.25046796 -0.12796082 0.07972551 -0.009407712 -0.13553846 -0.2669381 -0.20334253
0.051375333 -0.19398244 -0.03294932 -0.016045293 -0.06429714 -0.2537387 -0.1416148 0.21290243
0.079858534 0.09042116 -0.0714129 -0.012678033 -0.14160836 0.09486464 -0.20038323 -0.046979126
0.16235797 -0.1043997 -0.12888211 0.0606255 -0.0016142516 -0.013586152 -0.0074526034 -0.032832887
0.09609018 -0.12644002 -0.14346041 0.082813144 0.21650583 -0.14375396 -0.14083579 -0.18128192
-0.044111013 0.07984949 -0.07971958 -0.11765921 0.11069119 0.100825705 -0.044881362 -0.056993414
0.028248308 -0.23855779 0.001290258 0.25258344 -0.07838681 0.011287089 0.057169467 0.17072149
-0.04654803 0.02765705 0.23290741 -0.008752544 -0.20241554 -0.042464726 -0.011396582 0.053071685
0.0020958818 0.05664921 0.015025108 -0.101437345 -0.23831782 0.41769832 0.17631443 -0.13306765
0.13440678 -0.16162561 0.14197159 0.13400242 -0.066174746 0.18345346 -0.26018295 0.050163694
-0.19982472 0.09306455 0.0017653202 0.06521482 -0.007838764 0.10583657 0.23341748 0.094693184
0.17228714 0.124177516 -0.13297756 0.14664984 -0.19344234 -0.012636452 -0.24643098 -0.058424488
-0.14612769 -0.29422238 0.0025172401 -0.062232614 -0.12548356 -0.02768893 -0.03656668 -0.2871591
0.13982834 0.17066808 0.1718017 0.27074152 -0.00856034 0.1895526 0.08716607 0.17096107
0.15268826 -0.057880655 -0.19271512 0.13735768 0.18470813 0.16795063 -0.08718254 -0.047652893
-0.04929373 0.1643809 0.1279539 -0.066036254 -0.14363787 -0.12518549 -0.18989056 0.17408822
00000000: c8b4 97bd 876e eabd 7279 89be 606f 753e
00000010: 8d6d e5bd a51d b43b b40c 773e 802b 033e
00000020: 567f 31bd 27fd 863e 279c f23d 62b7 9c3d
00000030: 9c79 91bc 7a81 973b 38f2 053c 5e70 373e
00000040: 13a4 af3c 9a80 1dbe fe56 a0bc a58a 2e3d
00000050: 3d1d e9bd 858c 2abe 1e25 35bd 04cb 9e3c
00000060: 90c8 333e 7de5 c5be 0c6f c3be 3c32 c5bd
00000070: ff20 dd3e 2fb8 da3d 1d62 c43c 58c7 32bb
00000080: 7e1b a83a 62eb 6f3d 9692 cc3e b19e 223e
00000090: 3504 87bd a7d4 acbd d130 2fbe 7e69 06be
000000a0: ee75 1bbe bad7 31be 95ed ab3d e356 1f3e
000000b0: 19f5 ac3c 54db 42be f2be 423d 9f48 85be
000000c0: efb8 b5bc 801e c2bd 8982 65bc 5c13 a3be
000000d0: 5e17 233d 0583 86be 6190 403e 6c11 643e
000000e0: 6e26 f13c fb5d 61be da54 0bbe 91e1 0dbe
000000f0: 40a5 c7bc 8353 d33d e67e f23d bb68 a93d
00000100: 3006 673d 1160 143e a361 8b3d 4c61 6a3d
00000110: ed60 043d 1fd6 9f3e 41fb 0abd 74b5 f9bd
00000120: 199b fc3c 96e4 f9bd bfce 76be 5ff3 213d
00000130: df48 953b 4cd0 09be 009a 333e ed6b 6dbe
00000140: 78da 2ebe 41c2 063c 3de1 b03e b725 ca3d
00000150: e6af 05be 6e75 a13d 6984 cebc c276 d33d
00000160: 021f 9e3e f0ac 45be 2084 1abe a3ae 0dbe
00000170: 0db6 35be 20b2 5e3e b7c5 c43d 036e 1b3e
00000180: cd4f db3d 9dfe c13d c896 98bc 1339 853d
00000190: b634 243e 0146 fc3d 7486 36be 718d 8bbd
000001a0: dbe1 b1bd 7877 933e fcb6 fcbd bd12 03bd
000001b0: bb93 173e d0d8 94bd d08f 68be 79db 35bd
000001c0: d599 f53b 702d 0fbe 7447 903d ef22 e63d
000001d0: 9153 b7bd dee4 253e 8a1d 8d3e 153b 503d
000001e0: ae69 143c cc22 823b ee77 33bc 0683 07bd
000001f0: ab6a ecbd d06b eebc 2154 3bbe 1ff1 3dbe
00000200: d289 5abe 563d 803e 2908 03be 2147 a33d
00000210: ce22 1abc 98ca 0abe 1cac 88be 0639 50be
00000220: f16e 523d 55a3 46be def5 06bd 6b71 83bc
00000230: 38ae 83bd 0aea 81be 7803 11be 1803 5a3e
00000240: df8c a33d bb2e b93d ed40 92bd 86b7 4fbc
00000250: c801 11be 6448 c23d 4331 4dbe 2f6d 40bd
00000260: 2b41 263e 83cf d5bd acf9 03be 7252 783d
00000270: 4c95 d3ba 7498 5ebc f834 f4bb c77b 06bd
00000280: eeca c43d 7e79 01be 49e7 12be f099 a93d
00000290: b4b3 5d3e 3d34 13be 4237 10be f8a1 39be
000002a0: c0ad 34bd 2188 a33d 0544 a3bd 50f7 f0bd
000002b0: 10b2 e23d b57d ce3d 85d5 37bd ed71 69bd
000002c0: ff68 e73c 7e48 74be e01d a93a 9e52 813e
000002d0: 4489 a0bd 7ced 383c 882a 6a3d 9dd1 2e3e
000002e0: 26a9 3ebd 0a91 e23c 487f 6e3e d566 0fbc
000002f0: 0546 4fbe 7eef 2dbd bbb8 3abc b261 593d
00000300: 105b 093b 0109 683d df2b 763c 62be cfbd
00000310: 9609 74be 8edc d53e c58b 343e e342 08be
00000320: eea1 093e 2f81 25be 0061 113e ee37 093e
00000330: a086 87bd 39db 3b3e b336 85be 7278 4d3d
00000340: da9e 4cbe a098 be3d 5162 e73a 598f 853d
00000350: 296e 00bc d8c0 d83d fe04 6f3e 80ee c13d
00000360: 0a6c 303e c850 fe3d 452b 08be 602b 163e
00000370: c015 46be 1f09 4fbc 6758 7cbe 844e 6fbd
00000380: 7fa2 15be 51a4 96be 48f8 243b a0e7 7ebd
00000390: c37e 00be e5d3 e2bc f1c6 15bd 8406 93be
000003a0: 292f 0f3e 9dc3 2e3e c9ec 2f3e a29e 8a3e
000003b0: ab40 0cbc 141a 423e 2084 b23d 6b10 2f3e
000003c0: 505a 1c3e 4414 6dbd 1d57 45be 7ea7 0c3e
000003d0: 2124 3d3e 40fb 2b3e c28c b2bd ae2f 43bd
000003e0: 39e8 49bd 7753 283e 5906 033e 043e 87bd
000003f0: ce15 13be a030 00be ac72 42be 2f44 323e

critic_body.0.bias f4 [256]
0.060637865 0.025512623 -0.20042703 -0.11398967 -0.27272052 -0.21652937 0.18713906 0.1845426
-0.13268457 0.15207162 -0.100017875 0.108128995 0.04028639 -0.1482418 -0.053336784 0.10489893
-0.0014277655 -0.296805 0.23262423 -0.021986296 0.12174507 0.008593582 0.28516704 0.070008576
-0.017994814 0.038154833 0.15747944 0.11616123 0.038912714 -0.06010834 0.17159882 -0.21443926
-0.17641516 -0.021393253 -0.15141678 -0.2562648 -0.17134535 -0.26532516 0.04865955 -0.2056272
0.049881786 -0.17969029 0.12927528 0.16162786 0.10802815 -0.016604034 -0.021191398 -0.019771742
-0.15702982 0.049034797 0.09520535 -0.08514923 -0.08020654 -0.008429051 -0.27307725 0.0054298784
-0.021598674 -0.07576795 -0.19865838 -0.105847254 -0.29665974 -0.2459132 0.08427592 0.0111815
-0.073203854 -0.1896677 -0.15814123 -0.03966229 -0.059063617 -0.29518542 0.16381322 -0.050832827
-0.22362764 0.2795682 -0.07730707 -0.13513385 -0.22717606 -0.14357021 -0.064454876 0.1039775
-0.18398912 0.17083852 0.22823676 -0.30881917 -0.16274337 0.14587161 -0.1474595 -0.2233723
0.27058497 -0.19738093 -0.008630213 0.13253121 -0.04560792 -0.13839431 0.22360541 -0.0020530208
0.2395659 -0.14863628 0.022115065 -0.04382868 -0.19918948 -0.2340767 -0.04734473 -0.1225761
-0.22616927 -0.15522237 -0.12737775 -0.20651433 0.15961844 -0.29400817 -0.15237783 0.04114303
-0.22654656 -0.20487806 0.17751813 -0.0002520748 0.06957046 0.07769575 -0.0352514 0.18161522
0.019785926 0.084178254 -0.17280069 -0.027994221 -0.2071474 -0.061945297 -0.1746922 -0.1026254
-0.16630545 -0.11099287 -0.19581036 0.028668068 -0.16111128 -0.07079941 -0.09856155 -0.017108653
0.13146433 -0.07553288 0.027924826 -0.25368118 -0.25029796 0.008159489 -0.22603202 -0.07110156
0.10343997 -0.08483208 -0.20979 -0.004717024 -0.1929502 -0.114270754 -0.096387506 -0.03651941
0.14696097 -0.13863029 0.021130478 -0.014559202 -0.19186755 -0.17357317 -0.008934458 -0.05372124
-0.22236334 -0.28924108 0.06925101 -0.041946933 -0.06602137 -0.072322294 0.06385482 -0.108632535
0.029556373 -0.02746279 -0.26747403 -0.2122802 -0.07686238 -0.100905314 -0.17645183 -0.016251545
-0.021283649 -0.22480583 -0.1004511 -0.18281212 0.35916424 -0.25706935 0.0052448013 0.15154986
0.13373117 0.005582011 0.02879271 -0.20398182 -0.1456007 -0.11588145 -0.26177132 -0.042962287
-0.0020431865 -0.04857977 -0.1381407 -0.099976316 -0.041340604 -0.19268689 0.22631414 0.026487254
-0.06090937 -0.14039722 -0.011870925 0.043476064 -0.013326563 -0.25167763 -0.27705875 -0.21844748
0.027027486 0.16182038 0.042344153 -0.042028602 -0.25061885 -0.20347808 -0.28011355 -0.047141206
-0.03230268 0.22372553 -0.17602016 -0.11560435 -0.04477193 -0.06075544 -0.22121082 -0.029491464
-0.05045948 0.1526589 0.038277633 -0.23176007 0.095096104 0.050324004 -0.2255013 -0.1548842
-0.2536967 0.092285275 -0.20891918 -0.100472406 0.06966827 0.045241583 -0.20924069 -0.0013093317
0.0286254 -0.10776778 0.16237926 -0.2703806 -0.21357176 -0.12841284 -0.15882047 0.07649695
-0.07120065 -0.27010295 -0.16546883 -0.012011926 -0.2761295 -0.12013882 0.112318836 -0.26703438
00000000: 695f 783d d9ff d03c be3c 4dbe 6b73 e9bd
00000010: 06a2 8bbe e0b9 5dbe 62a1 3f3e bcf8 3c3e
00000020: 77de 07be aab8 1b3e 2cd6 ccbd bc72 dd3d
00000030: 5703 253d b3cc 17be ac77 5abd 40d5 d63d
00000040: dc23 bbba d3f6 97be 0c35 6e3e 9b1c b4bc
00000050: 7b55 f93d 18cc 0c3c 6a01 923e a860 8f3d
00000060: dc69 93bc 3e48 1c3d 4a42 213e f0e5 ed3d
00000070: f062 1f3d 2a34 76bd 9ab7 2f3e f795 5bbe
00000080: 2da6 34be e740 afbc 000d 1bbe 2435 83be
00000090: 2875 2fbe b3d8 87be 3c4f 473d f08f 52be
000000a0: d850 4c3d bb00 38be bd60 043e c681 253e
000000b0: dd3d dd3d 2f05 88bc 9599 adbc 59f8 a1bc
000000c0: 6dcc 20be b6d8 483d 06fb c23d b862 aebd
000000d0: 5443 a4bd 011a 0abc c8d0 8bbe 1fed b13b
000000e0: b4ef b0bc 3a2c 9bbd 1a6d 4bbe 72c6 d8bd
000000f0: c9e3 97be abd0 7bbe db98 ac3d 9c32 373c
00000100: e7eb 95bd 4038 42be c6ef 21be ed74 22bd
00000110: b1ec 71bd 8b22 97be a7be 273e 1536 50bd
00000120: a5fe 64be 9023 8f3e 2b53 9ebd 8760 0abe
00000130: d7a0 68be 1204 13be eb00 84bd 28f2 d43d
00000140: a567 3cbe 4bf0 2e3e e6b6 693e 8c1d 9ebe
00000150: 33a6 26be 5e5f 153e a0ff 16be b5bb 64be
00000160: 1d8a 8a3e 3a1e 4abe bd65 0dbc 43b6 073e
00000170: 5fcf 3abd 3db7 0dbe d1f8 643e f98b 06bb
00000180: c350 753e 1c34 18be a72a b53c b485 33bd
00000190: 54f8 4bbe cdb1 6fbe 8cec 41bd 2e09 fbbd
000001a0: eb98 67be 9df2 1ebe 506f 02be 7e78 53be
000001b0: 0473 233e 3d88 96be ef08 1cbe 9885 283d
000001c0: d2fb 67be 8ecb 51be 50c7 353e e828 84b9
000001d0: f57a 8e3d f31e 9f3d c663 10bd 57f9 393e
000001e0: 1816 a23c a665 ac3d aaf2 30be 2354 e5bc
000001f0: 731e 54be 5aba 7dbd 83e2 32be 442d d2bd
00000200: fa4b 2abe 3b50 e3bd 8382 48be 4cd9 ea3c
00000210: 5bfa 24be 48ff 90bd a3da c9bd 7227 8cbc
00000220: 969e 063e fcb0 9abd 9bc2 e43c 80e2 81be
00000230: 0e27 80be 61af 053c f074 67be b29d 91bd
00000240: 56d8 d33d 71bc adbd 31d3 56be 4491 9abb
00000250: bd94 45be c906 eabd d066 c5bd 6095 15bd
00000260: f07c 163e 19f5 0dbe d319 ad3c b889 6ebc
00000270: ed78 44be 2abd 31be d561 12bc ce0a 5cbd
00000280: 37b3 63be 6817 94be 79d3 8d3d 8cd0 2bbd
00000290: 3636 87bd b61d 94bd 51c6 823d bc7a debd
000002a0: 3520 f23c a5f9 e0bc 5bf2 88be fb5f 59be
000002b0: 066a 9dbd 72a7 cebd caaf 34be f621 85bc
000002c0: 0c5b aebc 8033 66be 4eb9 cdbd 1a33 3bbe
000002d0: 60e4 b73e 989e 83be 95dc ab3b e32f 1b3e
000002e0: d3f0 083e 4de9 b63b b0de eb3c 9ce0 50be
000002f0: 5a18 15be 4153 edbd e406 86be 39f9 2fbd
00000300: fbe6 05bb 95fb 46bd c174 0dbe 62c0 ccbd
00000310: c454 29bd b64f 45be e5be 673e ccfb d83c
00000320: 1b7c 79bd 4ac4 0fbe 457e 42bc f513 323d
00000330: a857 5abc e4db 80be a5da 8dbe b2b0 5fbe
00000340: bf68 dd3c 3eb4 253e 1071 2d3d 2f26 2cbd
00000350: 1d51 80be 8f5c 50be 0b6b 8fbe 2317 41bd
00000360: d14f 04bd 4e18 653e a13e 34be f9c1 ecbd
00000370: c562 37bd b2da 78bd 1785 62be 1598 f1bc
00000380: 9aae 4ebd 9d52 1c3e 02c9 1c3d 8352 6dbe
00000390: bfc1 c23d 8b20 4e3d d0e9 66be f799 1ebe
000003a0: 89e4 81be 1000 bd3d e9ee 55be 7ac4 cdbd
000003b0: 3dae 8e3d 3d4f 393d 3143 56be e29d abba
000003c0: d17f ea3c 5bb5 dcbd c046 263e 536f 8abe
000003d0: 8eb2 5abe a87e 03be d5a1 22be 6faa 9c3d
000003e0: a5d1 91bd ef4a 8abe a970 29be abcd 44bc
000003f0: d960 8dbe 570b f6bd 6b07 e63d bbb8 88be
