logs/model_checkpoint_10.pth (torch, 627585 bytes, 11 tensors)

actor_body.0.weight f4 [256, 19]
000000 76 99 38 bd 2d e3 4a bd a9 80 07 3e 0a bd 0b 3e
       -0.045068227 -0.049533058 0.13232674 0.13646331
000010 5d 89 b1 3d d9 67 91 3d e8 67 13 3c ca e3 a5 bd
       0.08668778 0.070998855 0.008996941 -0.08100088
000020 f2 b9 07 3e b8 57 19 be 9c 0f 38 3d 6e f6 28 be
       0.13254526 -0.14974868 0.04493676 -0.16500255
000030 30 bb 19 3e 94 3f 9d 3c 02 90 45 3e 0b 8f 14 be
       0.15012813 0.019195355 0.19293216 -0.14507692
000040 65 2a 3a 3e 77 6b f3 bd be be 6a be 57 6b 26 3e
       0.18180235 -0.11885732 -0.22924325 0.16251884
000050 1d ec 30 3e 52 ea 9b 3c dd 35 46 be 76 bf b6 bd
       0.1727757 0.019032631 -0.19356485 -0.08923237
000060 03 e4 5b be e1 c1 f7 3b cf 91 61 be d5 5d 4e 3e
       -0.21473698 0.007560954 -0.22028278 0.20152982
000070 d0 42 4b bc 57 2e 2a 3e e3 14 f5 bd 84 a6 5e 3e
       -0.012406066 0.1661924 -0.119668745 0.21743208
000080 a9 8e e5 3d 0f b2 fc 3d ea c2 a1 3d 1e 45 d3 3d
       0.11208851 0.123386495 0.07898505 0.103159174
000090 50 7a 65 be de 1e 23 be 47 af 38 3e b4 57 92 3d
       -0.2240994 -0.15929744 0.18035613 0.07145634
0000a0 88 96 41 3e 11 cd 17 be 75 66 f6 bd 9c 1f 94 3c
       0.1890508 -0.1482432 -0.12031261 0.018081479
0000b0 1d 01 25 bd a9 79 9f 3d ba 76 69 3d 05 d0 69 be
       -0.040284265 0.07786877 0.056997992 -0.2283326
0000c0 92 24 82 3d 09 2b d5 3d a6 c0 a4 3c bf 65 8a bd
       0.063546315 0.10408599 0.020111393 -0.06757688
0000d0 2c c4 d0 3d 5d b8 f1 bd 7d 73 67 bd f1 9b 91 3d
       0.10193667 -0.11802743 -0.056506623 0.071098216
0000e0 af 1c 18 be 12 59 47 bb 35 1d 17 3e 2e 45 4a be
       -0.14854692 -0.003041808 0.14757235 -0.19752952
0000f0 6d 69 4d 3e 6f b6 4b be f2 64 1d be 9c b3 99 3c
       0.20059748 -0.19893812 -0.15370539 0.018762402
000100 ca 17 87 bc e7 24 3c be ce 5e 9e 3c f8 67 14 3e
       -0.016490836 -0.18373452 0.019332316 0.14492786
000110 28 bb 38 bd 1c 53 ae 3d e1 ef 42 3e 87 4d ed 3d
       -0.04510036 0.085119456 0.19036819 0.11587053
000120 cd 81 00 3e 00 42 b0 bc 7e 10 58 3e ae 49 f8 bd
       0.12549515 -0.021515846 0.21100041 -0.12123428
000130 a9 92 96 3b cf 71 04 3b 16 ee 07 be 78 15 24 3e
       0.00459512 0.0020209437 -0.13274416 0.16023815
000140 a6 13 2c be 17 84 c2 bd f7 86 92 bc d0 8f f1 bd
       -0.1680437 -0.094978504 -0.017886622 -0.11795008
000150 60 9e 22 be 6d 7b 58 3e ee 5f 51 3e 4f 47 d7 3d
       -0.15880728 0.21140833 0.2044675 0.10511648
000160 f9 96 ad 3d 94 49 cf 3c 55 ef e3 bd 87 be 03 be
       0.084760614 0.02530364 -0.11129633 -0.12865649
000170 90 83 83 3c 71 d4 ec 3d aa ad c9 bd a6 4a 45 be
       0.016053945 0.115639575 -0.09847577 -0.19266757
000180 93 c5 e9 3d 6b d7 4d 3d ab ca d1 bd 2c 50 51 be
       0.114146374 0.050254267 -0.10243734 -0.2044074
000190 5a fa 57 3e 74 1a 40 3e 23 1c 2c be ee 40 22 3e
       0.21091595 0.18760091 -0.16807608 0.15845081
0001a0 59 9f 42 be 55 5a 45 3d a9 22 04 3e ac ab 25 be
       -0.19006099 0.04818185 0.12903847 -0.16178769
0001b0 ab 93 10 be 3a db 0d be 3e ae 14 3e 31 1e 4c be
       -0.14118831 -0.1385316 0.14519593 -0.19933392
0001c0 b0 3f 4a 3e 2b 95 35 be 2c 13 0b 3d 65 16 38 3e
       0.19750857 -0.17732684 0.03395383 0.17977293
0001d0 97 9b d4 3d 7d 9a 5d 3e 6e fe 20 3e df 25 fb bd
       0.10381239 0.21640964 0.15722057 -0.12263083
0001e0 8a 53 43 be 08 f9 b2 bd be 11 78 3d 9a 85 56 3e
       -0.19074836 -0.08738905 0.060563795 0.20949402
0001f0 e7 44 79 3c 07 c3 cc bd 87 91 77 bd e6 d5 dd bd
       0.0152141815 -0.09998136 -0.06044152 -0.108318135
000200 c4 69 ad bd 02 5b 50 3e 6a d3 bd bc 1e da 26 3e
       -0.08467439 0.20347217 -0.0231721 0.16294143
000210 34 df 12 3e 0b e3 62 bd fb 95 00 3e d5 66 ba 3d
       0.14342958 -0.055392306 0.12557213 0.09101645
000220 79 37 a4 bd 81 cd 20 be cd 35 09 be d5 85 75 3d
       -0.08018393 -0.15703394 -0.1339943 0.059942085
000230 44 7d ad bd c8 30 fd 3d 67 53 10 bd cc e0 9f 3d
       -0.08471158 0.1236282 -0.03523579 0.078065485
000240 64 59 11 be d9 45 2c bc 55 a9 4f be 2b bb 29 3e
       -0.14194256 -0.0105147 -0.20279439 0.16575305
000250 b3 ba 4c be 1d ef 68 3d 6e e4 40 be 82 51 02 be
       -0.19993095 0.05686866 -0.18837139 -0.12726405
000260 7a 15 73 3c cf 03 76 3d bc cf 02 be 92 26 5d 3e
       0.014836663 0.060062226 -0.12774557 0.21596745
000270 4f c3 d7 bd b4 1b 6d bd 16 ca 6d b9 d7 dd 12 be
       -0.10535299 -0.057887748 -0.00022677364 -0.14342438
000280 ec 8c 85 bd 85 12 e1 bd ee da 30 be 22 0d 0c be
       -0.06521019 -0.109898604 -0.17271015 -0.13676885
000290 a8 64 ee 3d ef ac 52 3e e6 50 33 be 59 ed af bc
       0.116402924 0.20573781 -0.17511329 -0.02147548
0002a0 8e 5d 4b be 88 f5 65 be 4d fc 02 3e 5a eb 3e be
       -0.19859907 -0.22456944 0.12791558 -0.18644467
0002b0 c4 c2 c0 3d d7 9e 51 3e fe 86 e1 bc 1a e2 5c 3d
       0.094121486 0.20470749 -0.02753019 0.053926565
0002c0 d8 63 85 bd 05 22 b9 3c ff 81 19 ba 82 2d 42 be
       -0.06513184 0.02259923 -0.0005855858 -0.18962672
0002d0 a9 44 63 bd 40 81 44 3c ec 9f ad 3b 74 de 32 3e
       -0.0554854 0.011993706 0.005298605 0.17467672
0002e0 23 c1 70 3d d1 ef 29 3d b3 72 18 3e 66 19 05 3d
       0.05877794 0.041488472 0.14887504 0.032494925
0002f0 1b 50 1b 3e 56 c1 8f 3d b4 1f b4 bc d3 70 90 bd
       0.15167277 0.07019298 -0.021987773 -0.070527695
000300 e5 b7 57 3d c9 09 5b 3e d6 26 82 bd 3e e4 9b bb
       0.05266561 0.21390451 -0.063550636 -0.004757433
000310 f9 44 49 be 49 a7 0b 3d 44 2f 18 bd 26 7d d7 3d
       -0.19655217 0.034095082 -0.03715445 0.10521917
000320 db e9 46 3e 3a a8 20 3e a8 ff ee bd 11 ed 4f bd
       0.19425146 0.15689173 -0.11669856 -0.050763194
000330 a9 03 9a 3d 95 13 57 3e 79 f7 5d be 36 c7 84 3c
       0.07520229 0.21003564 -0.21676435 0.016208272
000340 86 da 54 3e 06 bb fb 3d 22 c6 1c 3e e2 96 ee 3d
       0.20786485 0.12291531 0.15309957 0.11649872
000350 3f 82 a3 bd 8d ea ae bd 79 cc a9 bd 36 b8 bf 3d
       -0.07983827 -0.08540831 -0.08290953 0.09361307
000360 c2 9d 15 be 55 15 de bd db 6b eb bd 07 41 e9 3d
       -0.14610961 -0.108439125 -0.11495181 0.11389356
000370 c8 7e 63 be aa 0c 57 3d 00 cc 53 3e 6d 5b 08 be
       -0.22216332 0.05250231 0.20683289 -0.13316126
000380 8d 60 59 3e 65 95 14 be c2 9d e4 3d 0c 76 dd 3d
       0.21228237 -0.14510114 0.111629024 0.10813531
000390 23 db 50 3e f0 33 86 bd 41 e8 3c be 42 01 b9 bd
       0.20396094 -0.06552875 -0.18447973 -0.09033443
0003a0 d4 31 fe 3d ae 66 8b 3d 1e 90 07 3e fd 42 dc bd
       0.12411848 0.06806694 0.1323857 -0.107549645
0003b0 e8 d7 df bd 8e 21 45 3d bd e2 87 3d de cb 37 be
       -0.10929853 0.048127703 0.06635044 -0.17948863
0003c0 32 34 0f 3e 04 99 55 3e d5 65 50 be 59 22 53 bc
       0.13984755 0.20859152 -0.20351346 -0.012886607
0003d0 a1 36 8d bd 42 58 4c 3e aa 3d 3c bd 12 e1 03 be
       -0.06895185 0.19955543 -0.045957245 -0.12878826
0003e0 16 a1 96 bd 12 48 3e be c9 89 5d be 4f 35 21 3e
       -0.073549435 -0.1858218 -0.21634592 0.15742992
0003f0 5d 17 e7 3d 9e 5a b3 3d 75 a6 1a 3e 93 ce 4f 3e
       0.11283753 0.08757518 0.15102561 0.20293646

actor_body.0.bias f4 [256]
000000 44 33 4b be c5 9d 09 bc ef 37 33 bd c5 66 34 be
       -0.19843775 -0.008399432 -0.043754514 -0.17617328
000010 05 e3 dc bc 92 6c 2c 3e 3d d5 4e 3d b8 ed 29 be
       -0.02696372 0.16838291 0.05049633 -0.16594589
000020 51 b7 c8 bd 69 2c 97 bd c0 dd d4 bd 46 62 11 be
       -0.0980059 -0.073815174 -0.10393858 -0.14197645
000030 b0 d4 19 3e 25 f6 5f be 87 f3 09 3e 6b 99 f6 bd
       0.1502254 -0.2187124 0.13471805 -0.12040981
000040 ac 09 e2 3d 31 b2 0a 3e 4a de c8 bd 62 96 6d bd
       0.11037001 0.13544537 -0.09808023 -0.058004744
000050 cb 52 60 be c8 0a 9f bd 69 c8 4e 3e 22 19 05 be
       -0.21906583 -0.07765728 0.20193638 -0.12997869
000060 cb 9f 36 be 6c e7 3f be 4a 4b 8f 3c 69 d4 9d bc
       -0.17834394 -0.18740624 0.017491955 -0.019266324
000070 b8 2b 31 be fa 3f 04 be 09 d3 9c 3d 4d f6 31 3e
       -0.17301834 -0.1291503 0.07657439 0.17379113
000080 70 6c 37 3d 12 92 07 3e f9 8c 07 be c8 bb 99 3d
       0.04478115 0.13239315 -0.1323737 0.075065196
000090 9e a2 6a 3e fe 5b cd 3b 29 1b 13 be 1c b2 5e 3e
       0.22913596 0.00626707 -0.1436583 0.21747631
0000a0 2f 23 ca 3d d0 af 3a 3e cc 33 c0 3d 0d 19 ff 3d
       0.09869992 0.1823113 0.093848795 0.1245595
0000b0 0a ca 44 3e 33 cc d1 3d 32 79 a7 3d fc 9c 32 be
       0.19217697 0.10244026 0.08177413 -0.17442697
0000c0 cb 3b 9c bd 07 32 52 3e 6d d0 6a bb 70 9e b4 bd
       -0.07628592 0.20526896 -0.0035829798 -0.08819282
0000d0 ae 4e 52 3d 15 8b 9e 3b 8f f1 0b 3e e7 8f 30 3e
       0.051344566 0.004838357 0.13666366 0.17242394
0000e0 ef 88 4d 3e 58 41 7f 3d 0f 08 6d 3d 01 8e 4d bc
       0.20071767 0.062318176 0.057869013 -0.012546063
0000f0 21 80 ec bc 26 d6 24 3e 6b 10 14 3e 06 cf 49 3e
       -0.02886969 0.16097316 0.14459388 0.1970788
000100 89 37 1d 3e 48 29 ec 3d f4 f5 51 3e 32 ea 47 be
       0.15353216 0.11531311 0.2050398 -0.19522932
000110 60 98 9d bd ae 1b fb bd 45 db 05 be 67 30 31 be
       -0.07695079 -0.12261139 -0.13071926 -0.1730362
000120 74 50 45 be c3 f3 5c 3e 52 9a 55 be c3 59 68 3d
       -0.19268972 0.21577363 -0.2085965 0.05672623
000130 8d a7 5c 3e e5 21 21 3e d2 90 6c bc b5 70 67 be
       0.2154829 0.15735586 -0.014438825 -0.22601588
000140 4c ad 3c 3e 19 15 83 39 d8 e1 5a be 9a 0c 16 3e
       0.18425483 0.00025001986 -0.21375215 0.14653245
000150 1a b3 20 3e ba 5a 97 bd a0 91 fd 3d 8b 24 1e 3e
       0.15693322 -0.073903516 0.123812914 0.15443628
000160 e9 51 08 3e eb 2e 0a 3e 72 b6 68 bd f6 89 12 be
       0.13312496 0.1349446 -0.05681462 -0.1431044
000170 43 c0 10 bd 32 91 3f be 0f 60 04 3d 28 06 fb bd
       -0.035339605 -0.18707731 0.03231817 -0.122570336
000180 95 f5 50 3e 9c 40 28 3e 64 32 aa bd f8 56 ad 3b
       0.20406182 0.16430897 -0.083103925 0.0052899085
000190 d2 7a 37 3e 0b 06 20 be e0 77 40 3d ee 31 62 3e
       0.17917946 -0.15627305 0.04698932 0.22089359
0001a0 70 2a 62 3e 03 c4 5d 3e 92 15 ae bd f2 fe e6 3c
       0.22086501 0.21656804 -0.08500208 0.02819774
0001b0 19 81 3b be de 76 47 3d 3a 6c 8b bd ee 5f d4 bd
       -0.18310966 0.048697345 -0.06807752 -0.1036986
0001c0 48 72 5f be 91 4e 68 be 47 03 6a be 94 35 58 3e
       -0.21820939 -0.2268622 -0.22852813 0.21114188
0001d0 f9 41 27 3e bc 34 11 3e d9 6f 30 3e 53 c5 ca bc
       0.1633376 0.14180273 0.17230166 -0.024752295
0001e0 10 8c 48 be c6 ce c8 3d 77 bf 36 be 91 b9 16 3e
       -0.1958468 0.09805064 -0.17846476 0.14719225
0001f0 5f fb 1c 3e 0b 60 ad 3d 88 8f 38 3e 61 f6 33 3d
       0.15330265 0.08465584 0.18023503 0.043936137
000200 3a f2 98 3d 3e c8 79 bc f6 1b 44 3b 0d f3 36 bd
       0.07468076 -0.015245495 0.0029923893 -0.044665385
000210 02 55 bb bc c0 59 2d be f1 b0 41 3d e8 aa 04 be
       -0.022867683 -0.16928768 0.047287885 -0.1295582
000220 4b a7 7c 3c 59 34 36 3b 99 a1 9d 3d f4 36 3a bd
       0.015420745 0.0027802198 0.07696838 -0.045462564
000230 5d 91 3b be f6 73 81 3c 98 69 e8 bb 1a 16 83 3d
       -0.1831717 0.015802365 -0.007092666 0.064007
000240 b5 1e 94 3d 72 e7 75 bc 68 2c 44 3e 4a c1 33 3e
       0.072324194 -0.015008794 0.19157565 0.17554203
000250 22 ee 47 3e 21 a2 d7 bd 02 80 01 be ae 00 53 bd
       0.19524434 -0.105289705 -0.12646487 -0.05151432
000260 e6 56 bb bc d5 f5 0d 3e 9e f2 3a 3e 8e 55 48 3e
       -0.022868585 0.13863309 0.18256614 0.19563887
000270 18 4c d9 3c 49 6b 52 be 88 18 5c 3d 20 42 41 3e
       0.026525542 -0.20548739 0.053734332 0.18872881
000280 91 35 f3 bd 39 72 99 3d 0b 0b 10 3e a1 61 06 be
       -0.11875451 0.07492489 0.14066713 -0.1312318
000290 c4 5f b2 bd 92 2f 4d bd 79 a9 83 bc 5e 03 40 3e
       -0.08709672 -0.050094195 -0.016072022 0.18751284
0002a0 91 1a b5 bc 9a 20 68 3e 40 88 03 be 3e 73 fb bc
       -0.022107394 0.22668687 -0.12844944 -0.0306946
0002b0 b1 2b b2 bc fb fa 47 be 78 ab 5f bd 27 a4 18 3c
       -0.02174935 -0.19529335 -0.054606885 0.009316481
0002c0 50 2f 90 3d be 16 6e bd e9 74 14 be aa d5 80 3d
       0.07040274 -0.058127157 -0.14497723 0.06290753
0002d0 cc a9 eb 3d 4d 03 4b be d0 28 fd 3d 5f 76 83 ba
       0.115069956 -0.19825478 0.123613 -0.0010029784
0002e0 4c 24 e5 3d 44 38 29 be a0 b2 24 be 80 b2 46 3e
       0.11188564 -0.1652537 -0.16083765 0.1940403
0002f0 65 8d 85 bd 94 5d 96 bd 7b 5f 5c 3e 36 90 31 3e
       -0.065211095 -0.07342067 0.21520798 0.17340168
000300 66 72 28 3e 14 e5 14 3c 35 6e 14 3e f0 df 0a be
       0.1644989 0.00908782 0.14495166 -0.13561988
000310 cc a9 5a 3e 22 ba d5 3d 63 99 3b 3e 0e e2 28 be
       0.21353835 0.10435893 0.18320231 -0.16492483
000320 4c c2 f3 bd 02 14 46 be f7 97 40 bd 77 6e c4 bd
       -0.119022936 -0.1934357 -0.047019925 -0.09591382
000330 3a 5e 4d 3e 72 4c 01 bc 14 de c1 3d fe 46 07 3e
       0.20055476 -0.007891761 0.09466186 0.13210675
000340 7b f9 7c 3d e6 b3 43 3e 0c 4e b0 3d de 1c 07 3e
       0.06176136 0.19111595 0.08608636 0.13194606
000350 2a f6 1f be 4c 72 be bd 24 28 82 3d 83 a8 37 be
       -0.15621248 -0.09299144 0.063553125 -0.17935376
000360 61 00 15 bd 2d 16 25 be dd f4 4a be 8f 71 53 3e
       -0.036377314 -0.1612174 -0.1981997 0.20648788
000370 d0 88 e4 3d 52 9b 04 be ad 72 37 be b9 88 e9 3d
       0.111589074 -0.12949875 -0.17914839 0.11403031
000380 91 8c 29 bd 2b bc 03 3e e9 71 fc 3d eb 37 53 be
       -0.04139382 0.12864749 0.12326414 -0.206268
000390 a2 f7 d0 3d af 9c 49 be 29 ef a5 3d 63 2b 49 3e
       0.10203482 -0.19688676 0.08102257 0.19645457
0003a0 69 32 e1 bd 8c e8 15 3d 9f 44 a1 3c 16 ea e2 bd
       -0.10995943 0.036598727 0.019686041 -0.110798046
0003b0 5b e9 f1 3d 0a 7b 5c bc e5 9b 49 3e bd a3 bc bd
       0.11812087 -0.013457069 0.19688375 -0.09210918
0003c0 2a 34 65 be 5d 2b 9b bd 0a ef 12 3e 42 f0 fd 3d
       -0.2238318 -0.0757663 0.14348999 0.12399341
0003d0 51 92 80 3d 60 fc 41 be 46 aa 54 bd 72 4d 05 3d
       0.06277908 -0.1894393 -0.051920198 0.03254456
0003e0 26 e3 18 be e5 c4 cb 3d 45 f9 93 bd 2a e9 21 be
       -0.149304 0.09949664 -0.07225279 -0.15811601
0003f0 74 64 3e be 51 62 11 3d 1c b1 89 bd 12 ad 3f bd
       -0.18593007 0.035494152 -0.06723234 -0.046795912

actor_body.2.weight f4 [256, 256]
000000 98 06 48 bc ce ce 05 3d 7e 6f 7f 3d 50 1a 70 3c
       -0.012208603 0.032667927 0.062362187 0.014654711
000010 c4 6f 00 bd 04 bd 6b 3d 40 66 9a 3b d0 07 97 3b
       -0.031356588 0.057553306 0.004711896 0.0046090856
000020 b0 eb 96 3b 30 2b d1 3c 70 74 37 3d 00 de 37 3b
       0.004605733 0.025533289 0.044788778 0.0028055906
000030 c0 41 f0 bb 88 ce 04 3c 7a bb 02 3d 44 9f 75 3d
       -0.0073320568 0.0081058815 0.031917073 0.05996634
000040 f4 5b 81 3c 40 4b a7 3a 60 91 51 bd ca 88 17 bd
       0.015790917 0.0012763515 -0.05116403 -0.036995687
000050 90 2d 89 bb 30 2f f8 bb bc ac 52 bd 18 5b 42 3c
       -0.0041863397 -0.0075739846 -0.051434264 0.011862539
000060 90 a8 a3 bb 18 0a 45 bc 88 0f c1 bc a4 27 d9 bc
       -0.0049944595 -0.012026332 -0.023566976 -0.02650816
000070 54 d6 de 3c be cf 7f 3d 68 c6 27 bd c6 8a 31 3d
       0.027201809 0.062453978 -0.0409607 0.043345235
000080 1c 5f d0 bc d8 7f 46 3d c0 d3 44 bc 00 cf d4 ba
       -0.025435977 0.048461765 -0.012013376 -0.0016236007
000090 26 8a 33 3d 12 16 15 3d ac 68 f4 bc 48 c2 69 3d
       0.04383292 0.036398 -0.029835068 0.057070047
0000a0 dc 5c 03 bd d8 73 4d 3d c0 70 31 bc dc 1c 8d 3c
       -0.03207098 0.050159305 -0.010830104 0.017225675
0000b0 9c 00 82 3c 04 55 14 3d 22 a3 6e 3d be bd 75 3d
       0.015869431 0.03621389 0.058261044 0.059995405
0000c0 fc e3 f5 bc ba 2a 6d 3d 34 3c 30 bd 40 d8 dd ba
       -0.030015938 0.057902075 -0.043026164 -0.001692541
0000d0 68 2e a5 3c ea 89 13 bd 46 9e 59 3d 80 23 e1 bb
       0.02016373 -0.036020197 0.053129457 -0.006870687
0000e0 34 29 c5 3c 80 65 7a bb cc 20 02 bd 00 f5 91 bc
       0.024067499 -0.0038207471 -0.03176956 -0.01781702
0000f0 da 83 22 bd 1c 38 36 bd a2 3c 76 3d 20 b0 5f 3b
       -0.039676525 -0.044487104 0.060116418 0.0034132078
000100 c0 df 53 bc d4 16 49 3d 34 5d 69 bd 8c 6c 40 3d
       -0.012931764 0.049094036 -0.05697365 0.04697852
000110 7e c8 5d 3d 14 d5 8b bc d4 bb 99 bc 24 fc d3 3c
       0.054146282 -0.017069377 -0.018766321 0.025877066
000120 60 96 20 3c fc 8b e8 3c 3c ce ab bc ae 2b 7d bd
       0.009801477 0.028387062 -0.020972364 -0.061809234
000130 60 66 92 bc 28 26 3f bc b6 76 6e bd cc 20 2e 3d
       -0.017871082 -0.011666812 -0.05821868 0.042511746
000140 82 74 53 bd e4 f6 c8 3c 44 a7 0a 3d 98 2b 03 bd
       -0.051624782 0.02453179 0.033850923 -0.032023996
000150 78 1e 58 bd a0 e1 67 3b 4e 59 4a 3d 62 33 74 bd
       -0.052763432 0.0035382286 0.049401574 -0.059619315
000160 ce 28 21 bd 2c 36 51 3d 86 a9 02 3d ce 4e 12 bd
       -0.039345555 0.051077053 0.03189995 -0.035719685
000170 b0 71 18 3c dc 9e 82 3c a0 bc 43 bd e2 44 42 bd
       0.009304449 0.01594489 -0.04778731 -0.047428973
000180 10 64 dd bb 98 3b d1 bc 00 00 75 b8 40 47 40 3d
       -0.006756313 -0.025541112 -5.8412552e-05 0.04694295
000190 da 27 4f bd 16 f0 42 3d ae d8 5f 3d 64 82 dd 3c
       -0.050575115 0.047592245 0.05465 0.027039714
0001a0 ac b6 c7 3c d0 ec a5 bc 46 a6 37 bd 64 2b 2d 3d
       0.024379097 -0.020254523 -0.044836305 0.04227771
0001b0 fa ef 6d bd 38 a7 37 bd 8a 67 67 bd 38 ba 1f bc
       -0.058090188 -0.044837207 -0.056495227 -0.009748988
0001c0 44 56 30 3d ac 3a 21 bd 9c fe b2 bc 70 15 e0 3c
       0.04305102 -0.039362594 -0.021849923 0.027353972
0001d0 00 56 aa bb c2 4d 16 3d 1e 29 66 3d 20 5c 73 3b
       -0.0051982403 0.03669525 0.056191556 0.0037133768
0001e0 9e 44 23 3d 6c b6 e0 bc 68 b4 38 3c a8 52 87 3c
       0.03986036 -0.027430736 0.011273481 0.016518906
0001f0 a6 eb 64 bd 60 38 27 bc 60 ea f7 3c 38 48 2e 3d
       -0.055888794 -0.010206312 0.030263126 0.042549342
000200 c2 86 4c 3d b0 4c 5a 3d 44 75 75 bd a8 1b bc 3c
       0.049933203 0.05329579 -0.059926286 0.022962406
000210 f0 b1 5b bc 9c 50 0b bd e0 0f 60 bb e4 b5 b5 3c
       -0.013409123 -0.034012422 -0.003418915 0.022181459
000220 56 09 21 bd 14 b0 a5 bc e8 6d f4 3c 30 0b 8b 3b
       -0.039315544 -0.020225562 0.029837564 0.004243277
000230 2c 01 78 3d 3c 72 c5 3c be 1c 48 bd 30 f8 58 bd
       0.060547993 0.024102323 -0.048855536 -0.052971065
000240 26 51 2f 3d e6 50 72 3d 5c 1b 9f bc 08 bb a6 3c
       0.042802 0.059159182 -0.019422226 0.020352855
000250 08 c2 bd 3c 3c f8 cb bc cc 5c bf bc 06 2b 3e bd
       0.02316381 -0.02489864 -0.023359679 -0.04642775
000260 c8 3f 49 3c b0 c9 3d 3d 86 81 52 bd f0 f9 cf bc
       0.012283273 0.046334922 -0.051393054 -0.025387734
000270 48 52 2f 3d d6 99 51 3d 58 2a 4b bc 30 e5 b2 3c
       0.04280308 0.0511721 -0.012400232 0.0218378
000280 00 16 f8 ba 3a e3 78 bd 70 cb 54 3c 68 8d 13 3d
       -0.0018927455 -0.060763575 0.012987956 0.036023527
000290 80 a8 f6 3c 54 bb 56 3d 04 0b d3 bc 64 fd e8 3c
       0.030109644 0.052424744 -0.025762089 0.028441139
0002a0 18 34 11 3c 3c 3e f5 bc 46 99 55 bd 7c d4 c1 3c
       0.008862518 -0.029936902 -0.052148126 0.02366089
0002b0 00 7c 2c 3c 56 86 77 3d 40 d4 f3 3a 40 ac c9 3b
       0.010527611 0.060430847 0.0018602684 0.006154567
0002c0 1a fc 1f bd c6 f5 01 3d 3c a5 29 bd 50 e7 1c bd
       -0.039058782 0.03172853 -0.041417345 -0.038306534
0002d0 48 2b 2b 3c 30 93 83 3b e8 da 6a bc 44 06 d6 3c
       0.010447331 0.004015349 -0.014334418 0.026126035
0002e0 46 48 25 3d e8 46 3c bc 94 a5 8d bc 28 5b 73 3d
       0.04035213 -0.011491515 -0.017290868 0.059413105
0002f0 0c 33 2a bd 7c ad 45 bd 2c c1 57 3d f8 a9 03 bd
       -0.04155259 -0.04826115 0.052674457 -0.032144517
000300 04 93 65 3d de c5 17 bd 54 45 c9 bc 2e 34 2c bd
       0.05604841 -0.037053935 -0.024569191 -0.04204195
000310 c0 f5 81 3c 68 42 be 3c 70 71 50 3c 30 52 54 bc
       0.015864253 0.023225024 0.012722358 -0.012959048
000320 92 3f 4a bd a4 b8 d0 bc 28 98 4c 3d f0 79 cf 3c
       -0.04937703 -0.025478669 0.049949795 0.025326699
000330 16 50 33 3d a0 b2 50 bd 6e 7b 0c 3d a8 1d 3c bc
       0.043777548 -0.0509516 0.0342974 -0.01148168
000340 58 88 10 bc 0c 4d 58 bd 5c 95 62 3d c0 6a 6d bb
       -0.008821569 -0.052807853 0.05531822 -0.0036226958
000350 30 11 9d bc 7e e7 06 3d 00 a0 29 38 10 3a 9a 3b
       -0.019173235 0.032935612 4.044175e-05 0.0047066286
000360 d0 59 c7 3b ca 5c 7c bd cc 2a 3a 3d 00 1d 2d ba
       0.0060837045 -0.061611928 0.04545097 -0.00066037476
000370 f0 33 c0 3c 1c 44 6d 3d 92 da 79 3d 80 ef 89 3a
       0.023462266 0.057926282 0.06099946 0.0010523647
000380 e0 66 2e bc bc 26 6e 3d d0 ba 8f bb 16 22 7c 3d
       -0.0106446445 0.05814241 -0.0043862835 0.061555944
000390 74 8f ea 3c 48 60 80 bc b8 01 8a 3c 20 14 15 3d
       0.028632857 -0.01567091 0.016846523 0.036396146
0003a0 dc 26 a0 bc 90 80 05 3c 6e 21 5b 3d 40 f3 71 3c
       -0.01954978 0.0081483275 0.053498678 0.014767468
0003b0 d8 6b 65 3d 56 f9 0c bd 20 ce 49 bc 60 e8 54 bb
       0.05601105 -0.034417473 -0.01231721 -0.003248714
0003c0 68 6f 35 bd 9c 92 81 3c 3e ea 17 3d 86 d6 62 bd
       -0.0442957 0.01581698 0.037088625 -0.055380367
0003d0 ea 40 3f 3d 80 ce 02 bc 2a 2b 51 3d 78 de 60 3c
       0.046692766 -0.007983804 0.051066555 0.013724916
0003e0 4c 61 64 3d 50 84 7a 3c 18 df aa 3c 14 b1 50 3d
       0.055756852 0.015290335 0.020858333 0.050950125
0003f0 7c a5 d3 bc fe 5f 29 3d 74 ff a5 bc 4a 99 6c bd
       -0.025835745 0.04135131 -0.020263411 -0.057763375

actor_body.2.bias f4 [256]
000000 00 a2 c2 3c c0 d5 f1 bb 30 00 e0 3b 16 84 37 bd
       0.023758888 -0.0073802173 0.00683596 -0.0448037
000010 50 28 b3 3c a6 78 62 bd c8 dd 5a bd 6c 08 a4 bc
       0.021869808 -0.05529084 -0.053434163 -0.020023547
000020 c6 25 7a 3d aa 7e 45 3d f0 5f 87 bc fc 94 6f 3d
       0.06107118 0.0482165 -0.016525239 0.058491692
000030 40 47 b6 ba 02 3a 71 3d ac 3a 69 bd 62 e1 6a 3d
       -0.0013906732 0.05889321 -0.05694072 0.057343848
000040 64 26 68 3d 16 e3 70 3d 84 b7 e5 bc 2c 82 85 bc
       0.056677237 0.058810316 -0.028041609 -0.016297422
000050 78 b8 54 3c 7e fb 6f 3d 78 c4 0b 3c 94 d2 18 3d
       0.012983434 0.05858945 0.0085307285 0.037310198
000060 80 b6 21 bc 38 62 25 3c e4 2b 35 bd 7e b6 25 3d
       -0.009870172 0.010094218 -0.04423131 0.04045724
000070 1a 8e 3d bd e6 68 07 bd ca bd 3e 3d 54 d8 90 bc
       -0.046278097 -0.033059023 0.046567716 -0.017681278
000080 aa fd 37 3d 4c a2 e2 bc 78 25 1e bd f0 c5 f8 3b
       0.044919647 -0.02766528 -0.03860995 0.0075919554
000090 e0 d6 18 3d c0 cf 6b 3d f0 49 15 3d b8 7c 05 bc
       0.037314296 0.057571173 0.036447465 -0.008147411
0000a0 60 2e 2a bc d4 7b dc bc 78 fc d8 bc a8 a8 e2 bc
       -0.010387033 -0.026914515 -0.026487574 -0.027668312
0000b0 aa ed 22 bd 5c 58 12 bd 80 6c c6 bc 3c 24 3f 3d
       -0.039777435 -0.035728797 -0.024221659 0.046665415
0000c0 64 a4 f2 3c 00 0a b2 b9 32 ae 76 3d d8 1a 03 3d
       0.029619403 -0.00033958256 0.06022472 0.032008022
0000d0 40 48 e7 3b ea 32 59 bd b8 11 1c 3d fc 88 a7 3c
       0.0070581734 -0.05302707 0.038102835 0.020451061
0000e0 ac eb 56 bd 70 28 ca bc aa a1 28 bd 1c 88 1f bd
       -0.052470848 -0.024677485 -0.0411698 -0.038948163
0000f0 a0 44 df 3b 80 8b f4 bc 28 69 92 bc 98 a9 d7 bc
       0.0068136007 -0.029851675 -0.017872408 -0.026325986
000100 28 65 e1 3c d4 ee df bc 28 fd d3 3c f0 43 d6 bc
       0.027514055 -0.027335562 0.02587755 -0.026155442
000110 5c 2c 44 3d 6c 8d e7 3c c0 e4 de bb b8 42 55 3c
       0.047893867 0.028265677 -0.0068021715 0.013016395
000120 9c 04 7e bd 10 8e d9 bc 2e c7 50 3d 68 b9 15 bc
       -0.062016115 -0.026556998 0.050971203 -0.009138443
000130 b8 f7 15 bd 9e dc 02 3d 1c c4 f3 3c f0 31 3e bc
       -0.036613196 0.03194868 0.029756598 -0.011608586
000140 00 ff 88 ba 40 15 f9 3c cc 45 73 3d 10 b7 90 3c
       -0.0010451972 0.03040564 0.059392735 0.017665416
000150 00 51 cf b9 88 83 1c 3c be 6b 41 bd 00 6e 29 ba
       -0.00039542466 0.009552844 -0.04722189 -0.00064632297
000160 ec 52 f3 bc 90 e3 a0 bb b8 de ce bc 80 e8 56 ba
       -0.029702626 -0.00490994 -0.025252685 -0.00081980973
000170 54 2a 06 3d 56 3d 4a 3d 24 0d 03 3d 20 8d 71 bd
       0.03275521 0.0493749 0.031994954 -0.058972478
000180 ce 53 4f bd b2 3d 62 3d 40 b4 e0 3c 40 1b 3a 3b
       -0.05061703 0.05523462 0.0274297 0.002839759
000190 40 2d b9 bb 80 f3 0e 3a ee 5e 22 bd a2 91 44 bd
       -0.005651146 0.00054531544 -0.039641313 -0.04799045
0001a0 a0 14 58 3d 80 44 97 ba 3c 08 f8 3c 80 b0 fd 3c
       0.052754045 -0.00115408 0.030277364 0.03096795
0001b0 98 a3 7f 3c 20 df 3c 3b 36 12 78 bd 98 24 10 3d
       0.015602969 0.0028819516 -0.060564242 0.03519115
0001c0 88 02 6b bc ae 68 72 3d ca 6d 6c bd 82 62 0c 3d
       -0.014343865 0.05918186 -0.05772189 0.034273632
0001d0 40 4b b2 bc d0 fb d9 3b c4 c4 3b bd 3e 73 0c 3d
       -0.021764398 0.006652333 -0.045841947 0.03428959
0001e0 6c ee 0f bd 5c 12 43 bd f0 0b 90 3b 4c 74 99 bc
       -0.035139486 -0.04762493 0.0043959543 -0.018732212
0001f0 d0 96 92 3c a8 b8 12 3c a0 de 1b bb 50 01 7e 3d
       0.017894179 0.008955158 -0.0023783818 0.06201297
000200 9a 8e 0a bd f0 17 10 3d 78 c8 09 3d 20 bc df bb
       -0.0338274 0.03517908 0.033638448 -0.006827846
000210 76 df 24 bd e8 2b e9 bc 82 e6 2b 3d 40 9b 9e 3c
       -0.04025217 -0.028463319 0.041967876 0.019361138
000220 70 89 c6 3c 4e 9d 17 bd 3c 8f 9a 3c 20 3d 88 bc
       0.024235457 -0.03701525 0.018867128 -0.01663071
000230 78 65 04 3c 28 5e 1c bd 30 26 51 3d f0 2f 55 3c
       0.008080833 -0.038175732 0.05106181 0.0130119175
000240 b6 c7 3a 3d b0 18 f2 bb a0 27 35 3d 80 2d 9d bc
       0.045600615 -0.007388197 0.044227242 -0.019186735
000250 70 b0 a9 bc 14 08 4c bd 90 79 df bb c4 f3 d4 bc
       -0.020714015 -0.04981239 -0.0068199113 -0.025995143
000260 5c cd aa bc 62 37 16 3d da 8c 1a 3d 82 06 05 bd
       -0.020849876 0.03667391 0.037731983 -0.03247691
000270 1c 5b 6e 3d 62 93 28 3d 50 e1 f0 bc de 07 32 3d
       0.058192357 0.04115618 -0.029404312 0.043464534
000280 78 c3 40 bd 60 46 2f bb d0 c9 3d 3d 3c 9e 2c 3d
       -0.047061414 -0.0026744828 0.04633504 0.04214309
000290 80 2c 8e 3b e0 74 b0 3b 22 f2 0c 3d 90 a1 dd 3c
       0.004338801 0.0053850263 0.034410603 0.027054578
0002a0 80 7d 24 bc 78 99 31 3c 70 2f c9 3c 3e 95 35 3d
       -0.010039687 0.010839812 0.024558753 0.04433178
0002b0 ca 1d 1b 3d c6 50 70 3d cc d3 83 bc 24 3c de 3c
       0.037870206 0.05867078 -0.016092204 0.027128287
0002c0 5c 94 a9 3c ea 0d 0a 3d 72 d7 3d bd 98 44 ca bc
       0.020700626 0.033704676 -0.046348043 -0.024690911
0002d0 ae bd 55 3d 82 f7 1d 3d 3a de 6e bd 80 c0 8d bb
       0.052182846 0.03856612 -0.0583174 -0.0043259263
0002e0 d4 d4 d7 3c 60 45 ef 3c a6 54 2e 3d 00 d7 4d bc
       0.026346602 0.029207885 0.042561196 -0.012563467
0002f0 16 e0 1e 3d 20 b6 7f 3c 48 37 b1 bc 08 3e 3b bd
       0.038787924 0.015607387 -0.021632805 -0.045713454
000300 78 56 2f bc 80 70 b7 bc 96 f8 43 3d fc 1e e6 3c
       -0.010701768 -0.022392511 0.047844492 0.028090946
000310 44 44 0d 3d 60 d1 1e bd c2 a5 11 bd e0 5b 7a bb
       0.03448893 -0.038773894 -0.03555847 -0.0038201734
000320 fa f3 4b bd ac ca 34 3d 30 5a 28 bd 00 1d ba 3b
       -0.04979322 0.044138595 -0.041101635 0.0056797266
000330 36 b9 34 3d aa 8e 7e bd f8 79 20 3d de 0d 79 bd
       0.044121943 -0.062147774 0.03917882 -0.06080424
000340 30 c5 95 bc 88 63 2a 3d 60 86 1d bb 30 81 d2 3c
       -0.018282503 0.041598827 -0.0024036393 0.025696367
000350 92 ce 7e 3d 04 34 ec 3c 40 bb 85 ba a0 4f 77 3d
       0.06220872 0.028833397 -0.00102029 0.06037867
000360 40 45 02 3b 1c 46 93 bc a8 eb 1a 3c 1a d9 5d bd
       0.0019877702 -0.017977767 0.009455599 -0.054162122
000370 b2 2a 62 bd 80 0d 86 bb d0 9f 48 bd ba 46 12 bd
       -0.0552165 -0.004090965 -0.048980534 -0.03571198
000380 c6 9f 71 3d 50 6f fa 3c 88 91 ce 3c e0 2e a1 bc
       0.058990262 0.030570656 0.02521588 -0.019675672
000390 54 47 dd 3c 8c 56 67 3d 74 4d ac 3c 26 4e 77 bd
       0.027011551 0.056479022 0.021033026 -0.060377263
0003a0 a8 fb 8d 3c 10 97 0d 3d 60 45 a0 3c 00 30 88 37
       0.017331913 0.034567893 0.01956433 1.6234815e-05
0003b0 40 7d 78 3c 00 11 aa bc c0 d2 52 bb 16 90 59 bd
       0.015166581 -0.02076006 -0.0032169074 -0.053115927
0003c0 62 0d 30 bd 90 12 aa 3b 34 e0 5e 3d 90 d2 c8 bc
       -0.042981513 0.005190201 0.054413036 -0.024514467
0003d0 b4 12 88 bc 10 5a cd bb 80 a0 7b ba d0 04 3d 3d
       -0.01661048 -0.00626684 -0.00095988065 0.046147168
0003e0 18 29 7a bd 9c ee 92 3c f0 6b be bc 24 5c 37 3d
       -0.061074346 0.017936043 -0.023244828 0.044765607
0003f0 20 2e 1b 3b 16 7d 73 bd c0 f7 2f bd 80 7a a2 bc
       0.0023678616 -0.059445463 -0.042960882 -0.019833803

actor_output.weight f4 [54, 256]
000000 ca 18 61 3d 14 bf 25 3d 8e 1f 77 bd 40 8c 56 3b
       0.05495528 0.04046543 -0.060332827 0.0032737404
000010 a8 9c 36 bc a8 69 63 bc 34 41 b9 3c ec 66 d9 3c
       -0.011145748 -0.013880171 0.0226141 0.026538335
000020 dc 33 f0 3c 40 1b ed bb 58 b8 76 bd 6c 86 71 bd
       0.029321603 -0.0072359145 -0.060234398 -0.058966085
000030 a8 33 a0 3c f8 1a 3a bd 7c 3c ff 3c b8 5c 16 3d
       0.019555882 -0.045435876 0.03115677 0.036709517
000040 e4 f7 ed bc a8 a4 fe bc 00 55 06 3d 10 83 82 bb
       -0.029048868 -0.031084374 0.032795906 -0.003982909
000050 96 3d 65 bd 56 15 6c 3d e2 95 41 3d 00 f6 a0 3c
       -0.055966936 0.057637535 0.04726208 0.019648552
000060 00 a1 2b bd 60 8c 46 bd 36 a4 68 bd 38 b2 62 3c
       -0.04190159 -0.048473716 -0.05679723 0.013836436
000070 c0 8d e3 3c 08 ae 6c 3d c6 71 5f 3d 6e e0 6c bd
       0.027777553 0.057783157 0.054551862 -0.05783122
000080 98 c6 45 bd 3c 06 81 3c 1a 9d 74 3d 4c a2 15 3d
       -0.048285097 0.015750043 0.059720136 0.03653173
000090 f0 85 47 3c 40 6b 75 bd 00 c8 aa 38 c4 1b ba bc
       0.012177929 -0.059916735 8.1434846e-05 -0.022718318
0000a0 b6 a4 7c 3d be 08 73 bd 58 dd 48 3c 6c ab 27 3d
       0.061680518 -0.05933451 0.012259804 0.040934965
0000b0 38 ef 48 bc 64 8a 12 bd ca 64 0a bd c0 45 53 3c
       -0.012264065 -0.03577651 -0.033787526 0.012895048
0000c0 00 70 25 3d 04 39 f0 3c 7a df 7c 3d 3c 03 35 bd
       0.040390015 0.029324062 0.06173656 -0.044192538
0000d0 50 48 90 bc b4 b4 c6 3c a0 59 cb bb 40 ba e9 3c
       -0.017612606 0.024256088 -0.0062057525 0.028531194
0000e0 58 a2 7a bc 4c 38 ea bc 10 24 9a bc 02 5d 38 3d
       -0.015297495 -0.028591298 -0.018816024 0.045010574
0000f0 68 7f b3 3c ce c8 6c bd 10 31 cd 3c c0 ad ca 3b
       0.021911338 -0.05780869 0.025047809 0.0061852634
000100 94 51 b8 bc f4 65 6e bd 10 6e 31 3d 9c 07 65 bd
       -0.022499837 -0.0582027 0.043317854 -0.05591546
000110 f0 c3 59 bd 9c 94 e3 3c ac e7 2f 3d 00 e6 bd bb
       -0.053165376 0.027780823 0.04294555 -0.0057952404
000120 92 ae 40 3d 80 99 9e ba 10 ef e5 bc c0 b6 5d bc
       0.047041483 -0.001210019 -0.028068095 -0.0135323405
000130 6c 3b cd bc 5a 9a 53 bd 7e a6 6c bd 40 d5 d6 bb
       -0.025052749 -0.051660873 -0.057775967 -0.006556183
000140 08 01 37 3d 9c f7 11 bd 94 28 25 bd 4a 17 1f bd
       0.044678718 -0.03563653 -0.0403219 -0.03884057
000150 94 cb 60 bd e0 d3 de 3b 26 7b 58 bd d0 73 79 3d
       -0.054881647 0.00680016 -0.05285182 0.060901463
000160 5e c0 1c 3d ee af 26 bd 4a 28 01 3d 9e fc 51 bd
       0.038269393 -0.040695123 0.031532563 -0.051266305
000170 00 e5 ca 3c 60 c5 5e 3b f6 bd 42 3d 92 6e 28 3d
       0.024767399 0.0033992156 0.047544442 0.041121073
000180 e0 a5 02 3d de b0 70 bd d0 68 39 bd 84 1d d3 bc
       0.031896472 -0.058762424 -0.045265973 -0.02577091
000190 d0 0e 91 bb 58 90 2b 3d c0 de f3 bc 80 ee 1d 3c
       -0.0044268146 0.041885704 -0.029769301 0.009639382
0001a0 64 95 8c 3c 88 2d 31 3d 00 ab 4f 3b 00 06 9d bc
       0.017161079 0.043256313 0.0031687617 -0.0191679
0001b0 7e ba 3b 3d 66 95 7f 3d 74 40 bd 3c d8 04 3e 3c
       0.04583215 0.062398337 0.023102023 0.0115978345
0001c0 c8 f7 5c bd 94 76 f1 bc 34 ed 09 bd b0 6a b3 bc
       -0.05394724 -0.029475488 -0.03367348 -0.021901459
0001d0 28 69 3f 3d c0 f9 64 3d bc 25 6b 3d de a1 31 3d
       0.046731144 0.055902243 0.057409033 0.04336726
0001e0 44 56 09 3d 00 99 7d bc 80 09 84 bb 88 05 51 3d
       0.033529535 -0.015478373 -0.004029453 0.051030666
0001f0 10 60 d7 bc 90 6e 8e 3b c8 0b c4 bc aa 12 68 bd
       -0.026290923 0.004346676 -0.023931399 -0.056658424
000200 30 01 57 3d 0a 23 27 bd 80 8b ea ba 58 b2 46 3d
       0.052491367 -0.0408049 -0.0017894357 0.048509926
000210 ac e6 eb 3c 98 a2 94 3c ec 1a db bc 88 af 79 3d
       0.028796516 0.018143937 -0.026746236 0.060958415
000220 90 c8 3d bd c4 59 08 3d 2c 52 5f bd 7c 9c 34 bd
       -0.04633385 0.033288732 -0.054521725 -0.044094548
000230 cc 99 ed 3c ec ba 79 3d 9c c7 7e bd 56 db 0f 3d
       0.029004 0.06096928 -0.06220208 0.035121284
000240 40 f0 b3 bb c4 33 2f bd 5c 75 aa 3c 40 1d 72 3d
       -0.0054912865 -0.042773977 0.020807914 0.059109926
000250 88 22 d2 3c 60 ff 65 bb 14 0f ac bc ac d4 9b 3c
       0.025651231 -0.0035094842 -0.021003284 0.019022308
000260 bc d2 a4 bc 10 ef 04 bd 14 3a 56 bd a2 26 64 3d
       -0.020120017 -0.03245455 -0.05230148 0.055700906
000270 a0 c5 a7 3b 98 6d 71 3d a4 15 69 3d 14 1f 03 bd
       0.0051199943 0.058942407 0.056905404 -0.03201206
000280 d8 1e 2c 3c 92 6a 57 3d c8 76 e2 bc d8 07 bc 3c
       0.010505401 0.052591868 -0.02764453 0.022952959
000290 10 ab 1e bd 00 b7 dd bc 80 6d 64 3b 74 92 f3 bc
       -0.038737357 -0.0270648 0.0034855306 -0.02973292
0002a0 02 d4 39 bd 50 b5 d3 3b ac 0b a0 3c fc de 8e bc
       -0.045368202 0.006460823 0.019536816 -0.017440312
0002b0 08 dd 54 bc 80 17 78 bd 7e 15 4a 3d b6 71 30 3d
       -0.012992151 -0.060569286 0.049336903 0.043077193
0002c0 98 a1 19 3d c2 6e 7f bd b4 71 ac bc 10 33 cd 3b
       0.037507623 -0.062361486 -0.021050312 0.0062621906
0002d0 08 88 50 3c c6 a6 7a bd 10 c3 1e bd 5c 51 9a bc
       0.012727745 -0.061194204 -0.038760245 -0.018837623
0002e0 28 b4 4f bd 9a a4 0b bd fc 92 02 bd a8 ec 83 bc
       -0.05070892 -0.034092523 -0.031878456 -0.016104057
0002f0 40 ec 10 3c 24 e4 fa bc 96 9e 30 3d 8a cc 34 3d
       0.008845389 -0.030626364 0.04311999 0.044140376
000300 40 a1 b1 ba 58 e7 19 bc c8 0c 00 bd c4 ac 81 bc
       -0.0013552085 -0.009393536 -0.03126219 -0.015829451
000310 04 dc b4 bc 32 73 4c 3d 80 7b b4 3c 00 10 d7 3c
       -0.022077568 0.049914546 0.022031546 0.026252747
000320 c0 2c d6 3a b0 49 a9 bc d0 dc 3d 3c fe 31 53 bd
       0.0016340241 -0.02066502 0.01158829 -0.05156135
000330 c0 0a c0 bb 4c a8 e1 3c 44 b2 52 bd 2a 60 74 bd
       -0.0058606565 0.02754607 -0.05143954 -0.05966202
000340 30 4a 46 3c e0 3b ce bb 52 80 67 3d a8 88 90 3c
       0.012102649 -0.0062937587 0.05651886 0.017643288
000350 e0 9b 5a bd 00 dd b3 ba 7a 05 44 bd ba 8a 27 3d
       -0.05337131 -0.0013722479 -0.047856785 0.040903784
000360 a8 a0 ea 3c 88 c5 36 3c 30 de 87 3c 28 62 90 3c
       0.02864106 0.011155494 0.01658544 0.01762493
000370 08 98 08 3d 60 ab 20 3d dc 91 d0 bc 78 84 d4 3c
       0.033348113 0.039225936 -0.025460176 0.025942072
000380 68 1c 39 3c f4 d3 2b bd ca b8 1b bd c0 9b 35 bb
       0.0112982765 -0.04195018 -0.038018025 -0.0027711242
000390 ac 89 d0 3c e4 9f bb bc a0 af d4 bc 6c d2 d0 bc
       0.025456272 -0.02290339 -0.02596265 -0.025490962
0003a0 0c 2d d5 bc 70 81 e3 bb 6c c1 18 3d a0 0d 9e bb
       -0.026022457 -0.0069429204 0.037293836 -0.0048234016
0003b0 a8 04 f8 bc b8 f9 62 3d d0 16 09 3c 08 22 6b bd
       -0.030275658 0.05541393 0.008367255 -0.0574055
0003c0 c0 3a 35 3b 30 cd da bb f0 f5 a1 bb a6 41 10 3d
       0.0027653426 -0.0066772923 -0.004942648 0.035218857
0003d0 22 21 64 3d 2e 73 5a 3d 58 0e 43 3c 7c 8d ef bc
       0.05569566 0.0533325 0.011905275 -0.02924227
0003e0 f4 78 a1 3c 94 ba 54 3d 40 b9 8d ba 50 f1 a6 bb
       0.019710995 0.051935747 -0.0010812655 -0.0050946847
0003f0 d2 bf 01 3d e8 f7 29 bd 00 6c 5c bc 9c 04 e2 3c
       0.031677075 -0.041496187 -0.013453484 0.027590089

actor_output.bias f4 [54]
000000 38 20 be 3c 28 ef 21 bd 00 c5 30 3d d0 26 ae bc
       0.023208722 -0.039534718 0.043156624 -0.021258742
000010 10 a3 06 3c a0 82 0c bb 14 7e bc bc e0 4c 45 3c
       0.008217588 -0.0021440163 -0.023009337 0.012042254
000020 0c 99 6f bd f8 47 5b 3c a4 a9 65 bd 7c b0 00 3d
       -0.058495566 0.013383858 -0.056069985 0.03141831
000030 a0 50 56 3b d4 39 74 3d a0 c9 1a 3c 6e e5 03 bd
       0.0032701865 0.05962546 0.009447485 -0.032201223
000040 a8 a0 24 3c 60 19 69 bc ac 42 58 3d 0a 77 09 bd
       0.010048069 -0.014227241 0.05279796 -0.03356079
000050 1c 14 1e 3d 1c 52 08 bd b6 82 63 3d 60 07 5f 3c
       0.038593397 -0.03328143 0.055544578 0.013612598
000060 c6 e5 7f bd 60 2e 5e bd ce 4f 3a 3d c0 d9 17 bc
       -0.06247499 -0.054243445 0.045486264 -0.009268224
000070 38 dc 59 3c 58 25 c8 bc 80 51 00 bb e0 ca d6 3b
       0.013297133 -0.02443187 -0.0019579828 0.0065549463
000080 20 ae ad 3c 98 fc d1 3c 76 8c 16 bd d0 a0 95 3b
       0.021201193 0.025633141 -0.036755048 0.0045662895
000090 84 27 c0 bc 00 64 e4 bb c8 ac 31 bc e0 a4 4e 3c
       -0.023456343 -0.0069699287 -0.010844417 0.012612551
0000a0 80 a7 ae 3a 72 1b 20 3d 10 10 2f bc 2e 24 54 bd
       0.0013325065 0.039088674 -0.010684982 -0.051792316
0000b0 d0 a9 97 bc e2 20 49 3d 3e 26 14 3d 7c cc c1 bc
       -0.01851359 0.049103625 0.036169283 -0.023657076
0000c0 20 36 62 bd 46 1d 7b bd e2 f6 43 bd be 6a 1e 3d
       -0.0552274 -0.061307214 -0.047842868 0.038676016
0000d0 58 9f 6a 3d d4 25 f3 bc
       0.05728087 -0.029681124

critic_body.0.weight f4 [256, 19]
000000 18 6d b9 bd 02 d9 b7 bd 98 da 87 3d 97 39 07 be
       -0.09054011 -0.08976938 0.0663349 -0.13205563
000010 15 9d 16 3e 1e 84 4b bc 63 50 63 3e da b5 a7 bd
       0.1470836 -0.012421636 0.22198634 -0.08188982
000020 50 89 13 3c 6f d2 fb bc 02 30 5c bd c7 44 35 3b
       0.009004906 -0.030739991 -0.05375672 0.0027659403
000030 8e 60 04 3e ba c8 1c be 03 d2 fa 3c 67 8a 31 3e
       0.12927458 -0.15310946 0.03061772 0.17337953
000040 1d 78 d6 3d 69 ea de 3b 33 46 f9 3d d7 47 53 3e
       0.104721285 0.006802846 0.121715926 0.20632873
000050 80 35 84 3c 85 2e de bd 89 c6 34 3d 80 fe bb 3d
       0.016138792 -0.10848717 0.04413465 0.091794014
000060 73 39 57 3e 29 50 40 3e a5 36 46 3e 43 81 85 3d
       0.21018009 0.18780579 0.19356783 0.06518795
000070 ae fb 47 be 8f 8e 3b be 0b 52 49 be 82 68 07 bd
       -0.19529602 -0.183161 -0.19660203 -0.03305865
000080 9d c2 ba bd d0 3a 8b bd 0c c8 04 bc b7 3f 17 be
       -0.09119151 -0.06798327 -0.0081043355 -0.14770399
000090 d0 39 59 be 81 90 06 bd 9b 9a 04 be bb 8b 93 bd
       -0.2121346 -0.032852653 -0.12949602 -0.07204386
0000a0 dd cd 46 3e 1c 01 5f be b8 77 40 bd 0d bd 18 be
       0.19414468 -0.21777767 -0.046989173 -0.14915867
0000b0 78 57 ec 3d 5e 84 68 be cd bf 64 3e 42 30 1b 3e
       0.11540121 -0.22706744 0.22338791 0.15155128
0000c0 5d 25 48 3e 18 2c 0f 3e 4e df bb 3d 2d 06 91 3d
       0.19545503 0.13981664 0.09173451 0.07081256
0000d0 b7 6d d3 3c 83 de bb 3d f8 1e bd bd 27 13 55 3e
       0.025809152 0.091733 -0.092344224 0.20808087
0000e0 21 54 59 3d e9 b4 28 be e0 ad c2 3d 19 73 54 3d
       0.053058747 -0.16475262 0.0950582 0.05186758
0000f0 ce f6 62 3e 98 a1 0d 3e 83 67 e3 bc 68 22 1c 3d
       0.22164461 0.13831174 -0.02775932 0.03811875
000100 c7 35 0b bd b8 f6 8a bd 05 2c a3 bd 1d 8d e9 3d
       -0.033986833 -0.06785339 -0.079673804 0.11403868
000110 9c 40 4e be 5c 97 05 be f6 55 68 be 6c cd 29 be
       -0.20141834 -0.1304602 -0.22689041 -0.16582268
000120 c7 9d 2d 3e 62 75 4a be d2 3f 17 be 35 67 7b 3d
       0.16954719 -0.1977134 -0.1477044 0.061377723
000130 be a4 e4 bd 87 47 21 bd d2 56 0b 3e f6 a0 99 bc
       -0.111642346 -0.039374854 0.13607338 -0.01875351
000140 ca 50 55 be 28 2f 57 3d 3d a0 a6 3c 7b 84 f7 bd
       -0.208316 0.052535206 0.02034008 -0.120858155
000150 b9 1b d9 bd 7f bc a1 bd b8 b6 21 3e f7 46 14 3e
       -0.10600991 -0.07897281 0.15792358 0.14480196
000160 f0 54 5c be d5 c8 60 be 8f f0 dc bc 24 76 c2 bd
       -0.21516776 -0.21951611 -0.026970176 -0.0949519
000170 c4 27 43 be 9d 42 be bc e8 54 b9 bd 7a 3c f1 bd
       -0.19058138 -0.023225123 -0.09049398 -0.11779113
000180 70 f7 32 be cf 9a 3d 3e 98 1f df 3b 2b 28 3f be
       -0.17477202 0.18516086 0.006809186 -0.18667667
000190 de b2 1f be 35 34 ea 3d f1 09 19 be b2 f5 18 3e
       -0.15595576 0.11435739 -0.14945199 0.14937475
0001a0 62 e4 df bb 7d 6c c9 3d cf 5f 41 3e 12 4b 6a be
       -0.0068326453 0.098351456 0.18884204 -0.228802
0001b0 17 3b 5e bd 43 39 99 3d 7a da bf 3d 1e 8d 81 3d
       -0.05425557 0.07481625 0.09367843 0.06325744
0001c0 0e 3a 48 3e 0f ce 9f bd 59 93 56 bd 0a 25 3c bb
       0.19553396 -0.078029744 -0.052386615 -0.00287086
0001d0 63 eb 65 3e 01 1f 46 3e 91 62 f1 bd c9 24 19 3e
       0.22453074 0.19347765 -0.11786378 0.14955439
0001e0 42 c5 42 3e a7 8c 56 3e 00 ed 36 be 9b 7b 00 3d
       0.1902056 0.20952092 -0.17863846 0.03136788
0001f0 2a 48 29 3e 96 5e 28 3e 5a 07 0d 3e e2 71 3d 3e
       0.16531435 0.16442332 0.13772336 0.18500474
000200 23 59 c7 bb 5a 13 5f be 9e 2a a1 bd 1f 3d 13 3e
       -0.006083624 -0.21784726 -0.07869457 0.14378785
000210 87 f4 d0 bd 9b c0 54 be 73 bc 83 bd 73 8e 19 3e
       -0.1020289 -0.20776598 -0.06432428 0.14995746
000220 55 0a 0e be 98 fe a3 bd d9 8b 0c 3e a6 f8 95 3d
       -0.13871129 -0.08007544 0.13725223 0.073228166
000230 02 af 2e be d2 65 44 be 0c df 39 be 21 2b be 3d
       -0.17058948 -0.19179466 -0.18151492 0.0928557
000240 3a bf 0c be 6a 9c 5e be 9e 75 61 3e a7 01 53 be
       -0.13744822 -0.21739355 0.22017524 -0.20606099
000250 f3 17 26 bd cc 1b 74 3d 34 da a4 3d 92 c7 31 3e
       -0.040550184 0.05959682 0.080494314 0.17361286
000260 ed cf 47 be f6 0e bd 3d 6e 27 4c be 8c ef fc bc
       -0.19512911 0.09231369 -0.19936916 -0.030875944
000270 fc f7 26 be af 34 57 be 1b 64 e4 bd bb e7 d9 3d
       -0.16305536 -0.21016191 -0.11151906 0.10639902
000280 51 b1 2a 3e 8a ba 95 3d 32 eb 64 be c1 eb 94 bd
       0.16669203 0.0731097 -0.22355345 -0.07271529
000290 cd 5f 40 3e 55 95 5a be f6 75 13 3e f3 32 d0 3d
       0.18786545 -0.21346028 0.14400467 0.10165968
0002a0 6b db 5a 3e 3b 84 7a 3c 87 91 13 be f4 af 64 3e
       0.21372764 0.015290315 -0.14410983 0.22332746
0002b0 7d c9 32 3e 9b 71 15 bc 3c 60 d0 bc f4 3b c7 bd
       0.17459674 -0.009121324 -0.025436513 -0.09728232
0002c0 84 77 23 be ce 2c f0 bd ce 28 83 3c e3 54 aa bd
       -0.1596356 -0.11727296 0.016010668 -0.08316972
0002d0 1d a6 44 3e a8 06 d7 bd cd ab 17 3e c4 a2 13 3e
       0.19203992 -0.104993165 0.1481163 0.14417559
0002e0 b2 b1 98 bc bc 58 2b be db 66 16 bd 27 b5 3e 3c
       -0.01863942 -0.16733068 -0.036719184 0.01163987
0002f0 31 6e bd 3c 01 89 41 be f4 cd a0 3c b6 54 6d be
       0.023123832 -0.18899919 0.019629456 -0.23176846
000300 19 fb 02 bd 67 a6 d2 3d 20 44 9b 3d 92 c7 78 bd
       -0.031977747 0.10285645 0.07581353 -0.0607372
000310 b8 e5 37 be d1 7f bb bc 60 47 08 3e 38 35 08 be
       -0.17958724 -0.022888096 0.13308477 -0.13301551
000320 79 25 59 be 44 de b7 bd 66 ef 18 3e 2f eb 0d 3e
       -0.21205701 -0.08977941 0.14935073 0.13859247
000330 16 63 55 be 70 e2 17 be b7 3a 24 3c 60 d2 45 be
       -0.2083858 -0.14832473 0.010023764 -0.19318533
000340 ff 38 82 bc ba 29 97 3d e4 8b 5a 3e 26 40 67 3d
       -0.015896318 0.073810056 0.21342427 0.05645766
000350 d3 67 66 be c2 73 19 bd 7d c0 1d be bc 97 f2 bd
       -0.22500543 -0.03746391 -0.1540546 -0.11845347
000360 0c cd 02 be 13 93 93 bd 90 88 cd 3d 5c 3c 8f bb
       -0.12773532 -0.072057866 0.10035813 -0.004371209
000370 5f 0b 03 3e 6f 0d 13 be c3 45 e3 3d d0 0e c6 3d
       0.12797306 -0.14360593 0.1109729 0.09670794
000380 36 71 20 3e 75 8b ec 3d 3e 16 af bb 73 74 bb bd
       0.15668187 0.11550037 -0.0053432276 -0.0915307
000390 58 17 26 3d 39 3b 58 3e 9b 9f 5a bc 30 20 50 bd
       0.040549606 0.21116342 -0.013343717 -0.050811946
0003a0 f4 e7 3e 3e d1 fb 0d 3c 8c fe 65 be 95 99 48 be
       0.1864317 0.008665995 -0.22460383 -0.19589837
0003b0 1f d4 18 be 94 89 a9 bd c1 26 1f bd b0 1e 74 3d
       -0.14924668 -0.08278194 -0.038855318 0.05959958
0003c0 49 58 1d be 2f 32 29 3e 1e 7f b1 bd d5 0e 19 3e
       -0.1536571 0.1652305 -0.08666824 0.14947064
0003d0 b9 82 50 3d fb 74 1f 3b b5 cf 5e 3e 9d 39 0b 3e
       0.050905917 0.00243312 0.21758921 0.13596196
0003e0 cd 53 33 3c c9 49 5e 3e 9d 4b d3 3d 47 33 28 3c
       0.010945273 0.21707834 0.103171565 0.010266132
0003f0 a4 4b 0a bd d7 bd 65 bd 91 f4 26 3e eb 6c 56 3c
       -0.033763543 -0.05608925 0.16304232 0.0130874915
