logs/model_checkpoint_50.pth (torch, 320257 bytes, 11 tensors)

actor_body.0.weight f4 [256, 18]
0	0x3d067e08	0.032835037
1	0xbe2c745c	-0.16841263
2	0x3cd6f7f1	0.026241275
3	0xbe40ba1c	-0.18820995
4	0xbe355ba5	-0.17710741
5	0xbaafbed9	-0.0013408317
6	0x3cf2640a	0.029588718
7	0xbd9be605	-0.07612232
8	0xbe2f3282	-0.17109111
9	0xbe6390f0	-0.22223258
10	0xbe52d6a2	-0.20589688
11	0x3db8b561	0.0901897
12	0xbd9fb431	-0.07798041
13	0x3e30373c	0.1720857
14	0xbe1c89b3	-0.15286903
15	0x3e5e8fe0	0.21734571
16	0x3dfb1699	0.122601695
17	0x3e529de9	0.2056805
18	0xbd0db477	-0.034595933
19	0x3d0f63d4	0.035007313
20	0x3e602274	0.21888143
21	0x3bd195d9	0.006396037
22	0x3d37cfe5	0.044875998
23	0x3e0c1dff	0.13683318
24	0xbdde941c	-0.10868093
25	0xbd9cf1ad	-0.076632835
26	0x3d400c04	0.04688646
27	0x3b62f7e8	0.0034632627
28	0x3d828b04	0.063741714
29	0x3e3287e8	0.17434657
30	0xbe29c047	-0.16577254
31	0x3d08b7c8	0.033378392
32	0x3d4a881b	0.049446207
33	0xbe6d21bb	-0.23157398
34	0xbe184dc4	-0.14873415
35	0x3c80a808	0.015705124
36	0x3e0398d0	0.12851262
37	0x3e648628	0.22316802
38	0x3ccb4266	0.024811935
39	0xbe4edb20	-0.20200777
40	0xbd926089	-0.07147319
41	0xbddff989	-0.10936267
42	0x3c26e382	0.010186078
43	0x3c9f8c23	0.019476002
44	0x3ccf4f40	0.025306344
45	0x3d4b91b6	0.049699508
46	0xbe69dd75	-0.22838385
47	0x3e09badb	0.13450186
48	0xbdfe6d54	-0.124231964
49	0x3e07f4df	0.13277005
50	0x3da160ef	0.07879817
51	0xbe4bddff	-0.19908904
52	0xbe176bd8	-0.14787233
53	0xbd9e6f78	-0.07736105
54	0x3d6f7e0c	0.058469817
55	0xbd5c706d	-0.053818155
56	0xbe3ac4ab	-0.18239085
57	0xbcaec00e	-0.021331813
58	0x3d87ba05	0.06627277
59	0xbdcb6e97	-0.09933203
60	0x3e0b8366	0.13624343
61	0xbcb507c7	-0.022098435
62	0x3c8f1bda	0.017469335
63	0x3e20089c	0.15628284
64	0x3dd4cffc	0.10391232
65	0x3df78ea7	0.12087756
66	0x3de5995e	0.11210893
67	0xbde21319	-0.11038799
68	0xbd0e14e5	-0.034687895
69	0x3e6b3d8f	0.22972701
70	0xbe21edee	-0.15813419
71	0x3e1a2eb9	0.15056886
72	0xbcd39470	-0.025827616
73	0x3e0533f6	0.13008103
74	0x3c286dd7	0.010280094
75	0x3e2d2408	0.16908276
76	0xbe168ee0	-0.1470294
77	0xbd3e767d	-0.046499718
78	0x3e3cdbe5	0.18443258
79	0xbd32bd43	-0.043637525
80	0x3b60646a	0.003423954
81	0x3dc4e57d	0.09614084
82	0xbcdaa428	-0.026689604
83	0x3d5702a3	0.05249275
84	0xbe6a0c59	-0.22856273
85	0x3d237c26	0.03991332
86	0x3e5575f7	0.20845781
87	0xbdc59a37	-0.09648555
88	0x3e6263f2	0.22108439
89	0x3d8a5496	0.06754415
90	0x3e14fb5e	0.14549014
91	0xbe206ab1	-0.156657
92	0xbe2ce94e	-0.16885874
93	0x3e0b7967	0.1362053
94	0xbe14c0a4	-0.14526612
95	0xbe5e4736	-0.21706852
96	0x3e606303	0.2191277
97	0xbe61b7b5	-0.22042735
98	0xbda59e91	-0.08086885
99	0x3e3ae013	0.1824954
100	0xbe24a381	-0.16077997
101	0x3df1777f	0.1179037
102	0x3e5a138a	0.21296516
103	0xbe60e988	-0.21964085
104	0x3dbbe469	0.09174425
105	0xbe26f8ec	-0.16305894
106	0x3def6fab	0.11691221
107	0x3d5196bc	0.051169142
108	0x3b38f1fc	0.0028220406
109	0x3da86361	0.0822208
110	0xbe351c43	-0.17686562
111	0xbdd9d70d	-0.10636721
112	0xbdb67efd	-0.0891094
113	0xbcae659a	-0.021288682
114	0x3e16aeea	0.14715162
115	0x3e405beb	0.18785064
116	0x3dbda35c	0.09259674
117	0xbd845d8b	-0.064631544
118	0xbdb3f1e3	-0.087863706
119	0x3e5df6a7	0.21676122
120	0x3d96ccb3	0.07363262
121	0xbcd99f2d	-0.026565159
122	0x3e30912d	0.1724288
123	0x3d837b09	0.064199515
124	0xbe21edd2	-0.15813377
125	0xbd593c6b	-0.053036135
126	0x3de22fb9	0.110442586
127	0x3e05fef0	0.13085532
128	0xbe40219b	-0.1876282
129	0xbe55398f	-0.20822738
130	0xbb32607c	-0.0027218154
131	0x3c8e6698	0.017382905
132	0xbe32d4b1	-0.17463948
133	0x3e5bcdb2	0.21465185
134	0x3e4913f0	0.19636512
135	0x3dbb592b	0.09147867
136	0x3e3bf6a0	0.18355799
137	0x3e343bde	0.17600963
138	0xbdcccfa1	-0.100005396
139	0xbe4e23f4	-0.20130903
140	0xbd246c54	-0.040142372
141	0x3dfd7bf5	0.123771586
142	0x3dc02edf	0.0938394
143	0xbe2498b3	-0.16073875
144	0x3d46cb73	0.048533868
145	0x3d548d57	0.051892605
146	0x3d04e6f2	0.03244681
147	0x3e5cc5a5	0.2155977
148	0xbe00f202	-0.12592319
149	0x3d812094	0.06305042
150	0xbe19c826	-0.15017757
151	0x3dca2a3c	0.09871337
152	0x3d8f079c	0.06983873
153	0xbc1cc506	-0.009568458
154	0xbe07f77b	-0.13278
155	0xbe2fb01e	-0.17157027
156	0x3dab0170	0.083498836
157	0x3e5128bc	0.20425695
158	0x3e3b9b7b	0.1832103
159	0xbdf170da	-0.11789103
160	0x3d46a461	0.048496608
161	0xbe5676c3	-0.20943742
162	0x3e57a828	0.2106024
163	0x3980e28c	0.00024582853
164	0xbd225339	-0.03963015
165	0x3e6f8944	0.23392206
166	0x3dd45707	0.10368162
167	0xbe014055	-0.12622197
168	0xbddf7e22	-0.1091273
169	0x3dfe23ec	0.12409195
170	0x3d94986e	0.07255636
171	0x3e5f8585	0.21828277
172	0x3e1455b0	0.14485812
173	0xbe26b4fd	-0.16279979
174	0x3e420535	0.18947299
175	0x3dfa3f20	0.122190714
176	0xbc2c0d90	-0.01050128
177	0xbc91f1d0	-0.0178155
178	0xbd92c1f0	-0.07165897
179	0xbe6b9b9b	-0.23008578
180	0xbe5affbe	-0.2138662
181	0xbc822f01	-0.015891554
182	0x3db83b05	0.08995632
183	0xbe58661b	-0.211327
184	0xbe58b49f	-0.21162651
185	0x3e0feb78	0.14054668
186	0xbe690b47	-0.22758208
187	0xbde558f2	-0.111986056
188	0x3dcfe96e	0.10151945
189	0x3e674416	0.22584566
190	0x3be344fb	0.0069357133
191	0xbe32b545	-0.17451961
192	0xbd1cda90	-0.038294375
193	0xbe6d6646	-0.23183545
194	0xbe4078b2	-0.18796042
195	0xbdc1dc15	-0.094658054
196	0xbe05f2d9	-0.1308092
197	0x3e3042db	0.17213003
198	0x3cac9b39	0.02107011
199	0x3cd905cb	0.02649202
200	0xbe026a39	-0.12735833
201	0xbdbbe14d	-0.09173832
202	0x3e487f81	0.19579889
203	0x3da77848	0.08177239
204	0xbe2c0a7c	-0.16800874
205	0xbe2b271b	-0.16714136
206	0x3e6a8f62	0.22906259
207	0x3e691509	0.2276193
208	0x3db89597	0.09012907
209	0xbd8a59dc	-0.067554206
210	0x3caa9b47	0.020825995
211	0x3a3ee1cb	0.00072815706
212	0x3e33a601	0.17543794
213	0xbd441dff	-0.04788017
214	0xbe04562a	-0.12923494
215	0xbc8664d0	-0.016405493
216	0xbe0b3592	-0.13594654
217	0xbc76b88c	-0.015058648
218	0x3e154f96	0.14581141
219	0xbe17ddd4	-0.14830714
220	0x3dcd95aa	0.10038312
221	0x3e34e381	0.17664911
222	0x3e712544	0.23549372
223	0xbddac084	-0.10681251
224	0x3d5996a9	0.053122196
225	0x3cf84ee5	0.030311057
226	0x3dad0c4d	0.08449612
227	0xbdb4ce81	-0.0882845
228	0x3d5f0a94	0.054453447
229	0x3c8f8b84	0.01752258
230	0x3e5da85d	0.21646257
231	0x3d2113e0	0.039325595
232	0xbc880c40	-0.016607404
233	0x3d8c165d	0.06840203
234	0x3d1ebea3	0.038756024
235	0x3de964b6	0.11396162
236	0xbe340257	-0.17579018
237	0x3e6bda0f	0.23032402
238	0xbdc98b01	-0.09840966
239	0x3d9f0367	0.07764321
240	0x3e6eece6	0.23332557
241	0xbdd20810	-0.10255444
242	0xbe42e05c	-0.19030899
243	0xbe2258f4	-0.15854245
244	0xbd9168a6	-0.07100038
245	0xbe3f17c3	-0.18661408
246	0x3dbd694d	0.092486
247	0x3e43dc29	0.19126953
248	0x3e37aacd	0.17936249
249	0xbd71e0d7	-0.059052315
250	0x3db57e6d	0.088620044
251	0x3dee8872	0.11647119
252	0xbdef9b59	-0.11699552
253	0x3cbc5e26	0.022994112
254	0xbe4489d1	-0.19193198
255	0x3e2f4804	0.17117316

actor_body.0.bias f4 [256]
0	0x3e6afeb3	0.22948723
1	0x3d69bf62	0.057067282
2	0xbe3d2d40	-0.18474293
3	0xbe15df21	-0.14635898
4	0xbe368f60	-0.1782813
5	0x3e4064c0	0.18788433
6	0xbdb18970	-0.08668792
7	0x3e3d7148	0.18500245
8	0xbdf29061	-0.11843944
9	0x3db38b84	0.08766845
10	0xbcf9c650	-0.03049007
11	0xbdcc6410	-0.09980023
12	0xbd10d470	-0.035358846
13	0xbdbd7df9	-0.09252543
14	0x3e056e0a	0.13030258
15	0xbcce0d66	-0.025152873
16	0xb9cbf4c4	-0.00038901542
17	0xbe1b870c	-0.15188235
18	0xbd2e6951	-0.042580906
19	0xbdcf6bd5	-0.10127989
20	0xbe06e23a	-0.13172236
21	0x3e10e6d8	0.1415056
22	0x3e0e0ac1	0.1387129
23	0x3b1a582f	0.0023551097
24	0xbe63aeb4	-0.22234613
25	0x3e57421d	0.21021314
26	0xbdda0d9e	-0.106471285
27	0xbe055495	-0.13020547
28	0xbe6b1799	-0.2295822
29	0xbe2698ae	-0.1626918
30	0x3d871a46	0.06596808
31	0xbe220666	-0.15822753
32	0x3c7b6b56	0.015345415
33	0x3ac3c4e7	0.0014936001
34	0xbd9ed399	-0.07755203
35	0xbe40f171	-0.18842103
36	0xbe16302a	-0.1466681
37	0x3df664db	0.120309554
38	0x3e147499	0.14497603
39	0x3c4c618b	0.012474428
40	0xbe469f90	-0.19396806
41	0x3dd76e9e	0.105191454
42	0x3e68c2cb	0.22730558
43	0xbd8b610d	-0.0680562
44	0xbd8d4f4a	-0.06899889
45	0xbe266972	-0.16251162
46	0xbd0ab98e	-0.033868365
47	0xbd149c43	-0.036281835
48	0xbda8c755	-0.082411446
49	0x3e000171	0.1250055
50	0xbdff0ccc	-0.12453613
51	0xbdc94268	-0.09827119
52	0xbe59e85b	-0.21280043
53	0xbe0e9f90	-0.13928056
54	0x3d2c7957	0.042107906
55	0xbbe78136	-0.0070649637
56	0x3d0108bb	0.031502467
57	0xbd7abddc	-0.06121622
58	0xbe31c523	-0.17360358
59	0xbd8d6f05	-0.06905941
60	0x3e28c286	0.16480455
61	0xbd1f3e35	-0.038877685
62	0x3dc3253a	0.09528585
63	0xbe346a38	-0.17618644
64	0xbe686b5c	-0.22697204
65	0x3dfd7230	0.12375295
66	0xbe0e6865	-0.13907011
67	0x3e0a4a59	0.13504924
68	0x3d6702c2	0.056399114
69	0xbd5fce7a	-0.05464027
70	0x3e685350	0.22688031
71	0x3e0a07ec	0.13479584
72	0x3dbe108c	0.092805
73	0x3e1eb55b	0.15498869
74	0x3d4e59e3	0.05037869
75	0x3d6cfc70	0.05785793
76	0x3e55999f	0.20859383
77	0xbe58fbb0	-0.21189761
78	0xbddce218	-0.107853115
79	0x3e143aac	0.14475507
80	0xbe612e52	-0.21990326
81	0x3df494a4	0.119424134
82	0x3d0d8416	0.034549795
83	0x3e3b4f30	0.18291926
84	0x3e54caa7	0.2078043
85	0xbe1c1eed	-0.15246172
86	0x3d6f48de	0.0584191
87	0x3e2f0673	0.17092304
88	0x3e5b8955	0.21439107
89	0x3e04cc6f	0.1296861
90	0xbc07a841	-0.008279861
91	0xbc8f91d2	-0.017525587
92	0x39d80cf3	0.00041208378
93	0xbe5cb9da	-0.21555272
94	0xbd1d1c5a	-0.038357116
95	0x3d992e27	0.07479506
96	0xbe19f996	-0.15036616
97	0x3e0e843e	0.13917634
98	0x3e51e0a8	0.20495856
99	0xbe45eb02	-0.1932793
100	0x3d719d9b	0.058988195
101	0x3e3e2415	0.18568452
102	0x3e4290da	0.19000569
103	0x3d9713e6	0.07376842
104	0xbe1cb605	-0.1530381
105	0xbd36e338	-0.044650286
106	0xbc4a246e	-0.012337787
107	0x3e084ac5	0.13309772
108	0x3d857443	0.06516316
109	0x3cd7e4a5	0.026354143
110	0xbd7f38e7	-0.062310126
111	0xbc63c151	-0.013901071
112	0xbe45675e	-0.19277713
113	0x3e50aca8	0.20378363
114	0xbd2714be	-0.040791266
115	0xbe34c2a7	-0.17652379
116	0x3e1d554a	0.15364566
117	0x3cef3035	0.029197792
118	0xbc554dda	-0.01301905
119	0xbd93878c	-0.07203588
120	0x3d7e9919	0.062157724
121	0xbe1595ca	-0.14607921
122	0xbc02ed55	-0.007991155
123	0xbe2428d1	-0.16031195
124	0x3c8e3d0e	0.017363098
125	0xbde7b19f	-0.113131754
126	0x3d1e80d2	0.03869707
127	0x3e166dcd	0.14690323
128	0xbd79668f	-0.060888823
129	0x3e5ef638	0.21773612
130	0x3e11e91d	0.14249082
131	0x3d134505	0.035954494
132	0x3dda1bdd	0.10649846
133	0x3b0bc6e7	0.0021328272
134	0x3e6f8040	0.23388767
135	0x3e63cf66	0.22247085
136	0xbe18d1b9	-0.14923753
137	0x3da847ac	0.08216795
138	0x3d71c07d	0.05902146
139	0x3dad0080	0.08447361
140	0xbdcf7288	-0.10129267
141	0xbe25c726	-0.1618925
142	0xbe291afc	-0.165142
143	0xbdccde1c	-0.100033015
144	0x3e6cffe0	0.23144484
145	0x3dbe353b	0.09287497
146	0x3e4f7bd4	0.2026208
147	0xbe6aa9e1	-0.22916366
148	0xbddfbc67	-0.10924607
149	0xbd24e489	-0.04025701
150	0x3dc8b221	0.097996004
151	0xbe362356	-0.17786917
152	0x3e17a69d	0.14809652
153	0x3de890f6	0.11355774
154	0x3a971024	0.0011525196
155	0xbd12878b	-0.035773795
156	0x3e5fc9d8	0.21854341
157	0x3d33959c	0.04384385
158	0x3e01c2fe	0.1267204
159	0x3e093f39	0.13403024
160	0xbe2ea3c3	-0.17054658
161	0xbe6b7c51	-0.22996642
162	0x3e21750b	0.15767305
163	0x3e4f91fa	0.2027053
164	0xbe626503	-0.22108845
165	0xbe5f3950	-0.21799207
166	0x3e0aae76	0.13543114
167	0x3e4011f2	0.18756846
168	0x3e1c8385	0.15284546
169	0x3e6baa5a	0.23014203
170	0xbe2d545c	-0.16926712
171	0xbe55ff5b	-0.20898192
172	0x3daf915b	0.08572646
173	0x3de2fd32	0.110834494
174	0xbc173781	-0.009229542
175	0xbd0c72d2	-0.03428919
176	0x3d491dfa	0.049100854
177	0x3e58b677	0.21163355
178	0x3d464555	0.048405964
179	0xbe6ae3c7	-0.22938453
180	0x3c8bf1af	0.017083017
181	0xbd9f1f73	-0.0776967
182	0xbdf1c5de	-0.11805318
183	0xbaebf98c	-0.0018003448
184	0xbe02676d	-0.12734766
185	0x3c5c16bd	0.013433156
186	0xbd8d7bbc	-0.06908366
187	0xbe3e38d1	-0.18576361
188	0x3d3fd464	0.04683341
189	0x3e2e9a4e	0.1705105
190	0x3dcc2948	0.09968811
191	0x3d8444b1	0.06458414
192	0xbd39de19	-0.045377824
193	0x3e671a76	0.22568688
194	0xbe5cfb50	-0.21580243
195	0x3e31bd81	0.17357446
196	0xbe26a5ed	-0.16274233
197	0x3d78a011	0.060699526
198	0xbdbf6f33	-0.093473814
199	0xbc64438a	-0.013932118
200	0x3cee6992	0.029103074
201	0x3d2a3108	0.041550666
202	0x3df320dd	0.118715025
203	0x3e52e8a0	0.20596552
204	0x3c4034f8	0.011731379
205	0xbe137803	-0.1440125
206	0x3e5b1814	0.21395904
207	0x3d454940	0.04816556
208	0xbd0a3ec1	-0.033751253
209	0xbd9b8438	-0.07593578
210	0x3e495ebc	0.19665045
211	0xbe290852	-0.1650708
212	0xbe4e92b2	-0.20173147
213	0x3cfd60ca	0.030929942
214	0xbe22e72d	-0.15908499
215	0xbdb8f3db	-0.09030887
216	0x3d95fce6	0.07323627
217	0x3e360105	0.17773826
218	0x3de7f35e	0.113257155
219	0x3e550dd8	0.20806062
220	0x3e177661	0.14791252
221	0xbd88cddd	-0.0667989
222	0x3dc4938a	0.09598453
223	0xbd586aac	-0.052836105
224	0xbd29a7b5	-0.041419704
225	0xbd6dbf91	-0.05804402
226	0x3c803bba	0.01565348
227	0x3e3a3c3e	0.18187043
228	0xbe680da6	-0.22661456
229	0x3cde7afa	0.02715825
230	0x3dc4c467	0.09607773
231	0x3c7b393f	0.015333473
232	0xbe175c2a	-0.14781252
233	0x3b4fc6ee	0.0031704265
234	0x3e1f61a9	0.15564598
235	0xbe507992	-0.20358875
236	0x3e39734a	0.18110386
237	0x3da534de	0.08066724
238	0xbe548aff	-0.20756148
239	0x3cdcbc52	0.026945267
240	0xbd165fe5	-0.036712546
241	0x3e4a2fdf	0.19744824
242	0xbdc49507	-0.09598737
243	0x3d5e54a5	0.054279942
244	0x3e446cba	0.19182101
245	0x3da69a35	0.081348814
246	0x3b21b8a1	0.0024676698
247	0xbe45f95f	-0.19333409
248	0xbe59482e	-0.2121894
249	0x3e6dc8e1	0.2322116
250	0x3e0a5313	0.13508253
251	0xbe301d4e	-0.17198679
252	0xbe489bcc	-0.19590682
253	0xbbd5db09	-0.006526355
254	0xbc940671	-0.018069478
255	0xbdceba1c	-0.10094091

actor_body.2.weight f4 [128, 256]
0	0xbd5d51a6	-0.054032944
1	0x3d0138de	0.031548373
2	0x3c5258c0	0.012838542
3	0x3d6921e0	0.05691707
4	0x3d025282	0.031816967
5	0x3d6c5c9a	0.0577055
6	0x3d233488	0.03984502
7	0x3c88eae4	0.016713567
8	0x3d16d17e	0.03682088
9	0x3d2f073a	0.0427315
10	0xbd09a844	-0.033607736
11	0xbca365c4	-0.019945987
12	0x3d2320da	0.03982625
13	0xbd022936	-0.031777583
14	0x3c046968	0.008081771
15	0x3d093306	0.033495925
16	0x3c54e968	0.0129951015
17	0x3d1c8fba	0.038223006
18	0xbc47bb60	-0.01219067
19	0xbc95d020	-0.018287718
20	0x3c969b80	0.018384695
21	0x3c04ea18	0.008112453
22	0xbbd2a2d0	-0.0064281
23	0x3d744870	0.059639394
24	0xbd3cbe6e	-0.046080045
25	0xbcecacec	-0.02889105
26	0x3ba39080	0.004991591
27	0xbc987910	-0.018612415
28	0x3d0f2c22	0.034954198
29	0xbd45cf9e	-0.048293702
30	0x3d558040	0.05212426
31	0x3d6cd7bc	0.057822928
32	0xbd16b2da	-0.03679166
33	0xbcadf4ec	-0.021234952
34	0xbcc53de8	-0.02407737
35	0x3d5a5d88	0.053311855
36	0x3d3e7da6	0.046506546
37	0xbcfbdaf8	-0.03074406
38	0xbd529932	-0.05141563
39	0xbd261906	-0.040551208
40	0x3cd94ee0	0.026526868
41	0x3d69fe52	0.057127304
42	0xbd3a8b0a	-0.045542754
43	0xbbe7eee0	-0.0070780367
44	0x3d55a1d8	0.0521563
45	0x3d51bd9c	0.051206216
46	0xbad75500	-0.001642853
47	0xbc310ea0	-0.0108067095
48	0xbd6a4eca	-0.057204045
49	0xbb93bae0	-0.004508361
50	0x3d1ef3d6	0.03880676
51	0xbd0a06d8	-0.033697933
52	0xbd5be5d4	-0.053685978
53	0xbc973898	-0.018459603
54	0x3c8f32b8	0.01748024
55	0xbd03777a	-0.032096364
56	0xbd220736	-0.039557658
57	0x3d4e3394	0.050342157
58	0x3d694564	0.05695094
59	0xbd793778	-0.060843915
60	0xbd737bc0	-0.05944419
61	0xbd41b854	-0.04729493
62	0x3ca5fc60	0.020261943
63	0x3cc92738	0.024554834
64	0x3d318070	0.04333538
65	0x3c6ee860	0.01458177
66	0xbb923a70	-0.0044625327
67	0x3d760ae4	0.06006898
68	0xbd4ae0ea	-0.0495309
69	0x3d7ad4a4	0.061237946
70	0x3d09f11a	0.033677198
71	0x3d1a527c	0.03767632
72	0xbd14ef12	-0.036360808
73	0xbcff8c50	-0.031194836
74	0xbc84fb34	-0.016233064
75	0xbd698d88	-0.05701974
76	0xba99cac0	-0.0011733398
77	0xbcb4957c	-0.022043936
78	0x3d42d600	0.047567368
79	0xbd6f2342	-0.058383234
80	0xbd08bd58	-0.033383697
81	0x3abeb880	0.0014550835
82	0x3cfe0ac4	0.031010993
83	0x3d7c0922	0.061532147
84	0xbd61b3fa	-0.05510328
85	0xbc5c7258	-0.013454996
86	0xbaf183c0	-0.0018426105
87	0x3d1784e2	0.03699196
88	0xbd56cfe6	-0.05244436
89	0xbd34feba	-0.04418824
90	0x3c191510	0.009343401
91	0x3d2ac9ce	0.041696362
92	0x3d5bc760	0.053656936
93	0xbb8ace50	-0.00423602
94	0xbd79bda2	-0.060971864
95	0xbd0062fa	-0.03134439
96	0x3c37bb10	0.011214033
97	0x3d039f40	0.032134295
98	0x3d3e502c	0.046463177
99	0x3ab08dc0	0.0013469979
100	0x3c8de5f0	0.017321557
101	0xbd49bfee	-0.049255304
102	0xba610500	-0.0008583814
103	0xbc7c1820	-0.015386611
104	0xbd34ebe8	-0.04417029
105	0xbd768c90	-0.060192645
106	0x3d7050fe	0.05867099
107	0xbd284dd2	-0.04108984
108	0x3d71be98	0.059019655
109	0x3c93d274	0.018044688
110	0x3b948ad0	0.0045331493
111	0x3cdbbd94	0.026823796
112	0x3c0c3118	0.008556627
113	0x3d2e53da	0.042560436
114	0xbc9f1548	-0.019419327
115	0x3c17dbb0	0.009268686
116	0xbca798a0	-0.02045852
117	0xbc883c1c	-0.016630225
118	0xbc86a444	-0.01643575
119	0xbc93ada4	-0.018027134
120	0xbd7217be	-0.059104674
121	0x3d0e7556	0.03477987
122	0x3d1eb91e	0.03875076
123	0xbcaa3144	-0.020775445
124	0x3c47a4c0	0.012185276
125	0x3cf7c0b4	0.030243255
126	0x3d701a32	0.05861873
127	0xbc3da5b0	-0.0115751475
128	0xbd098da6	-0.033582352
129	0x3d6a2582	0.057164676
130	0x3d3f69c8	0.04673174
131	0xbd442726	-0.047888897
132	0xbc315f70	-0.010825977
133	0xbb9c6300	-0.004772544
134	0x3caaf0dc	0.020866804
135	0x3ce732c0	0.028222442
136	0x3ae70e40	0.0017628148
137	0xbc11e328	-0.008904256
138	0x3d0ed802	0.03487397
139	0xbd1526c8	-0.036413938
140	0x3d32a67e	0.04361581
141	0x3d72ee0c	0.05930905
142	0x3bfd7e60	0.0077360123
143	0x3d174eb0	0.036940277
144	0x3d4b5240	0.049638987
145	0xbd638c5c	-0.05555378
146	0xbccc5960	-0.024944961
147	0x3d2aa648	0.041662484
148	0xbc554f70	-0.013019428
149	0x3ce47210	0.02788642
150	0xbd40ebf6	-0.04710003
151	0xbb823350	-0.003973402
152	0xbd3ae984	-0.045632854
153	0xbccbce14	-0.02487854
154	0x3d64c310	0.05585009
155	0x3c1f2888	0.009714253
156	0xbcd1c90c	-0.025608562
157	0xbd685690	-0.056723177
158	0xbb73b9e0	-0.0037189648
159	0xbcdc6420	-0.026903212
160	0x3d73561c	0.059408292
161	0x3d371bce	0.04470425
162	0x3ca971ec	0.020684205
163	0x3d61b072	0.055099912
164	0x3ceede94	0.029158868
165	0xbd3fa718	-0.046790212
166	0xbd52a262	-0.05142439
167	0x3d1ef340	0.0388062
168	0xbd2909f4	-0.041269258
169	0x3c0dc310	0.008652464
170	0xbc9e8aa8	-0.019353226
171	0x3d14c356	0.0363191
172	0xbc540e50	-0.0129428655
173	0x3c64ebe8	0.01397226
174	0xbcbff61c	-0.023432784
175	0xbd347a2e	-0.044061832
176	0x3cf06d14	0.029348888
177	0x3c705ed0	0.014671043
178	0xbd5d156c	-0.053975508
179	0x3d706700	0.05869198
180	0xbcc65e90	-0.024215013
181	0x3d797a4e	0.060907654
182	0xbd0acb56	-0.033885323
183	0x3d25690e	0.04038339
184	0xbd7a9092	-0.06117303
185	0xbbf4d3f0	-0.007471554
186	0xbd7a0d22	-0.06104768
187	0xbc8481bc	-0.016175143
188	0x3c78db60	0.015189022
189	0xbd7b0466	-0.06128349
190	0xbbb82480	-0.0056195855
191	0x3cc6c288	0.024262682
192	0xbd282196	-0.041047655
193	0x3cc43bf8	0.023954377
194	0xbd572a38	-0.052530497
195	0xbd0c1e0e	-0.03420835
196	0x3c8bfd74	0.01708863
197	0xbceae428	-0.028673247
198	0x3c55d398	0.013050936
199	0x3d766558	0.060155243
200	0xbd047416	-0.03233727
201	0x3d6f1204	0.05836679
202	0x3c5768e0	0.013147563
203	0x3d77d4a6	0.06050553
204	0xbc256658	-0.010095201
205	0xbd5fdc9e	-0.054653756
206	0xbd19a312	-0.03750903
207	0x3d35a634	0.044347957
208	0x3d146ca4	0.03623642
209	0x3d393896	0.04521998
210	0xbc6ece00	-0.014575481
211	0x3d2f1ed4	0.04275401
212	0x3c3737a0	0.011182696
213	0x3d2b4a74	0.04181905
214	0xbd44265a	-0.047888137
215	0x3cfdff24	0.03100545
216	0xbc26c520	-0.010178834
217	0xbb7af640	-0.003829375
218	0xbcbf1298	-0.023324296
219	0x3d4110b2	0.047135063
220	0xbb9e19e0	-0.004824862
221	0x3d7e4dd6	0.06208595
222	0xbd2ab1dc	-0.041673526
223	0xbcf2b124	-0.029625483
224	0x3cb14dd0	0.02164355
225	0x3d5e07fc	0.054206833
226	0xbc0e1908	-0.00867296
227	0xbc867108	-0.01641132
228	0xbd733b2c	-0.059382603
229	0xbd40445e	-0.0469402
230	0x3cdd0fdc	0.026985101
231	0xbcee678c	-0.02910211
232	0xbc921b14	-0.017835177
233	0x3d05b096	0.03263911
234	0x3d769daa	0.060208954
235	0x3cc3a9f0	0.023884743
236	0x3d28cae8	0.04120913
237	0x3d70f2f4	0.05882545
238	0x3b44b320	0.0030013993
239	0xbc7f9280	-0.015598893
240	0x3d1a3ff6	0.037658654
241	0xbd537f5e	-0.05163514
242	0x3cf9013c	0.030396096
243	0xbcf7bdf0	-0.030241936
244	0x3d4328fe	0.047646515
245	0xbd0c4986	-0.034249805
246	0x3cd333b8	0.025781497
247	0xbc2b2648	-0.010446139
248	0xbd7cd2de	-0.061724536
249	0xbd3144c0	-0.043278456
250	0xbcefda1c	-0.029278807
251	0x3d7588da	0.059944965
252	0xbd77a2b4	-0.0604579
253	0xbc983574	-0.018580176
254	0xbcdf77f4	-0.027278878
255	0xbd7d0b06	-0.06177809

actor_body.2.bias f4 [128]
0	0x3d58af44	0.05290152
1	0xbd161a04	-0.036645904
2	0xbd26a1d0	-0.04068166
3	0xbd2b4360	-0.0418123
4	0x3cd4c5bc	0.025973193
5	0x3ca3cbec	0.019994698
6	0xbbe74b40	-0.007058531
7	0xbc807254	-0.015679516
8	0xbd0fb6c6	-0.035086416
9	0x3d36daf4	0.044642404
10	0x3d684a5e	0.056711547
11	0xbb0f7f80	-0.0021896064
12	0xbcc1a930	-0.023640245
13	0xbd302112	-0.04300029
14	0x3d3240fa	0.043518998
15	0xbd1dd9c4	-0.038537756
16	0xbd6692a0	-0.056292176
17	0xbc733b58	-0.014845692
18	0x3d5f568e	0.054525904
19	0xbc905350	-0.017617851
20	0xbcbb96cc	-0.022899054
21	0xbc13ea78	-0.00902807
22	0xbca644fc	-0.020296566
23	0x3d739966	0.059472464
24	0x3d291bfe	0.04128646
25	0x3d1ca108	0.03823951
26	0xbc48f170	-0.012264594
27	0x3ce6e04c	0.028183125
28	0x3cd71ed8	0.026259825
29	0xbc99d4e4	-0.018778272
30	0x3cdd2ab0	0.026997894
31	0xbc8c03a0	-0.017091572
32	0xbd5055e6	-0.05086317
33	0x3d7ee31e	0.062228315
34	0x3cd520a8	0.026016548
35	0x3ce62d38	0.028097734
36	0xbd262afe	-0.040568344
37	0xbcefa64c	-0.029254101
38	0xbd6f20e4	-0.058380976
39	0xbd5b093c	-0.053475603
40	0xbd75bd0e	-0.05999475
41	0x3d53ad16	0.05167874
42	0x3c3e0080	0.011596799
43	0x3cfe4dd0	0.031042963
44	0xbcde7d6c	-0.027159415
45	0xbd61f99a	-0.05516968
46	0x3c40a5d0	0.011758283
47	0x3aad1880	0.0013206154
48	0x3d3b2640	0.045690775
49	0x3d07e68c	0.03317885
50	0x3bc767a0	0.006085351
51	0x3d7c0506	0.06152823
52	0xbb5c9220	-0.0033656433
53	0xbd70a916	-0.058755003
54	0xbbeb6500	-0.007183671
55	0xbd421810	-0.04738623
56	0xbcdfa9e8	-0.027302697
57	0x3cdee2ec	0.027207814
58	0x3d289bf2	0.041164346
59	0x3d4205d8	0.047368854
60	0xbcd48c9c	-0.025945954
61	0x3d676424	0.056491986
62	0x3c2af020	0.010433227
63	0xbd4b5abc	-0.049647078
64	0xbcc87ad8	-0.024472639
65	0x3d707354	0.058703735
66	0x3d5a5a60	0.053308845
67	0x3bce6a10	0.0062992647
68	0x3c754578	0.014970176
69	0xbc88219c	-0.016617589
70	0xbcbb400c	-0.022857688
71	0xbd74809a	-0.059692957
72	0x3c15c3b8	0.009140901
73	0x3d327130	0.043564975
74	0xbd267ba4	-0.040645257
75	0xbd08205c	-0.033233985
76	0x3d6df734	0.05809708
77	0x3cd9efb8	0.026603565
78	0xbcb4bd0c	-0.0220628
79	0x3cde2944	0.027119286
80	0xbce37e4c	-0.027770184
81	0xbcb7ae64	-0.022422023
82	0x3d662644	0.056188837
83	0x3cc25a9c	0.023724847
84	0xb9e6b600	-0.0004400462
85	0x3d4c19e0	0.049829364
86	0xbd44b81e	-0.04802715
87	0x3d67047c	0.05640076
88	0x3b844cb0	0.004037462
89	0xbce52aac	-0.02797445
90	0x3cee7280	0.029107332
91	0xbcab0ee4	-0.020881124
92	0xbd0664e2	-0.032811053
93	0xbbfd32a0	-0.0077269822
94	0xbd792194	-0.06082304
95	0x3cb87d18	0.022520587
96	0xbcb876fc	-0.022517674
97	0xbcd1f90c	-0.02563145
98	0xbcdf2fec	-0.02724453
99	0x3c3d94a8	0.011571087
100	0xbca72470	-0.020403117
101	0x3cd59f68	0.026076987
102	0x3d74edb6	0.05979701
103	0x3ce61354	0.028085388
104	0xbd7b6260	-0.061373115
105	0xbd7fdfa0	-0.062469125
106	0xbbe35770	-0.0069379136
107	0x3d689270	0.05678028
108	0x3c773330	0.015087888
109	0xbd0d1f34	-0.034453586
110	0xbd720c0e	-0.059093527
111	0xbb1e79e0	-0.002418153
112	0x3cc67474	0.024225451
113	0x3d279284	0.040911213
114	0x3d6c21ee	0.057649545
115	0x3d1f313a	0.038865305
116	0x3ce85ae4	0.028363653
117	0x3d13a206	0.03604319
118	0xbc0ef300	-0.008724928
119	0x3b910f30	0.0044268593
120	0x3d287e7e	0.041136257
121	0x3d5ff6b6	0.05467864
122	0xbd2f115e	-0.042741172
123	0xbd56bc86	-0.052425884
124	0xbd36d28e	-0.044634394
125	0x3d71001c	0.058837995
126	0xbd149a18	-0.036279768
127	0xbd167180	-0.036729336

actor_output.weight f4 [27, 128]
0	0xbd0d848f	-0.034550246
1	0xbd21d2a0	-0.03950751
2	0xbc1c09f7	-0.00952386
3	0x3c3fc661	0.011705012
4	0xbcaff8c7	-0.021480931
5	0x3d158d8b	0.03651194
6	0xbca860d5	-0.020553986
7	0x3d942e99	0.0723545
8	0xbc9a8e67	-0.01886673
9	0xbca59d1b	-0.020216515
10	0xbcb0835f	-0.021547018
11	0xbdaf3427	-0.08554869
12	0xbdaf1830	-0.08549535
13	0xbd021cce	-0.03176575
14	0x3c2ab0e6	0.010418152
15	0x3b1b4169	0.002369011
16	0xbaae2112	-0.0013285002
17	0xbcad2491	-0.0211356
18	0x3c61414f	0.013748481
19	0xbd922f1d	-0.071378924
20	0x3c23d7a1	0.01000014
21	0x3cd8b0dc	0.02645152
22	0x39140cec	0.00014119194
23	0xbd8810ce	-0.0664383
24	0x3d0b5159	0.034013126
25	0xbd919a3a	-0.071094945
26	0xbb9ae05c	-0.0047264528
27	0xbd257ead	-0.04040401
28	0x3d86d6e0	0.06583953
29	0x3cb8eb08	0.02257301
30	0x3b850150	0.0040589944
31	0x3c2f6443	0.010705057
32	0xbd18549e	-0.037190072
33	0xbdb3bef5	-0.087766565
34	0x3d1fdb24	0.03902735
35	0x3cd775f4	0.026301362
36	0xbd1e50fc	-0.03865145
37	0xbc537221	-0.012905628
38	0xbd486f75	-0.04893442
39	0x3cb5ae2b	0.022177776
40	0xbd93ba2d	-0.072132446
41	0x3d91a0a8	0.07110721
42	0xbd8bbe24	-0.06823376
43	0x3d74bf87	0.059752967
44	0x3d3159e1	0.043298606
45	0xbd407df9	-0.046995137
46	0xbd9237c6	-0.07139544
47	0xbd023375	-0.031787354
48	0xbd8e6b4f	-0.06954061
49	0xbdb4ed36	-0.08834307
50	0x3d853fb0	0.06506288
51	0xbccbd645	-0.024882445
52	0x3d7f2593	0.062291693
53	0x3d20df80	0.039275646
54	0xbd862adb	-0.06551143
55	0x3c146982	0.009058358
56	0xbd8daa7f	-0.06917285
57	0xbbf8c713	-0.007592091
58	0xbdb1dddf	-0.08684897
59	0xbd3aaa66	-0.04557266
60	0x3c9ad65f	0.018901048
61	0x3d694ea0	0.05695975
62	0x3cebe378	0.028794989
63	0x3c417f2c	0.011810105
64	0xbcfd6b7a	-0.030935038
65	0xba44ec78	-0.0007512043
66	0x3d6d6971	0.057961885
67	0xbd9305e0	-0.07178855
68	0xbc22383f	-0.009901105
69	0x3d9c3354	0.076269776
70	0x3d7b52e5	0.06135835
71	0x3c7561bb	0.014976914
72	0x3cf5d804	0.03001023
73	0xbd90e267	-0.07074433
74	0x3cc060dc	0.023483686
75	0xbc49425d	-0.012283889
76	0x3a17e5ec	0.0005794454
77	0xbd187f63	-0.03723086
78	0x3d350bcd	0.044200707
79	0x3d13d8ee	0.036095552
80	0xbd870aee	-0.065938815
81	0x3d20a349	0.03921822
82	0x3d2f6bc7	0.042827394
83	0x3c9eadd9	0.019370006
84	0x3da3c12e	0.079958305
85	0x3c9548c2	0.01822317
86	0xbd268e81	-0.040663246
87	0xbd9d529d	-0.07681773
88	0x3d7bdeae	0.06149166
89	0xbda6c60a	-0.08143242
90	0x3d119a8c	0.035547778
91	0x3c9d4a70	0.019200534
92	0x3cbca786	0.0230291
93	0xbcaec086	-0.021332037
94	0xbda7a681	-0.08186055
95	0x3d08269e	0.033239953
96	0x3c8efe4c	0.017455243
97	0xbd340b98	-0.04395637
98	0xbd64a7ca	-0.05582408
99	0xbc33bdea	-0.010970572
100	0x3be761b7	0.007061209
101	0xbd92f217	-0.07175081
102	0xbd6fef59	-0.05857787
103	0xbd21efea	-0.03953544
104	0xbc6391d2	-0.013889747
105	0xbccf7cc1	-0.025328042
106	0xbd231fe4	-0.039825335
107	0x3a71bf66	0.0009221941
108	0x3bcba7de	0.0062150797
109	0x3da296c0	0.079389095
110	0xbd5df210	-0.054185927
111	0x3c9f1e1f	0.019423543
112	0xbd93507c	-0.071930856
113	0x3ccba361	0.024858179
114	0xbd8daa4d	-0.06917248
115	0xbd837e51	-0.06420577
116	0x3c1df03c	0.009639796
117	0x3cd046ae	0.025424328
118	0xbcfd7659	-0.030940222
119	0xbc840765	-0.016116807
120	0x3d433024	0.047653332
121	0x3d4c50f4	0.04988189
122	0xbda18ad4	-0.078878075
123	0x3ceda525	0.029009411
124	0x3d7eb207	0.0621815
125	0x3be91469	0.007113029
126	0xbd0b55bf	-0.03401732
127	0x3d04d072	0.03242535
128	0x3d3f87d0	0.04676038
129	0xbcaf4313	-0.021394288
130	0xbd166ca6	-0.03672471
131	0x3da8d815	0.082443394
132	0x3cd3f519	0.025873708
133	0x3da7472a	0.0816787
134	0xbd8fccda	-0.07021494
135	0xbda8fe2c	-0.082516044
136	0xbb7a0a4f	-0.0038153117
137	0xbd864084	-0.06555274
138	0xbc0fa215	-0.008766671
139	0x3cb96f3d	0.02263605
140	0x3daff5ca	0.085918024
141	0xbcbf307f	-0.023338554
142	0xbd9a67dd	-0.075393416
143	0xbd8d6d63	-0.069056295
144	0x3d85a5dc	0.06525776
145	0xbdb17c5b	-0.08666297
146	0xbda4245f	-0.0801475
147	0x3d95459d	0.07288668
148	0xbc547e90	-0.012969628
149	0xbd129c2d	-0.035793472
150	0x3d3d4ef7	0.046217885
151	0x3c40bf26	0.011764323
152	0xbd96ed55	-0.07369486
153	0x3da3ec3d	0.08004043
154	0x3d902f17	0.07040232
155	0x3d913912	0.070909634
156	0x3d982c5d	0.074303366
157	0x3c4fe46f	0.01268874
158	0x3cb136a5	0.021632502
159	0xbd846048	-0.06463677
160	0xbd441de2	-0.04788006
161	0x3c30ab36	0.010783007
162	0xbd3af031	-0.04563922
163	0xbb1bbf47	-0.0023765133
164	0x3c3414fa	0.010991329
165	0xbd39ef34	-0.045394138
166	0xbca2b683	-0.019862419
167	0xbd208de2	-0.03919781
168	0x3bd2535a	0.0064186277
169	0xbcf2ae5b	-0.029624155
170	0x3d13e4df	0.03610694
171	0xbc80a79e	-0.015704926
172	0xbceffc05	-0.029294977
173	0x3cbcb518	0.023035571
174	0xbd26d041	-0.04072595
175	0x3d38cd7d	0.045117844
176	0xbd35ccb5	-0.044384677
177	0xbc23d6bf	-0.00999993
178	0xbd7485eb	-0.059698027
179	0x3da0c141	0.0784936
180	0x3d88ece8	0.06685811
181	0x3c8da711	0.017291578
182	0xbca7232f	-0.020402519
183	0xbd94dc70	-0.072686076
184	0xbb8cf1cd	-0.004301286
185	0xbbff13b8	-0.007784333
186	0xbd326bb7	-0.043559756
187	0xbdaae97f	-0.08345317
188	0xbd659fd2	-0.05606062
189	0xbc7afa05	-0.015318398
190	0x3cbe6a7b	0.023244133
191	0xbd8c5e96	-0.06853978
192	0x3cdc2765	0.026874254
193	0x3d581cbe	0.052761786
194	0xbd87d48b	-0.06632336
195	0xbd573182	-0.05253745
196	0xbb0c170b	-0.002137604
197	0xbd2ea123	-0.04263414
198	0x3b1f2aad	0.0024286911
199	0xbd6eaa42	-0.05826784
200	0xbd824510	-0.06360829
201	0xbda37268	-0.07980806
202	0xbcee66df	-0.029101787
203	0xbd25feaa	-0.04052607
204	0xbd1a3392	-0.037646838
205	0xbbea4e47	-0.0071504447
206	0x3d399246	0.045305513
207	0x3d9c72c7	0.076390795
208	0x3d801d34	0.0625557
209	0xbd7c0420	-0.06152737
210	0x3c9d6ebe	0.019217845
211	0xbd607a4a	-0.054804124
212	0x3da75287	0.08170038
213	0x3d6a0d66	0.057141684
214	0x3ca0f240	0.019646764
215	0x3cba394b	0.022732398
216	0x3da2fa0c	0.07957849
217	0xbccfd11f	-0.025368271
218	0x3d11e474	0.03561826
219	0xbce80657	-0.028323336
220	0x3c27d478	0.010243528
221	0xbd9f6797	-0.0778343
222	0xbd696e52	-0.056989975
223	0xbdaad506	-0.08341412
224	0xbda367ae	-0.0797876
225	0xbd55deb1	-0.05221433
226	0x3d76d26e	0.060259275
227	0xbd75eda6	-0.060041092
228	0x3be0add5	0.00685666
229	0x3d4b121a	0.04957781
230	0x3cc24c4c	0.023718022
231	0x3c31a587	0.010842687
232	0x3d976cfc	0.07393834
233	0xbda540cd	-0.080690004
234	0x3d3b2da5	0.045697827
235	0x3d2d1cfd	0.042263974
236	0xbc211b27	-0.009833134
237	0xbdae5fc6	-0.08514361
238	0x3d935e87	0.07195764
239	0xbd1bae92	-0.03800828
240	0x3d84189a	0.06450005
241	0x3db1212d	0.08648906
242	0x3da30164	0.079592496
243	0xbd109fa8	-0.03530851
244	0xbb867064	-0.0041027535
245	0x3d0c0680	0.034185886
246	0xb8592b90	-5.1777402e-05
247	0xbcc747f1	-0.024326297
248	0x3d8e5fe7	0.06951886
249	0xbd49fe7f	-0.049314972
250	0xbcba601e	-0.02275091
251	0xbd2c54d5	-0.04207309
252	0x3da66841	0.081253536
253	0x3da310bc	0.07962176
254	0x3d2e856a	0.042607702
255	0x3ca46f0a	0.020072479

actor_output.bias f4 [27]
0	0xbd0b7d66	-0.034055136
1	0x3db0af99	0.086272426
2	0x3c99ccb3	0.018774366
3	0x3bf6a17a	0.0075265737
4	0x3c408a29	0.01175169
5	0x3d05daa0	0.0326792
6	0x3c97153d	0.018442744
7	0xbc7fadbc	-0.015605386
8	0x3d96f5ee	0.07371126
9	0xbd7f8c59	-0.062389705
10	0xbd9647c6	-0.073379084
11	0xbd68d08d	-0.056839515
12	0x3da6d2a3	0.081456445
13	0x3d64e36b	0.055880945
14	0xbd9ed731	-0.07755888
15	0xbd414c92	-0.047192164
16	0x3d0b188a	0.03395895
17	0xbd43454a	-0.0476735
18	0x3d540c60	0.051769614
19	0x3da49699	0.08036537
20	0xbd87e207	-0.06634908
21	0x3db381dc	0.08765003
22	0xbd4a9a4e	-0.049463563
23	0x3d024f63	0.03181399
24	0x3da9bcd5	0.0828797
25	0x3d8f1c16	0.06987779
26	0xbda830ef	-0.08212458

critic_body.0.weight f4 [256, 18]
0	0x3e132265	0.14368589
1	0x3d5674fe	0.052357666
2	0x3e18c42d	0.14918585
3	0xbe05ff45	-0.13085659
4	0xbde25fbe	-0.110534176
5	0x3db7a321	0.08966661
6	0x3d846c73	0.064659975
7	0xbe547d6a	-0.20750967
8	0x3e0210f0	0.12701774
9	0x3d09deba	0.033659674
10	0xbdb967a9	-0.09052975
11	0x3e03e45c	0.12880081
12	0x3da43feb	0.08020004
13	0x3e095bdc	0.13413948
14	0xba95f198	-0.0011439798
15	0x3e0962fb	0.13416664
16	0x3d9b2ad8	0.07576531
17	0x3d560df5	0.052259404
18	0x3e3d013c	0.18457502
19	0x3e6ab5a5	0.22920854
20	0xbd6c29f2	-0.05765719
21	0xbdf35dd4	-0.11883131
22	0xbe3305dd	-0.17482705
23	0x3e0d2831	0.13784863
24	0xbdeeb60c	-0.116558164
25	0x3e180fed	0.14849825
26	0xbdbc2b03	-0.09187891
27	0xbd9ee0b9	-0.07757706
28	0x3e3c8e06	0.18413553
29	0xbe1833a4	-0.1486345
30	0x3e28ce54	0.16484958
31	0x3e029c7e	0.1275501
32	0xbd9e1303	-0.0771847
33	0x3e515339	0.20441903
34	0xbcf145d8	-0.02945225
35	0xbc1d92a0	-0.009617478
36	0x3d4fc38d	0.0507236
37	0x3e10287a	0.1407794
38	0xbe163a2d	-0.1467063
39	0x3cf85a5a	0.03031652
40	0xbe56339c	-0.20918125
41	0xbe71d164	-0.23615032
42	0xbe703206	-0.23456582
43	0x3e6a319f	0.22870491
44	0x3e0612c1	0.13093092
45	0xbdc48b9b	-0.0959694
46	0x3e3f8d84	0.18706328
47	0x3dde4411	0.108528264
48	0xbe21e8f8	-0.15811527
49	0x3beddefc	0.007259248
50	0x3dd4f24c	0.10397777
51	0xbcf3f001	-0.029777529
52	0x3e187aac	0.14890546
53	0xbcfa2657	-0.03053586
54	0x3e76a022	0.24084523
55	0x3de4889e	0.1115887
56	0xbe2ec717	-0.17068134
57	0x3df9ffe8	0.12207013
58	0xbe065628	-0.13118804
59	0x3dc11716	0.094282314
60	0x3d17d1be	0.03706526
61	0xbdcc650f	-0.09980213
62	0x3bfcd5d5	0.0077159205
63	0x3e017ff7	0.12646471
64	0xbcd9e6fa	-0.026599396
65	0x3dedde3d	0.11614654
66	0x3e41b043	0.18914895
67	0xbe4cee34	-0.20012742
68	0x3e467f36	0.19384465
69	0xbbd218a8	-0.0064116307
70	0xbdee4e1b	-0.11635991
71	0xbe1159a6	-0.14194354
72	0x3d1fed4d	0.039044667
73	0xbe5b4195	-0.21411736
74	0x3e0cc628	0.13747466
75	0x3cd48a31	0.025944801
76	0xbe038ace	-0.12845919
77	0xbd234155	-0.039857227
78	0xbd89b91f	-0.06724762
79	0x3d69a778	0.057044476
80	0xbe351588	-0.17683995
81	0x3e4c9813	0.19979887
82	0x3de484f5	0.11158172
83	0x3dd68a34	0.10475579
84	0xbe33b5f4	-0.17549878
85	0x3e378beb	0.17924468
86	0xbe4a5740	-0.19759846
87	0x3dec83ba	0.11548562
88	0x3dcd4c11	0.10024274
89	0x3df2af26	0.11849813
90	0x3d15ad8d	0.036542464
91	0xbdc75305	-0.097326316
92	0xbe66e805	-0.22549446
93	0xbc5b9c62	-0.013403984
94	0x3d94f9dd	0.0727422
95	0xbe267bfc	-0.16258234
96	0x3e3cfac0	0.18455029
97	0x3e597e9b	0.21239702
98	0x3dc0b051	0.0940863
99	0xbcf092d1	-0.029366883
100	0x3e39f586	0.18160066
101	0xbd966fcf	-0.073455445
102	0x3e3c5a3b	0.18393795
103	0x3dc5f6fc	0.09666249
104	0xbdede5b8	-0.11616081
105	0x3d12e777	0.035865273
106	0x3dee907a	0.116486505
107	0x3cab8133	0.02093563
108	0xbdec1754	-0.11527887
109	0xbd6c086f	-0.05762523
110	0xbe5df9ff	-0.21677397
111	0x3bca9413	0.0061822026
112	0xbdb65ff0	-0.089050174
113	0x3e131a9a	0.14365616
114	0x3dd3f54a	0.103495196
115	0xbd16a426	-0.036777638
116	0xbe1b05cd	-0.15138932
117	0xbe0dfb09	-0.13865294
118	0xbd8384de	-0.06421827
119	0xbd8bcfd0	-0.068267465
120	0x3d393594	0.04521711
121	0xbd909096	-0.070588276
122	0xbd3b6086	-0.04574635
123	0x3e68bed4	0.22729045
124	0x3d26fd97	0.040769186
125	0x3dc6af86	0.09701447
126	0x3d8b0bc8	0.067893565
127	0xbdbcbff6	-0.09216301
128	0x3dcbf96e	0.09959684
129	0xbd5fec4b	-0.054668706
130	0x3e34cdc2	0.17656615
131	0x3e0604cb	0.13087766
132	0xbd7e3e87	-0.06207135
133	0x3e4d44e0	0.20045805
134	0xbde583cf	-0.11206781
135	0xbd5d89a6	-0.05408635
136	0x3e4cd14c	0.20001715
137	0x3e2472b4	0.16059381
138	0x3e02fce1	0.12791778
139	0xbbe15b88	-0.0068773665
140	0x3c9e48b2	0.019321773
141	0x3e519bb7	0.20469557
142	0x3df4b27b	0.11948105
143	0x3e0b4c7e	0.13603398
144	0x3de1d980	0.11027813
145	0xbe3bf898	-0.1835655
146	0xbd7e5e3a	-0.06210158
147	0xbd351e01	-0.044218067
148	0xbe3e1926	-0.18564281
149	0xbcfb6215	-0.030686418
150	0x3d06edf3	0.03294177
151	0x3df2368a	0.11826809
152	0x3dc36368	0.095404446
153	0xbd18e446	-0.037327074
154	0xbda775ee	-0.0817679
155	0x3e124b08	0.14286435
156	0x3e4e014a	0.20117679
157	0x3e48c1db	0.196052
158	0x3d6a16a4	0.057150498
159	0xbdc9ecc6	-0.09859614
160	0xbc109769	-0.0088251615
161	0x3e271c76	0.1631945
162	0x3d74a774	0.05973001
163	0xbe263fe8	-0.16235316
164	0xbe1a39cc	-0.1506111
165	0xbde0db0e	-0.10979281
166	0xbe42b2d1	-0.19013526
167	0x3da7a365	0.08185462
168	0xbd7566da	-0.05991254
169	0xbce6115f	-0.028084455
170	0xbdf00f69	-0.11721689
171	0xbe6d7373	-0.23188572
172	0x3e5c5567	0.21516953
173	0xbd099799	-0.03359184
174	0x3e6043c8	0.21900856
175	0xbc96fc85	-0.018430958
176	0x3d7ef397	0.062244024
177	0x3e143e9e	0.14477012
178	0x3e5aaccf	0.21354984
179	0xbe09f45e	-0.13472125
180	0xbe790042	-0.24316505
181	0xbe4a2f49	-0.197446
182	0x3ce5c9d3	0.028050339
183	0x3d9da994	0.0769836
184	0x3e237a2a	0.1596457
185	0xbe3ff850	-0.18747067
186	0xbdf3a7aa	-0.11897214
187	0xbe3e61f8	-0.1859206
188	0xbe7052b7	-0.23469053
189	0xbdc1b622	-0.09458567
190	0xbd94dcd9	-0.07268686
191	0xbe37cff0	-0.17950416
192	0x3d0488bc	0.032356963
193	0xbe3e6a18	-0.18595159
194	0xbd089de5	-0.033353705
195	0xbad42e2c	-0.0016188077
196	0xbe063b91	-0.1310866
197	0x3e17d3f3	0.14826946
198	0xbe67086a	-0.22561803
199	0xbe0866c1	-0.13320448
200	0xbdc02c9d	-0.09383509
201	0x3d863138	0.065523565
202	0xbe79c57c	-0.2439174
203	0x3d37d81f	0.044883844
204	0xbdab8aa9	-0.08376057
205	0x3e291679	0.16512479
206	0xbddba04b	-0.10723933
207	0xbe5aee02	-0.21379855
208	0x3d3cd1b7	0.046098437
209	0x3e45fe4f	0.19335292
210	0xbe203e65	-0.15648802
211	0xbe66196f	-0.2247064
212	0x3deffa4b	0.117176615
213	0xbe113d3f	-0.1418352
214	0x3ddd2a18	0.10799044
215	0x3e3c94a5	0.18416078
216	0xbde99e65	-0.114071645
217	0x3e36b883	0.17843823
218	0xbe4a824a	-0.19776264
219	0x3e04daf1	0.12974145
220	0x3e211375	0.15730079
221	0xbd5dba47	-0.054132726
222	0xbe3c83cc	-0.18409652
223	0x3d9ef31d	0.07761214
224	0x3e3506a9	0.17678322
225	0x3c43f4e6	0.011960244
226	0x3d4ba996	0.049722277
227	0xbe8160ed	-0.2526926
228	0xbe1f0422	-0.1552892
229	0x3e119ea3	0.14220671
230	0x3d3d1352	0.046161003
231	0x3e17901e	0.1480107
232	0x3e2da07e	0.16955754
233	0xbe33f51a	-0.17573968
234	0xbdd604ed	-0.10450158
235	0xbe7825ca	-0.24233165
236	0x3d59e81d	0.053199876
237	0xbe29e2a1	-0.16590358
238	0x3dee0c6f	0.11623465
239	0xbdc78c84	-0.09743598
240	0xbe3cbce6	-0.18431434
241	0xbe562183	-0.20911221
242	0xbe642a93	-0.22281866
243	0xbe1128b3	-0.14175682
244	0x3e331342	0.17487815
245	0xbe0a4441	-0.135026
246	0x3dde3d58	0.10851544
247	0xbda8bbe9	-0.08238966
248	0x3d95f154	0.0732142
249	0xbbc78402	-0.0060887346
250	0xbd314068	-0.043274313
251	0x3e3b46ba	0.18288699
252	0x3e011854	0.12606937
253	0xbd0d1eb3	-0.034453105
254	0x3e5d0a8f	0.21586059
255	0xbe09489a	-0.13406602

critic_body.0.bias f4 [256]
0	0xbcf01e16	-0.029311221
1	0x3dbda5e0	0.09260154
2	0x3b753bac	0.00374196
3	0xbd90f67f	-0.070782654
4	0xbe49b5a7	-0.19698201
5	0xbe5776ac	-0.21041363
6	0x3d7686e4	0.060187235
7	0xbe38e7e3	-0.18057208
8	0x3e3c6f60	0.18401861
9	0x3e40864e	0.18801233
10	0xbd943512	-0.07236685
11	0xbe221c8d	-0.15831204
12	0x3e6a3fde	0.22875926
13	0x3d02c55f	0.03192651
14	0xbc83c3a4	-0.0160845
15	0x3e47275f	0.19448613
16	0x3dbe070c	0.09278688
17	0x3ce724e9	0.028215842
18	0x3e0b9826	0.13632259
19	0x3c08c604	0.008347992
20	0xbc8f694e	-0.017506268
21	0xbd2928b0	-0.04129857
22	0xbd929593	-0.07157435
23	0xbe482bb8	-0.19547927
24	0x3dca22aa	0.09869893
25	0xbe653e45	-0.22387035
26	0xbd785015	-0.060623247
27	0xbda2a4f2	-0.07941617
28	0x3c2caa4b	0.010538648
29	0x3cebada3	0.02876932
30	0xbe1cd728	-0.1531645
31	0x3df6867e	0.12037371
32	0x3d815ca3	0.06316497
33	0xbe235501	-0.15950395
34	0xbd01e75a	-0.031714775
35	0xbc918f0d	-0.017768407
36	0x3c0d205c	0.008613672
37	0x3d951b42	0.0728059
38	0x3e36b5cf	0.17842792
39	0xbd64cd4f	-0.05585986
40	0xbc439fe9	-0.011939981
41	0x3e2ada66	0.16684875
42	0xbe34e235	-0.17664416
43	0xbcc70111	-0.0242925
44	0xbe289512	-0.16463116
45	0x3dd6024f	0.10449659
46	0x3d6fb0ef	0.058518346
47	0x3e728002	0.23681644
48	0x3e0ae42c	0.13563603
49	0x3ae1d362	0.0017229135
50	0xbe52bd0f	-0.20579933
51	0xbbb0902b	-0.00538828
52	0x3dd65c9e	0.10466884
53	0xbe199abd	-0.15000434
54	0x3dc4b789	0.09605319
55	0xbe5acdde	-0.21367595
56	0x3e37f0e1	0.17962982
57	0x3e1b0a8d	0.15140744
58	0x3e5ad234	0.21369249
59	0x3e403829	0.18771423
60	0xbc9b8574	-0.018984534
61	0x3c440dd9	0.011966192
62	0x3e41869f	0.1889901
63	0xbe6a7115	-0.228947
64	0x3e09aaee	0.13444111
65	0x3cbc29dc	0.022969179
66	0xbe28931c	-0.16462368
67	0xbe3e3b6a	-0.18577352
68	0xbda988e6	-0.082780644
69	0x3db5c7fd	0.08876035
70	0x3d36a534	0.044591144
71	0x3e15816d	0.14600153
72	0x3e38f36c	0.18061608
73	0x3e61d400	0.22053528
74	0x3ca6643c	0.020311467
75	0xbe464c58	-0.1936506
76	0x3dd4be72	0.10387887
77	0xbcf8d01f	-0.030372677
78	0x3d8d3450	0.068947434
79	0xbc335a94	-0.0109468885
80	0x3da7d9c1	0.0819583
81	0xbe516756	-0.20449576
82	0xbe57fde8	-0.21092951
83	0x3dc2e6c4	0.09516671
84	0x3db050e5	0.086091794
85	0xbe703996	-0.23459467
86	0xbd5ae581	-0.05344153
87	0x3e795aec	0.2435109
88	0x3e18d4a4	0.14924866
89	0x3e57c758	0.21072137
90	0xbdcc8e20	-0.09988046
91	0xbe13a565	-0.14418562
92	0x3e42dc29	0.19029297
93	0x3df77089	0.12082011
94	0x3e20eb71	0.15714814
95	0x3e0b7ca6	0.13621768
96	0x3dfe6a02	0.12422563
97	0x3d519563	0.051167857
98	0xbe606a83	-0.21915631
99	0xbe3fb406	-0.18721017
100	0xbd9e2398	-0.07721633
101	0xbe536eea	-0.20647779
102	0xbd2dbebd	-0.04241823
103	0x3e33b39c	0.17548984
104	0x3e4928c4	0.19644457
105	0x3d831397	0.06400221
106	0x3e120c11	0.14262415
107	0x3e3a4eb0	0.1819408
108	0x3e4af2e3	0.19819216
109	0xbe77b54d	-0.24190255
110	0xbe074141	-0.13208486
111	0x3e16fae7	0.14744149
112	0xbe3224ea	-0.17396894
113	0x3e56e380	0.20985222
114	0x3e017c1d	0.12645002
115	0xbe6e3f3c	-0.2326631
116	0x3e33bd08	0.17552578
117	0xbe5e491e	-0.2170758
118	0xbe38ee26	-0.18059596
119	0xbe2549e8	-0.16141474
120	0x3c39b29f	0.0113340905
121	0xbc02c7be	-0.007982193
122	0x3e1b3394	0.15156394
123	0xbe2ac317	-0.16675983
124	0x3e1dfe41	0.15429021
125	0xbcd0680f	-0.025440244
126	0x3e653118	0.22382009
127	0x3e4f215f	0.20227574
128	0x3da9c110	0.08288777
129	0xbe85156b	-0.25992903
130	0xbe20aa7e	-0.15690038
131	0x3e40b200	0.18817902
132	0xbdb2b961	-0.087267645
133	0x3e7c35d2	0.24629906
134	0x3e167df0	0.14696479
135	0x39c7893b	0.00038058482
136	0x3d6cf08b	0.057846587
137	0x3e21c055	0.15796025
138	0xbe606466	-0.21913299
139	0xb9ba9aad	-0.00035591927
140	0xbe21330b	-0.15742128
141	0xbe437c84	-0.19090468
142	0x3e58e91b	0.21182673
143	0x3d6e7033	0.05821247
144	0xbe21fe23	-0.15819602
145	0x3e6d9096	0.23199686
146	0x3e5906d2	0.21194008
147	0x3d94e6ae	0.07270561
148	0x3e44dbba	0.19224444
149	0xbd8235f5	-0.06357948
150	0xbaa40918	-0.0012514917
151	0x3e430703	0.19045644
152	0xbdc22af1	-0.09480847
153	0x3d92530e	0.07144748
154	0xbe428112	-0.18994549
155	0x3de72af1	0.11287487
156	0xbe2f93d5	-0.17146237
157	0xbdc8985b	-0.097946845
158	0x3e16c082	0.14721873
159	0xbba8d6f4	-0.0051525775
160	0x3cebf7bd	0.028804654
161	0xbde74dd7	-0.11294144
162	0x3c74b099	0.014934682
163	0xbc81c0fa	-0.015839089
164	0x3d3833fc	0.04497145
165	0xbde4aabf	-0.1116538
166	0x3e252fcf	0.16131519
167	0xbd9fa4ef	-0.077951305
168	0xbe58385b	-0.21115248
169	0x3e4ff20e	0.2030718
170	0xbe832e06	-0.2562105
171	0xbd801d0d	-0.06255541
172	0x3bb22d02	0.0054374943
173	0xbd8a9d72	-0.067683116
174	0x3d12762f	0.03575724
175	0xbe719735	-0.23592837
176	0x3e494b63	0.19657664
177	0x3dc1da85	0.094655074
178	0x3e1b35f9	0.15157308
179	0xbe52e5c2	-0.20595458
180	0x3db27a95	0.08714787
181	0xbd9f8ca3	-0.07790496
182	0xbe6d8ccb	-0.2319824
183	0x3d42e718	0.04758367
184	0xbd1e6f76	-0.038680516
185	0x3e1fdc0c	0.15611285
186	0xbe215818	-0.15756261
187	0xbd7c063f	-0.061529394
188	0x3cc47886	0.023983251
189	0xbe68a017	-0.2271732
190	0x3e06f037	0.13177572
191	0x3e402ab4	0.1876629
192	0xbdd4bfa9	-0.10388119
193	0x3e43a8ae	0.19107315
194	0xbc4d59c6	-0.012533611
195	0x3db1478c	0.086562246
196	0x3d6e1e9a	0.058134653
197	0xbe174b08	-0.14774716
198	0x3d9d78bd	0.076890446
199	0x3e3529b8	0.17691696
200	0xbd5ea7de	-0.05435931
201	0xbe28c3ba	-0.16480914
202	0xbe20eb7a	-0.15714827
203	0x3e530d1f	0.20610474
204	0xbe6cea9b	-0.2313637
205	0x3e0db20f	0.13837455
206	0x3e4cd926	0.2000471
207	0x3be5e5ef	0.0070159356
208	0xbc4c260a	-0.012460241
209	0xbd9aec8a	-0.075646475
210	0xbcbc7eb0	-0.023009628
211	0xbde70ee7	-0.11282139
212	0xbdab1fef	-0.083557
213	0xbe6dbfb6	-0.23217663
214	0x3e22e5bd	0.1590795
215	0x3e31271d	0.17300077
216	0x3d0cc6ad	0.03436916
217	0xbe0b6a80	-0.13614845
218	0x3dde13c8	0.10843617
219	0x3d4a4f59	0.049392078
220	0x3e48fda3	0.19628005
221	0x3e41dedd	0.18932672
222	0xbdccb283	-0.09994986
223	0xbe000895	-0.12503274
224	0x3e37013e	0.17871568
225	0x3e42a953	0.19009905
226	0x3e6b1fa8	0.22961295
227	0x3dbc0841	0.09181262
228	0x3ddbb45e	0.10727762
229	0xbe50e328	-0.20399153
230	0xbd085443	-0.033283483
231	0xbe467874	-0.19381887
232	0x3c2e3a8c	0.010634076
233	0xbe214289	-0.15748037
234	0xbe3aa63f	-0.1822748
235	0x3e56f368	0.2099129
236	0x3d8edda3	0.069758676
237	0x3e1d4b6b	0.15360801
238	0xbd8a883e	-0.067642674
239	0x3d9a790e	0.075426206
240	0x3e0f6e84	0.14007002
241	0xbd78bb4e	-0.060725503
242	0x3dbe8263	0.09302213
243	0xbdf3da49	-0.11906869
244	0x3de63be1	0.1124189
245	0x3ce53f74	0.027984358
246	0x3e728751	0.23684432
247	0xbe101a23	-0.1407247
248	0xbd574992	-0.052560396
249	0x3e7ba7a4	0.24575669
250	0x3e3d07eb	0.18460052
251	0x3daa75f1	0.08323277
252	0xbe3cb424	-0.18428093
253	0x3e3120da	0.17297688
254	0x3dbab663	0.09116819
255	0xbde0c58a	-0.109751776
