logs/model_checkpoint_1000.pth (torch, 336257 bytes, 11 tensors)

actor_body.0.weight f4 [256, 19]
000000 42 98 37 3e b6 76 ad 3d dc 42 8a bd ce 98 d9 3d
       0.17929175 0.08469908 -0.06751034 0.10624848
000010 60 38 1a be f2 ed db bc 2a 0d db bd 9c 63 20 3e
       -0.15060568 -0.02684686 -0.1069587 0.15662998
000020 ac 98 ca bd 67 9b 01 3e b5 90 5e 3e cc e0 4b 3d
       -0.09892401 0.12656938 0.21734889 0.04977493
000030 c4 09 8c bd d2 37 34 be 54 e5 51 3e e0 21 be bd
       -0.068378 -0.17599419 0.20497638 -0.09283805
000040 d0 60 a1 3d 14 64 39 3e f7 6b 4c 3d e5 ce 7e bd
       0.07879794 0.18104583 0.04990765 -0.06220903
000050 81 8f 35 3e 57 b1 57 be 34 cb 8f 3d 9d b3 59 3e
       0.17730524 -0.21063744 0.0702118 0.21259923
000060 21 fb 19 be bf c4 08 3e 0f f1 47 3d 20 93 b5 3c
       -0.15037204 0.13356303 0.048813876 0.022164881
000070 a7 22 10 3e 8a 62 c2 3d b4 29 e4 3c 92 71 31 3e
       0.14075719 0.09491451 0.027851917 0.1732848
000080 6c 2c 26 be 47 6b 42 be ff 84 78 bd 25 e2 b4 bd
       -0.16227883 -0.18986236 -0.06067371 -0.08832196
000090 a7 55 38 be 4a 09 22 3d 9d 49 a0 bd 52 e8 3a be
       -0.18001424 0.03955964 -0.078265406 -0.18252686
0000a0 06 0d c3 3c e2 db 30 bc b7 7d 3a 3e de 51 75 3d
       0.023809921 -0.010794612 0.18212019 0.059892528
0000b0 60 84 43 be b9 16 61 be 43 81 d9 bd cc 88 1d 3e
       -0.19093466 -0.21981324 -0.10620358 0.15384215
0000c0 c3 09 39 bd 7b 91 1e 3d 26 04 ad 3c c0 b7 fc bd
       -0.045175325 0.03871296 0.021120142 -0.12339735
0000d0 44 a5 30 be ad b5 f7 3d 56 64 f6 3d 8d 60 a7 3d
       -0.17250544 0.12095199 0.12030856 0.081727125
0000e0 aa 3f 6a 3e 97 fa 5e 3e 6b f3 b9 bd 0b 30 61 bb
       0.22875848 0.2177528 -0.090796314 -0.0034360911
0000f0 df 18 d0 bd 32 79 3d be 2b 6d 00 be bf 24 1c 3e
       -0.10160994 -0.18503264 -0.12541644 0.15248393
000100 f5 fb 43 bc 02 be 4f 3e 5a 29 1f 3d f8 53 88 3d
       -0.011961927 0.20287326 0.038857795 0.06656641
000110 90 a1 4a bd 91 3f 2c bd 73 07 d0 bd 39 f4 4f be
       -0.049470484 -0.04205281 -0.10157671 -0.20308007
000120 a0 1b 11 be 69 f6 53 3d 40 76 dc 3d 9a be b5 3d
       -0.14170694 0.051748667 0.10764742 0.08874245
000130 e6 2e ca bd 0d d5 07 3e 4a e8 0b be d7 45 5d bc
       -0.098722264 0.13264866 -0.1366283 -0.013505421
000140 fb 31 3a be b4 66 e1 bc 83 c8 9a bd fe 36 38 be
       -0.18183129 -0.027514793 -0.07557776 -0.17989728
000150 ce b6 56 3d 29 b5 1d be b5 26 83 bc e8 b1 f4 3c
       0.05242043 -0.15401138 -0.016009668 0.029869989
000160 29 4d 85 3d 8b 10 26 3e 24 ef 0e 3e 48 5b c3 3d
       0.06508858 0.16217248 0.13958412 0.09538895
000170 1f 04 04 be 92 cb 83 3d b7 c8 96 3d bd 9d 89 3d
       -0.12892197 0.06435312 0.07362502 0.06719539
000180 95 b6 ca 3d 10 7c f8 bd db 34 fd bd 0c 44 08 be
       0.09898106 -0.12133038 -0.12363597 -0.13307208
000190 0c 06 22 bd a1 f6 65 3d 04 7f 01 3e 85 9b 20 be
       -0.039556548 0.056143407 0.12646109 -0.15684326
0001a0 4e 6f 3c 3d 26 aa 62 3e 77 21 15 be df 04 19 3e
       0.046004586 0.22135219 -0.14563547 0.14943264
0001b0 9f 56 1c be de 81 2d bc 2a 85 38 be 92 55 cb bd
       -0.15267418 -0.010590045 -0.18019548 -0.099284306
0001c0 7e 73 5e be e0 71 2a be d5 bc cf 3d ca 06 a9 3d
       -0.21723744 -0.16645002 0.10143439 0.08253248
0001d0 87 95 5c be 1c 4b 19 bd f8 a8 d7 bd 06 24 66 3e
       -0.21541415 -0.037425146 -0.10530275 0.2247468
0001e0 e1 b7 63 3e 48 ed 46 3e 67 fc 0a 3d 79 d5 ed 3d
       0.22238113 0.19426453 0.033932116 0.11612982
0001f0 4f f1 01 3e e1 eb 44 be 25 f0 36 3e c5 e5 b9 3b
       0.12689708 -0.19230606 0.17865045 0.0056731426
000200 1d 71 2f 3e 5d 28 58 be 92 22 31 bd cd 31 56 3e
       0.17132993 -0.21109147 -0.04324586 0.20917435
000210 3f 63 92 3d 0b c1 87 3c e7 56 69 be eb 18 c8 bd
       0.07147836 0.016571542 -0.22787057 -0.09770378
000220 2c cb a3 bd df 16 00 be e1 b9 a6 bd e3 a5 35 be
       -0.07997736 -0.12508725 -0.08140922 -0.17739062
000230 f5 ea 4f 3e 5b 41 5c be 9a 4e 0f be 5a 67 c5 bc
       0.20304473 -0.21509306 -0.13994828 -0.024097133
000240 6d 52 43 be 1b 53 8b 3d 4c 07 dd bd 39 f1 67 3e
       -0.19074412 0.068029605 -0.107924074 0.22650613
000250 c8 14 f9 3c c9 c6 a6 bd 2c fc 89 3d 03 5b 4b be
       0.030405417 -0.08143384 0.06737551 -0.19858937
000260 e5 7c 50 be f9 bb 27 be 16 33 5f 3c 63 b1 40 be
       -0.20360143 -0.163803 0.01362302 -0.18817668
000270 ad a3 31 bd cd 12 08 3e 29 e9 86 ba 0b 06 50 3c
       -0.043368984 0.13288422 -0.0010292876 0.012696753
000280 7d ee 23 be 86 5f 3c be 1a 8c db bd c6 c2 51 be
       -0.16008945 -0.18395814 -0.107200816 -0.20484456
000290 ce 7b f7 3d e5 2d 39 bd fb 4b db bc 4d f9 34 be
       0.12084161 -0.045209784 -0.026769629 -0.17673226
0002a0 fe 0a 92 3d 09 23 2b bd 03 8b 8b 3c e1 49 15 bd
       0.07131003 -0.04178146 0.01703406 -0.03644741
0002b0 ed d7 d5 bc cc 23 32 3e 3c f1 98 3d ef 81 33 be
       -0.026103938 0.17396468 0.07467887 -0.17530034
0002c0 e6 df 9b bd 71 72 3d 3e 50 67 06 3c 5e af f6 bd
       -0.076110646 0.18500687 0.008203343 -0.120451674
0002d0 ac 5f 47 be b4 bc 11 be af 8e 0a be 7b 55 33 3e
       -0.1947009 -0.14232141 -0.13530992 0.17513077
0002e0 c1 29 33 be e0 3d 69 3e d6 5e b1 bd f2 c6 5a 3e
       -0.17496397 0.2277751 -0.08660667 0.21364954
0002f0 21 67 14 be 56 b0 c2 bb f5 8a 2f 3d 37 54 0c 3e
       -0.14492466 -0.005941431 0.04285713 0.13704
000300 f7 f2 64 3e f2 ec 7d bb 09 ca 68 3d 40 ef 48 be
       0.22358309 -0.0038745967 0.0568333 -0.19622517
000310 97 fe 54 3e c7 24 8d 3d 88 5a 9f 3c a9 c1 e7 bc
       0.20800243 0.0689178 0.019452348 -0.028290587
000320 c2 dd 34 3e a9 4d 18 3b 07 de 61 3d 13 c2 c4 bd
       0.17662719 0.0023239648 0.055143382 -0.09607329
000330 1a e5 58 3e ef 82 60 3e de c7 9a bd 31 eb f0 3d
       0.21181145 0.21924947 -0.07557653 0.11763609
000340 c0 bf 0a 3d a1 44 c0 bd ae 67 a4 3d d4 7d 4f be
       0.033874273 -0.0938809 0.08027588 -0.20262843
000350 e6 b3 e3 bc ca 7e e2 bd 54 b2 5b 3d d9 06 81 3d
       -0.027795743 -0.11059339 0.053636864 0.06300134
000360 75 72 cf bd 6d 31 c5 bd fb a8 af 3c 54 29 1a bd
       -0.10129253 -0.09628568 0.02144288 -0.03763707
000370 19 21 ea 3d 57 c8 30 be fa ca 26 3e ce 6b 3e 3e
       0.11432094 -0.17263924 0.16288367 0.18595812
000380 ed 0a 9d bd 1e f2 4c bd 07 79 4c be 23 66 ae bc
       -0.076680996 -0.05003559 -0.19968043 -0.021288937
000390 ae 38 ec 3d dd 8e 81 3b 29 47 8d 3d 7d 0d 27 be
       0.11534248 0.003953798 0.06898338 -0.16313739
0003a0 51 06 63 3e af 6b 0a be 08 28 66 be 03 58 4f be
       0.22170378 -0.1351764 -0.22476208 -0.20248418
0003b0 58 45 68 3d 28 3b 39 3e 97 4d ac 3c 7e 50 68 3e
       0.056706756 0.18088973 0.021033091 0.22686955
0003c0 78 92 33 bd a2 15 a2 bd 1c e5 3a bc 3f 54 75 bd
       -0.043840855 -0.079142824 -0.011407163 -0.059894796
0003d0 5f c2 1f 3e 99 0d 9a bc d8 55 46 be c3 38 43 be
       0.1560149 -0.018805312 -0.19368684 -0.19064622
0003e0 1d f2 50 3b 38 e0 02 3d 1b 2a 63 3e 15 5a 3c 3d
       0.0031882592 0.031952113 0.2218403 0.045984346
0003f0 ba 34 67 be 3a 1d e5 3c 9a f8 1e 3d ab de 23 be
       -0.22578707 0.027968038 0.038811304 -0.1600291

actor_body.0.bias f4 [256]
000000 4f 20 c3 bd 83 63 1c bd 92 94 60 3e 2e 8f 4a 3d
       -0.09527647 -0.03818084 0.21931675 0.049452953
000010 38 c5 64 be 07 2d 38 3e db 1c e4 bd 4e a2 81 3c
       -0.22340858 0.17985927 -0.11138316 0.015824463
000020 8c d9 2c be 15 11 aa 3c 25 c7 e0 bc 68 c7 88 bd
       -0.16879863 0.020760098 -0.02743871 -0.06678659
000030 75 af b6 bd ac 79 27 bb 55 86 13 3e 86 52 d3 bc
       -0.089201845 -0.00255547 0.14406712 -0.025796186
000040 b5 93 e8 bd fc 5a 50 3e 5d 6a 63 3e 2d c8 dd bd
       -0.11356298 0.20347208 0.22208543 -0.10829196
000050 a6 b5 15 3d c4 cf 15 3e c5 fb 9d 3d 46 2d 02 bd
       0.036550187 0.14630038 0.07714037 -0.031781457
000060 b9 3e 63 3e 3a 09 03 bd b4 e5 63 be 7f 28 be 3d
       0.22191896 -0.03199122 -0.22255594 0.09285068
000070 5f 8c 35 be 6e 32 c4 3d 6e 61 89 3c 02 a2 0e 3d
       -0.17729329 0.09579931 0.01677009 0.03482247
000080 27 6c a3 3d bc 05 dd bd ba cd 4a be 62 39 31 be
       0.07979613 -0.10792109 -0.19805041 -0.17307046
000090 ac e7 17 3e c3 06 f5 bd 09 c4 70 3d 4b b5 4b 3c
       0.1483447 -0.1196418 0.058780704 0.01243336
0000a0 99 96 26 be c0 2c 47 be c0 26 64 3e 08 ff be 3c
       -0.16268386 -0.19450665 0.22280407 0.023314968
0000b0 7c 61 3f 3e f2 37 a3 bd 05 de 87 3d 8b 36 70 bc
       0.18689531 -0.07969655 0.06634144 -0.014661442
0000c0 b0 65 03 be d4 98 45 be 45 87 ed bd 05 e3 2b 3e
       -0.1283176 -0.1929658 -0.11598066 0.1678582
0000d0 d9 f1 3d be 0e 9d 51 3d dd 9b 10 be 99 7c 54 3e
       -0.18549289 0.05117517 -0.14121957 0.20750655
0000e0 7a e9 08 bd b9 b6 03 3e 85 c5 01 bd 5e 09 5d be
       -0.033425786 0.12862672 -0.03168251 -0.21585605
0000f0 05 64 2f be 37 4d ae bd 85 88 09 3d aa b9 43 3e
       -0.17127998 -0.08510821 0.03357746 0.19113794
000100 66 32 b2 bc b3 fb 3a 3e 74 9d 45 3e 14 6a eb bc
       -0.021752547 0.18260078 0.19298345 -0.028737105
000110 a8 3e 19 be a5 af 48 3d de ca bd bd a5 07 b1 3d
       -0.14965308 0.048995633 -0.092672095 0.08644036
000120 b2 cd 24 bd ea db 7d 3d 00 5f f9 3c 2a 99 32 3e
       -0.04023523 0.061977305 0.030440807 0.1744124
000130 d0 f9 26 be 8e ea 99 bd 6c 26 26 3d 78 27 38 bd
       -0.16306233 -0.07515441 0.040563986 -0.044959515
000140 a4 ba 55 3e 91 d3 6a 3e 73 17 2b bd 1e df f4 bd
       0.20871979 0.22932269 -0.04177041 -0.11956619
000150 fe 9b d7 bc 48 b3 51 ba dc 04 0f 3e 39 a5 09 3c
       -0.0263195 -0.0007999432 0.13966697 0.008401209
000160 93 1c 10 be 6c a0 ea 3c be 48 31 3d ad 83 16 be
       -0.140734 0.028640948 0.043282263 -0.14698668
000170 c8 0a 48 3d fd 01 f5 bd 33 12 7d bc 58 e3 17 3e
       0.048838407 -0.1196327 -0.015446234 0.14832819
000180 91 f2 62 be c7 9e e3 bd 9c ac 5e 3e 58 4e 35 be
       -0.22162844 -0.11114269 0.21745533 -0.17705667
000190 6d 3d a1 3d db 1d 42 3c da 46 fb 3c 89 06 70 3d
       0.07873044 0.011847938 0.030673433 0.058599982
0001a0 63 cf 12 be a5 57 63 3d 43 67 90 3d 2f 2e b5 bd
       -0.14336924 0.055503506 0.070509456 -0.088466994
0001b0 9d a4 45 be 68 1c 32 3d d0 86 1c be 9e 4c 52 3d
       -0.19301076 0.04348412 -0.15285802 0.0513426
0001c0 94 f0 e2 bd 3d d1 54 be b4 71 71 3d cb 44 40 be
       -0.11081043 -0.20782943 0.058946326 -0.18776242
0001d0 a0 a0 83 3d 24 63 3e bd 24 f1 74 3d 98 f6 12 be
       0.06427121 -0.046481267 0.059800282 -0.1435188
0001e0 91 55 2e be e6 d7 ad ba 66 57 ac bb ed 69 ce 3d
       -0.17024828 -0.0013263195 -0.005259442 0.100787975
0001f0 0b a3 62 3e 45 7c 33 3d 97 f5 6b bd 16 c2 4e 3e
       0.22132508 0.043819685 -0.05760726 0.20191225
000200 3e 0a 66 bd fe dd 17 bd ab b6 4e be 75 31 0f be
       -0.05616211 -0.037076943 -0.2018687 -0.1398371
000210 94 6c 16 bd 11 07 65 be 3b 21 f6 bd 5d e5 e6 bd
       -0.036724642 -0.22365977 -0.12018057 -0.11274216
000220 d7 99 8a bd b8 16 3d 3c 5c a4 19 be 69 b9 8b bc
       -0.06767624 0.011541061 -0.15004104 -0.017056184
000230 7a f5 ee bd 00 b8 51 be ba aa 5c 3e 0b cb 62 3c
       -0.11667915 -0.20480347 0.21549502 0.0138423545
000240 7e 85 3d be a1 12 69 3e 4c d6 02 be 0b 10 b5 bd
       -0.18507954 0.22761013 -0.1277706 -0.088409506
000250 58 0d e2 bd 35 2f 10 3e 01 b2 66 3e f9 4d 5a 3e
       -0.11037701 0.14080508 0.2252884 0.21318807
000260 0d fd 65 bd 2b 9f f2 bd 10 1c c2 bd cb cd 33 be
       -0.05614953 -0.11846765 -0.09478009 -0.17558973
000270 b0 70 1b be b7 ec 57 3d 39 b7 e7 3d cf 8f 65 be
       -0.15179706 0.052715983 0.11314244 -0.2241814
000280 4c 09 2d 3e 5e 92 6c 3d 0f f7 27 be 78 81 52 3e
       0.16898078 0.057756774 -0.16402839 0.20557201
000290 15 ec b5 3d 46 c1 0d be f1 d6 52 3e 96 fc 29 be
       0.0888292 -0.13843259 0.20589806 -0.1660026
0002a0 41 fc cd 3d b2 3c 57 3d 90 9d 25 be b0 26 af bd
       0.10057879 0.052548118 -0.16173387 -0.08552301
0002b0 d5 da a1 bc 95 22 2a be 8f 6d 29 be 3a b5 4d be
       -0.019757668 -0.16614754 -0.165457 -0.20088664
0002c0 3e e5 28 be 7c cb 4f 3d 6e b0 08 3e 6f 35 e3 bd
       -0.16493699 0.050731167 0.13348553 -0.11094176
0002d0 13 38 56 3e 20 05 d0 bb 3a a0 1b be b9 3f ec bc
       0.20919828 -0.006348267 -0.1519784 -0.02883898
0002e0 20 a6 1d 3c 8f be c6 bc 58 a3 09 be 69 cc 09 be
       0.009622127 -0.024260787 -0.13441217 -0.13456883
0002f0 79 b9 40 3e 6c 6e 08 bd 23 6f 02 be 22 b3 0a be
       0.18820752 -0.03330843 -0.12737708 -0.13544896
000300 fe ea 23 3e 8e be 0e be 53 5f 9a bc 31 3c 50 3e
       0.16007611 -0.13939878 -0.018844282 0.20335461
000310 92 83 47 be 8a 19 42 be 67 6b 50 be ff 5d 52 3d
       -0.19483784 -0.18955055 -0.2035347 0.051359173
000320 fd 25 d2 bc b2 4a 00 3d 4e b6 5e be 55 d8 33 3e
       -0.02565288 0.031321235 -0.21749231 0.17562993
000330 03 1d be bd 66 bd 25 be 58 b0 5a 3e a3 78 82 3b
       -0.09282877 -0.16185531 0.21356332 0.003981666
000340 ae ba 3c 3e 40 cb 55 3d 51 04 33 3c 8b 23 dd bb
       0.18430588 0.052195787 0.010926322 -0.006748622
000350 18 0b a4 3d 8c d8 65 39 fa 0c 0b be eb e0 02 3e
       0.080099285 0.00021919812 -0.13579169 0.12781112
000360 0f 20 c7 3c 47 3f 9e bd 2f 59 4b b9 35 01 c4 3d
       0.024307279 -0.07726913 -0.00019392812 0.09570543
000370 c7 47 ed 3d 70 c8 53 3e 2e b7 d5 bd 74 01 06 3c
       0.11585956 0.2068193 -0.104353294 0.008179057
000380 85 ee 35 3d af 75 1e 3e 05 29 dc 3b 6a 5d de bd
       0.044416923 0.1547458 0.006718757 -0.10857661
000390 73 aa 30 be 07 04 55 3e 0d 0f df 3d ec 50 44 be
       -0.17252521 0.20802318 0.108915426 -0.19171494
0003a0 47 f1 2b be b6 52 21 be 11 de 02 3e 69 de 29 3d
       -0.16791259 -0.15754208 0.12780024 0.041471872
0003b0 16 1c 0d 3e 40 4e 20 3e 88 e7 1e be 81 c9 22 be
       0.13780245 0.1565485 -0.1551801 -0.1589718
0003c0 56 aa 27 3e 8e c5 1f be bb 37 ca bd 97 ea 35 3d
       0.16373572 -0.15602705 -0.09873911 0.044413175
0003d0 80 5c 99 3d a5 e0 05 3e 14 bf bf bd 00 66 71 bd
       0.07488346 0.13073976 -0.09362617 -0.058935165
0003e0 86 5f 30 3e 02 e3 6e bd e9 9a 07 3e c6 91 92 bd
       0.1722394 -0.05832196 0.13242687 -0.0715671
0003f0 d2 d0 13 3e 13 31 15 3d 51 2b 02 be 38 cc ba bc
       0.14435127 0.036423754 -0.12711836 -0.022802457

actor_body.2.weight f4 [128, 256]
000000 84 4d 9a bc 24 09 7c 3d 5a a1 15 3d 10 93 77 bd
       -0.01883579 0.061532155 0.03653083 -0.060442984
000010 00 63 54 bb 88 86 e5 bc 00 b0 91 39 a0 93 28 3d
       -0.0032407641 -0.028018251 0.00027787685 0.04115641
000020 78 34 5d 3d 98 4a b0 bc 10 6e 85 3c e4 e6 95 bc
       0.054005116 -0.021519944 0.016287833 -0.018298574
000030 10 f1 b8 3c 30 23 02 bc c0 1c c8 bc a4 be ad bc
       0.022575885 -0.00794296 -0.024427772 -0.021209069
000040 d4 17 ae bc 70 7e a4 3b ba a6 5b 3d d0 97 b3 3b
       -0.021251597 0.0050199553 0.0536258 0.005480744
000050 32 62 2d 3d 20 72 6a 3d cc d4 68 bd 40 04 33 bc
       0.042329974 0.057237744 -0.056843564 -0.010926306
000060 fc af be 3c 60 85 f6 bc 48 d9 4a bc 64 03 64 bd
       0.023277275 -0.030092895 -0.012380905 -0.055667296
000070 48 df 1c bd f2 da 3d bd 4e 9e 70 bd d0 0b 29 bc
       -0.038298875 -0.04635138 -0.05874472 -0.010317758
000080 84 31 e3 bc 14 5b 45 3d 7a 29 7c bd 02 f7 1e 3d
       -0.027733572 0.048182562 -0.061562993 0.038809784
000090 20 8c 02 3b 30 49 f0 bb 56 61 04 bd 78 35 2b bd
       0.0019919947 -0.0073329434 -0.03231939 -0.04179904
0000a0 ac c3 4f 3d 0a 58 2d 3d c8 b0 b9 3c 6a 7a 63 3d
       0.050723717 0.04232029 0.022667304 0.055536665
0000b0 00 eb d5 3b 44 6d 96 bc a4 bd c9 bc 00 02 9a bc
       0.0065282583 -0.018362649 -0.02462656 -0.018799782
0000c0 96 56 4f bd 5c 6b c9 bc 78 bd 68 3d 44 cc ec 3c
       -0.050619684 -0.024587326 0.056821316 0.028905995
0000d0 20 82 98 bc 96 49 5f 3d 68 eb 81 3c 90 f0 9c 3c
       -0.018616736 0.054513536 0.01585932 0.019157678
0000e0 2e 3c 72 3d b2 b3 5e bd 06 5c 00 bd 24 67 b7 bc
       0.059139423 -0.05437059 -0.03133776 -0.022388048
0000f0 96 5a 3f bd 0e bb 40 3d 38 90 9d 3c a0 98 ce bb
       -0.04671725 0.04705339 0.019233808 -0.0063048154
000100 fe 34 26 3d e8 2b fe bc a4 e8 e2 bc e8 31 7c 3d
       0.04057788 -0.031026796 -0.027698822 0.06157103
000110 00 94 81 b8 98 a1 77 3d 00 27 e7 39 78 b4 13 3d
       -6.1787665e-05 0.060456842 0.0004408881 0.03606078
000120 10 d3 30 bd 90 3e 62 bc 20 e4 2d 3b 00 db c6 bb
       -0.043170035 -0.013808861 0.0026533678 -0.0060685873
000130 30 ed 34 3c 80 d6 b4 3b 20 5f 03 3c 06 13 4c 3d
       0.011042878 0.0055187345 0.008018285 0.04982283
000140 f8 3b 84 bc 14 69 a4 bc 1e 3f 1e 3d e0 72 25 bc
       -0.016141877 -0.020069636 0.038634412 -0.010098189
000150 00 34 51 3a dc 38 eb bc 30 8b 6b 3d 4c 38 4d bd
       0.0007980466 -0.028713636 0.057505786 -0.050102517
000160 66 72 0e bd 52 27 42 bd c0 ec 43 3d 76 16 4d 3d
       -0.034777068 -0.04740078 0.047833204 0.05007025
000170 1a 9d 6c bd 38 4c d7 bc 9c dd 79 bd 08 13 d3 bc
       -0.05776701 -0.026281461 -0.06100236 -0.02576591
000180 3a 37 55 3d cc b6 20 3d 34 fa 7d 3d 44 69 35 bd
       0.05205462 0.03923683 0.06200619 -0.044289842
000190 20 9f 2a bb 44 72 6c bd d6 5b 1b bd 4c 5b 32 bd
       -0.0026034787 -0.05772616 -0.03792938 -0.0435441
0001a0 2c 67 1f bd 08 e6 8f 3c 60 94 72 3b 22 35 24 bd
       -0.03891675 0.017565742 0.0037014708 -0.040089734
0001b0 6c 12 30 3d 5e d2 6e 3d 3c 0a 79 bd cc e6 f9 bc
       0.04298632 0.05830609 -0.060800776 -0.03050556
0001c0 58 98 98 bc 88 aa ac bc 90 73 44 3c d0 13 af bc
       -0.01862733 -0.02107741 0.011990443 -0.021371752
0001d0 00 ca 9c 3b 90 72 9e 3c 64 5b 0c bd cc 48 87 3c
       0.0047848225 0.019341737 -0.034266844 0.016514204
0001e0 a0 2c 49 3c b0 e7 ca 3b 30 d7 75 3c 58 04 3a 3d
       0.012278706 0.00619217 0.015004918 0.0454143
0001f0 d8 eb 0c bc 08 25 35 bc d8 78 a9 3c 26 6d 29 bd
       -0.008601151 -0.011056192 0.020687506 -0.041363858
000200 60 66 7a 3b 4a f7 34 bd 44 39 95 3c 50 1c f4 bc
       0.0038207993 -0.044181146 0.018215783 -0.029798657
000210 a0 76 50 3b 28 39 56 3c 06 21 12 bd 96 62 43 3d
       0.0031808987 0.013075151 -0.035676025 0.04770144
000220 78 8b 94 bc 80 a0 11 3c 22 1a 4e 3d 20 20 d3 bb
       -0.01813291 0.008888364 0.05031789 -0.0064430386
000230 20 76 76 3d 64 49 42 bd d6 84 60 bd f0 a5 28 3d
       0.060171247 -0.047433272 -0.054814182 0.041173875
000240 68 79 47 bd 8e 27 77 3d c4 73 7e bd e8 2f b4 3c
       -0.048699766 0.060340457 -0.06212212 0.0219955
000250 1c 3d 54 3d 94 06 26 3d 50 63 a9 3b 98 42 c1 3c
       0.05181609 0.040533617 0.0051693097 0.023591325
000260 de c2 2d 3d dc 90 38 bd 74 3d 40 bd 3c 6e a3 bc
       0.042422168 -0.045060024 -0.046933606 -0.019950025
000270 0c 40 99 bc 30 5a 27 3d 18 41 90 3c 48 2f 15 bc
       -0.018707298 0.040857494 0.017609164 -0.009105511
000280 f4 7c 6c bd 24 35 df bc 6e 86 7e bd ce 78 51 3d
       -0.057736352 -0.02724702 -0.06213992 0.0511406
000290 c0 af f7 3a 68 1d 81 bc e0 9b ae 3b 92 52 38 bd
       0.0018896982 -0.015761092 0.0053286403 -0.04500062
0002a0 40 a0 e4 3a f6 9d 0b bd 24 4d 43 bd 36 d1 5f 3d
       0.0017442778 -0.03408619 -0.04768099 0.05464288
0002b0 8c 96 2a 3d 38 68 5f bc a8 dd 62 3c c0 1f b8 3b
       0.04164748 -0.0136356875 0.013846792 0.0056190193
0002c0 b4 6b 9d 3c 58 26 97 bc 58 68 93 bc be 24 3a 3d
       0.019216396 -0.0184509 -0.01799409 0.045445196
0002d0 a0 85 17 bc c0 57 ed bb ba 9c 4e 3d 94 32 c9 3c
       -0.009248167 -0.0072431266 0.050442435 0.02456025
0002e0 ae ee 5b bd 34 d0 9c 3c 64 59 b7 3c 74 ad 55 3d
       -0.05369442 0.019142248 0.022381492 0.05216737
0002f0 68 14 88 3c f4 19 ea bc b0 4a 03 3d 00 a0 47 ba
       0.016611293 -0.028576829 0.03205365 -0.00076150894
000300 68 85 09 3c dc 64 40 3d 18 5d 3b bd 60 90 af bc
       0.008393623 0.046971187 -0.045743078 -0.021431148
000310 a0 65 8f 3c b8 6d 49 3d a2 e7 65 bd d0 91 a0 3b
       0.017504513 0.0491769 -0.056129105 0.0049001947
000320 00 b0 69 b9 34 4a e3 bc a0 06 ba bc ec 1b db 3c
       -0.00022286177 -0.027745344 -0.022708237 0.026746713
000330 d0 41 5e bc 24 74 9a bc 60 8e 0d bd 60 47 43 3d
       -0.013565496 -0.018854208 -0.034559608 0.04767549
000340 aa 7e 0d bd a6 b6 6f bd c0 11 16 bb 58 87 86 3c
       -0.034544624 -0.058523796 -0.0022898763 0.016421959
000350 68 10 10 bd 38 89 3c bd 9a 7b 5b bd 28 90 8d 3c
       -0.035171896 -0.0460293 -0.053584673 0.017280653
000360 00 1c af 3c 0e c1 6e 3d a8 10 0c 3c 86 94 3e 3d
       0.021375656 0.05828958 0.008548893 0.04652836
000370 f8 0c 0d bd 1a 5d 0f bd 4c fb 0e 3d 44 10 7a 3d
       -0.034436196 -0.035000898 0.034907624 0.06105067
000380 94 ba e8 3c 70 f3 87 bb e4 b7 2c bd 78 bd 32 3d
       0.02840928 -0.004148893 -0.04216756 0.043637723
000390 aa aa 2d bd 94 02 12 bd c8 12 e4 bc 48 f9 12 bd
       -0.042399086 -0.03564699 -0.027840987 -0.035882264
0003a0 42 db 61 bd 6e 3e 66 bd 88 22 f3 bc d8 f7 15 3d
       -0.05514074 -0.05621188 -0.029679552 0.036613315
0003b0 e4 ad 0a 3d 7c 86 13 bd 70 bd 33 bd 1e 5c 4a bd
       0.03385724 -0.036016926 -0.043881834 -0.049404256
0003c0 c0 73 48 3d 52 c8 10 3d 2e 7b 23 3d e8 29 09 3c
       0.048938513 0.03534729 0.039912395 0.008371808
0003d0 72 48 6e 3d d0 74 32 3d 2c 6c 77 bd a0 7c 71 bd
       0.058174558 0.043568432 -0.060405895 -0.058956742
0003e0 06 34 5d 3d d0 22 fe 3c 50 9b c1 3b c8 6b 73 3d
       0.05400469 0.03102246 0.0059084073 0.05942896
0003f0 dc 07 31 bd b8 55 9e bc 94 fa c2 3c 08 81 85 3c
       -0.043220386 -0.019327983 0.023801126 0.016296878

actor_body.2.bias f4 [128]
000000 50 6c eb 3b 52 c4 5a bd 40 34 42 bd d4 f0 29 bd
       0.0071845427 -0.053409882 -0.04741311 -0.041489437
000010 d0 c1 f2 3c f0 af 9d bc bc f9 ad bc 68 36 6d 3c
       0.029633433 -0.019248933 -0.021237247 0.0144783035
000020 cc f1 06 bd b4 58 c5 bc d2 fb 03 bd ae 8b 4a 3d
       -0.03294544 -0.024090149 -0.032222576 0.049449615
000030 80 77 c9 bb de 3c 01 bd b4 e8 b8 3c b2 31 37 3d
       -0.0061482787 -0.031552188 0.022571899 0.044725128
000040 70 59 3b bd 88 e8 59 3c b8 40 4f bd 4c 41 5e bd
       -0.04573959 0.013300069 -0.05059883 -0.05426149
000050 9a f2 3e bd b0 f9 44 3d f0 4c d0 3c 54 27 4e bd
       -0.04661808 0.048089683 0.025427312 -0.050330475
000060 40 71 44 bc cc 64 fb 3c 40 2c cc 3c e8 4e 0a bc
       -0.0119898915 0.030687712 0.024923444 -0.008441664
000070 68 6a 2d 3d a8 bb 76 bd 9c a9 7d bd a0 db df 3c
       0.042337805 -0.060237557 -0.06192933 0.027326405
000080 56 66 4a 3d 30 ad c5 bc e0 25 ee bc b6 c0 04 bd
       0.049414 -0.024130434 -0.029070795 -0.032410346
000090 7a 9e 72 bd c0 a3 84 bb 20 8f 54 bb c0 02 59 bd
       -0.059233166 -0.004047841 -0.0032433942 -0.05298114
0000a0 ca cf 5c bd a0 c9 13 bd b4 97 e8 3c 60 88 6e bc
       -0.0539091 -0.036080956 0.02839265 -0.0145588815
0000b0 98 e9 24 bc 28 6d ae 3c 1e 1a 38 bd a0 30 79 3b
       -0.010065459 0.021292284 -0.044946782 0.0038023368
0000c0 c0 1c 1d 3c b8 42 67 3d 30 4d 38 bc e2 2b 6f bd
       0.009589374 0.056460112 -0.011248872 -0.05839146
0000d0 6c f0 e6 3c da e8 73 bd 8e 37 63 3d 58 9c 3d 3d
       0.028190814 -0.059548236 0.055472903 0.04629168
0000e0 e8 43 ab bc 90 7c d4 3c 58 c0 1f bc 70 1e 4e bc
       -0.020906404 0.025938302 -0.009750448 -0.012580499
0000f0 7e 4a 52 bd 60 8d a9 3b bc 37 b8 3c 20 c2 4f bc
       -0.051340573 0.005174324 0.022487514 -0.01268056
000100 3c 69 38 3d 28 6b 30 3d 9a a3 0c 3d 50 fb aa bc
       0.045022234 0.043070942 0.03433571 -0.020871788
000110 0c 29 9d 3c 60 d2 3f 3d 50 bc 0f 3d 12 8b 06 3d
       0.019184612 0.04683149 0.0350917 0.03284747
000120 78 d7 16 bd 18 c0 08 bd 80 3f d1 3b 28 41 f5 3c
       -0.03682658 -0.03338632 0.0063857436 0.029938295
000130 42 5b 1c 3d 56 cd 27 3d 30 2e 7c 3c 08 74 91 bc
       0.038172968 0.040967308 0.015391871 -0.017755523
000140 50 5c 19 3c 80 88 3e bd 1c c9 37 3d 7c 53 fa 3c
       0.009360388 -0.046516895 0.044869527 0.030557387
000150 8a 48 75 3d 88 a1 e8 3c c8 33 1d 3d 20 92 4a bd
       0.05988363 0.028397337 0.03837946 -0.049455762
000160 0c 5e 6b 3d d4 35 39 bd 52 80 05 bd 48 6a 5e bd
       0.057462737 -0.04521735 -0.03259308 -0.054300576
000170 d2 3b 74 3d 70 36 94 3b 42 3e 0e 3d 5e e0 42 bd
       0.05962736 0.004523091 0.034727342 -0.047577254
000180 b4 47 fa 3c 6e 43 44 3d 08 aa f8 bc 98 f7 90 bc
       0.030551769 0.04791587 -0.030354515 -0.017696187
000190 e4 35 52 3d a4 a7 1e bd 0e 94 05 3d 9e d1 16 3d
       0.051320925 -0.038734093 0.0326119 0.036821
0001a0 00 81 59 3d 20 65 3f 3d a0 45 e1 bc d0 56 24 3c
       0.05310154 0.0467273 -0.02749902 0.010030463
0001b0 80 f9 46 3b 1c a1 4a 3d 58 e1 59 bc 0c 07 c8 bc
       0.0030361116 0.049470052 -0.013298355 -0.024417423
0001c0 be 40 35 3d 76 f8 0d 3d 48 7a 52 bd 0a 38 0f 3d
       0.044251196 0.03466078 -0.051386148 0.034965552
0001d0 aa a5 72 3d 90 df 99 bc ba 42 51 3d e8 c5 9a bc
       0.05924002 -0.01878336 0.051089026 -0.018893197
0001e0 ac 4d 68 bd 6e 33 1d 3d 10 2d d8 3c 40 fd ac 3a
       -0.0567147 0.038379125 0.026388675 0.0013198033
0001f0 54 dc c9 bc f2 c3 1e 3d 6c 8e 59 bd de 72 09 3d
       -0.024641193 0.038761087 -0.05311434 0.03355681

actor_output.weight f4 [54, 128]
000000 f8 85 21 3d 89 1b 92 3d fb 9a e5 bc a0 54 ed 3c
       0.039434403 0.07134158 -0.028028002 0.028971016
000010 51 e6 d3 bb b2 49 98 bd 3a ee 8b 3d 16 01 b5 3d
       -0.006466665 -0.07435931 0.068325475 0.08838098
000020 a0 e0 9b 3d fe 67 da 3c f2 6e 23 3d 97 d0 8c 3d
       0.07611203 0.026660915 0.039900728 0.06875723
000030 94 6a 5e bc 90 af 83 3d 44 14 2e bd a5 1b 5d bd
       -0.013575215 0.0642997 -0.042499796 -0.053981442
000040 71 e9 31 bd ca 90 44 bd d3 9b 10 3d e8 82 87 3d
       -0.043435518 -0.047989644 0.035304856 0.06616765
000050 85 79 59 3c 24 11 ac 3d b7 c5 3b 3d 71 3a 91 3d
       0.013273601 0.08401707 0.045842852 0.07091225
000060 d6 3c 97 bb c2 de 98 3c 5b 20 d1 bc 37 23 b2 bc
       -0.0046154065 0.018660907 -0.025528124 -0.021745307
000070 09 81 f2 3c 59 85 84 3d cc dd 1a 3c 7b 7c 1a ba
       0.029602544 0.064707465 0.009452295 -0.0005893183
000080 fd da ac 3d 01 53 bc 3c e0 6a ae 3b 91 d0 69 3d
       0.08440206 0.022988798 0.005322799 0.05708367
000090 e6 1d 52 bd ba a7 9e bc 5c b0 2e 3d 63 17 46 3d
       -0.051298045 -0.019367088 0.04264866 0.048362147
0000a0 2e 9f 8d 3d 71 81 cf 3c 0d 19 6b bd 53 e7 f6 bc
       0.06915127 0.025330277 -0.057396937 -0.0301396
0000b0 fe 4e fd bb ff 5a f0 3c 23 b0 20 3d 3e 7a 5f 3c
       -0.007730364 0.029340265 0.039230477 0.013639985
0000c0 87 42 90 3d 76 c6 a7 3d 49 e7 14 3d 52 9c 4d ba
       0.07043939 0.0819215 0.036353383 -0.0007843423
0000d0 1e 97 66 3d 95 2f a7 bc b3 ce 82 3c f7 ce 96 3d
       0.05629646 -0.020408431 0.015967702 0.07363694
0000e0 7c 43 65 bd 1d f8 8e bc 6d 01 f2 bc 41 17 1a 3d
       -0.05597256 -0.017452294 -0.029541695 0.037619833
0000f0 ed 6d 43 3d 14 75 96 3c 50 51 10 3d fa 3e 39 bd
       0.047712255 0.018366374 0.035233796 -0.045226075
000100 20 f1 26 bd 65 b7 59 bc 5e 2f 84 bd 64 05 7f bd
       -0.0407573 -0.013288354 -0.06454347 -0.062261
000110 e4 c3 7a 3d 2e b0 78 3d d9 ee 0f 3d be a9 47 bc
       0.061221972 0.060714893 0.035139892 -0.012186466
000120 23 db 0f 3d 88 e3 89 bd e2 64 83 3d 77 72 b0 bd
       0.035121094 -0.06732851 0.06415726 -0.086155824
000130 10 f5 fb 3c a3 bf bb 3c eb 9d 3b bd 38 5d d0 3c
       0.030756503 0.022918528 -0.0458049 0.025435075
000140 93 e9 83 3d 4b 6d 70 bd 90 9a 19 3b e6 cd 8d bd
       0.06441035 -0.05869798 0.0023438074 -0.06924038
000150 2f e7 9a 3d d5 6c 0a bd 48 60 e2 bc 99 61 0a 3d
       0.07563626 -0.033795197 -0.027633801 0.033784483
000160 1e e3 71 3d 16 71 8e bd 2f 01 54 3d a1 ca 8d 3d
       0.059054486 -0.06955163 0.05175894 0.06923414
000170 fd 1a 9a bd f3 ea 65 bc 85 f4 8d 3d e0 0e 81 3d
       -0.07524679 -0.014033067 0.06931404 0.06301665
000180 32 6f b2 bd 0e 93 88 3d d9 94 99 bd f8 af 72 bd
       -0.08712615 0.066686735 -0.074990936 -0.059249848
000190 95 b4 b0 bc 8f ee 83 bd 25 5c 65 bd 2a 8a 56 bd
       -0.021570483 -0.06441986 -0.05599608 -0.052377857
0001a0 25 4d 56 3d a4 40 10 bd ae 71 91 bc 12 fe a0 3a
       0.052319665 -0.035217896 -0.017754402 0.001228275
0001b0 56 f6 05 3d 4d b8 c8 bb ed 5d 06 bd 8a 36 1f bd
       0.032705627 -0.006125486 -0.03280442 -0.038870372
0001c0 66 f6 27 3d 2e 95 61 3d bd a3 a1 bd 38 99 be 3c
       0.04100647 0.05507391 -0.07892559 0.02326642
0001d0 fd 97 47 bd 64 88 ea 3c c6 6e 8f bc ba 26 69 bd
       -0.04872893 0.02862949 -0.017508876 -0.0569217
0001e0 be 02 a5 3d 5b 5e 24 3d a4 63 77 3d aa d8 9a 3d
       0.08057164 0.040129047 0.06039776 0.07560857
0001f0 e6 64 7c bc 57 38 21 bd 85 7f 29 3d 54 20 70 3a
       -0.015404915 -0.03936037 0.041381378 0.00091600907
000200 4d 64 d2 bc 5d 40 0c bc af 8c 28 bd 32 11 45 3d
       -0.025682593 -0.008560267 -0.04114979 0.0481121
000210 5e de cd 3c 4f 35 8f bd f5 4f 35 bd 37 68 a3 bc
       0.025130447 -0.0699259 -0.044265706 -0.019947154
000220 3e 6d 9b 3d 72 30 9f bd ab 93 5c bd 18 91 9b 3d
       0.07589196 -0.07772912 -0.053851765 0.07596034
000230 a6 d3 8a bd fe 61 52 bd cf ca 19 bd 29 9d 6f bc
       -0.0677865 -0.051362984 -0.03754693 -0.014624872
000240 36 f1 72 bd 16 6a 14 bc 52 ff 78 bd fe 60 9b bd
       -0.059312068 -0.009058496 -0.060790367 -0.07586859
000250 03 9b 4e bc 90 cc e1 b9 8b 49 02 bd 33 51 6d bd
       -0.0126102 -0.00043067755 -0.031808417 -0.057938766
000260 e0 47 6f bd 2b f1 4a 3d 0d 5b f6 3c 81 dc 5b 3d
       -0.058418155 0.049546402 0.030072713 0.053677086
000270 20 5e 89 bd cd 8b 85 bd 6a 0c a8 bd 1d 7f 92 bd
       -0.06707406 -0.065208055 -0.08205493 -0.07153151
000280 d3 9e 4c 3b ad b1 4b 3d 42 ac a0 3d 5d 01 fe bc
       0.0031222596 0.04972999 0.078453556 -0.03100651
000290 1f f2 41 bc c6 60 46 3d ce 89 40 3c e9 d7 f8 bc
       -0.011837511 0.048432134 0.011751605 -0.030376391
0002a0 53 75 89 bc ca bb b2 bd 8c be 47 3d 40 d5 2a 3d
       -0.016779577 -0.08727224 0.048765704 0.041707277
0002b0 1c 98 c7 bc 2c 65 8a bd f0 c9 ae bd 33 ba d5 3c
       -0.024364524 -0.06757578 -0.0853461 0.026089763
0002c0 78 0b a0 bc a5 c6 6b 3d 64 da 87 bd d6 a0 3f 3d
       -0.019536719 0.05756249 -0.066334516 0.046784244
0002d0 96 68 0d bd 3b 07 4b 3d 41 8a 17 bd b0 30 44 3c
       -0.03452357 0.049567442 -0.036997084 0.011974499
0002e0 3d 7b b4 bb bf a9 a3 3d 61 8e 59 3d 1e dc b1 bd
       -0.005507855 0.07991361 0.0531143 -0.08684562
0002f0 bf 32 50 3c dd 55 c7 bc 59 1b 7e 3c 5e bb 8a 3c
       0.012707411 -0.024332935 0.01550945 0.016935047
000300 ce e6 e7 bc 60 54 3c 3d 84 70 79 bc 72 bf a6 bd
       -0.028308298 0.045978904 -0.01522458 -0.08141984
000310 e6 b7 ad bd 1a 5b b3 3d 05 3f ec 3c 06 61 0a 3d
       -0.084823415 0.087576106 0.028838644 0.033783935
000320 db d6 e6 bb 83 40 31 bd 54 65 63 bd e9 60 a1 3d
       -0.0070446557 -0.043274414 -0.055516556 0.07879812
000330 d7 6f 96 bc 6e 26 47 3d e8 03 3a 3d 6c 68 af 3d
       -0.018363876 0.048620634 0.04541388 0.08564839
000340 d7 0c 91 3d 05 5c 7d 3d 20 1a 1f 3d a4 14 bd bb
       0.07082527 0.061855335 0.038843274 -0.005770283
000350 e1 9c 4c bc a2 aa 90 3d b0 37 6f 3a 96 0e 95 bd
       -0.012488575 0.070637956 0.00091254245 -0.07278173
000360 2c 97 01 3d 7d e2 a1 bc 16 2c 85 bd fa 2e ae bd
       0.03163831 -0.019761318 -0.06502549 -0.08505054
000370 c1 1d a0 3d 80 4f a8 3d 2f 9a ad bd 15 d3 9f bd
       0.07818175 0.082182884 -0.08476674 -0.078039326
000380 76 53 8b bc 89 f4 09 bc 81 73 fc 3c 95 ae b6 3c
       -0.01700757 -0.008420118 0.030816795 0.022300044
000390 ef 36 24 3d 85 7a a8 bd fb 36 5c 3d 2b d4 28 bd
       0.04009145 -0.08226494 0.05376337 -0.041217964
0003a0 27 1d 96 3c dc 41 2f bd ff ea 21 bc 7e ed 19 3d
       0.018324448 -0.042787418 -0.009882688 0.037580006
0003b0 ec 5c eb bc 13 30 a9 3d 8b d9 e8 3c dc 40 a5 bd
       -0.028730832 0.082611226 0.028424045 -0.080690116
0003c0 5f ff 34 3d 47 b6 a1 3d 5c ab 85 bd 98 4a 9f 3d
       0.044188853 0.07896095 -0.06526825 0.077778995
0003d0 8a a7 11 3d b8 44 7b bd 4c 9e a5 bd 28 bc 2f bd
       0.03556017 -0.061344832 -0.08086833 -0.04290405
0003e0 91 0c ad 3d c7 dc b3 3d 07 6d 72 3d 0b 6e ec 3c
       0.084496625 0.08782344 0.059186008 0.028861066
0003f0 a2 5e 98 bd 42 d1 f4 bb e3 07 35 bd 1b 55 9a 3d
       -0.07439925 -0.0074712345 -0.044196974 0.07535764

actor_output.bias f4 [54]
000000 db f8 8c bd 7f da 46 bd 0c 04 71 3d fb bb 5b bd
       -0.06883403 -0.048548218 0.05884175 -0.05364607
000010 27 5d 9b bd c6 27 37 3d ff 30 8e 3c 25 25 09 3d
       -0.07586127 0.044715665 0.017357348 0.03348269
000020 ba 1d d1 3b e7 36 fa 3c 19 30 87 bd 2b 18 89 bd
       0.0063817175 0.030543758 -0.06600971 -0.06694063
000030 0c 88 3e bc 3c 2d af bd fa 2c f2 bc f6 eb 89 bd
       -0.011629116 -0.0855355 -0.029562462 -0.06734459
000040 10 9f e6 bc ae 86 8a bd e4 30 a6 3d 9e cd 21 3d
       -0.028152019 -0.06763969 0.08114794 0.039502732
000050 bb 5f a2 bd 41 46 fb 3c 27 cd 13 3d 81 43 98 bc
       -0.079284154 0.030673148 0.03608432 -0.018586876
000060 57 63 15 bb ea 2a 96 3d e7 d2 88 3d 7f e7 4d 3c
       -0.0022794807 0.07332404 0.066808514 0.0125674
000070 63 90 06 bc 83 e7 78 3c 10 a7 3e bd 57 92 74 bd
       -0.008213135 0.015191915 -0.046546042 -0.059709873
000080 81 2b 75 bd bd 83 8b bd 1f 8d 33 bc 53 1a 81 3c
       -0.05985594 -0.068122365 -0.010958939 0.015759623
000090 d5 47 5e 3d 9c f9 a0 bc 5e 1b 50 bb e7 d5 02 3d
       0.054267723 -0.019650273 -0.0031754593 0.031942274
0000a0 87 59 3f bb 37 a8 83 3d b8 75 bc bb 94 7a a8 bd
       -0.002919765 0.06428569 -0.005751338 -0.08226505
0000b0 b7 b4 1b bc 35 a0 94 3d e7 ec 07 3d 71 3b 9f 3d
       -0.009503535 0.072571196 0.033184912 0.077750094
0000c0 cb c7 24 bd a0 bb 03 bd 1b b2 58 3d a1 49 96 3d
       -0.0402296 -0.032161355 0.05290423 0.07338262
0000d0 3e ed 14 3d 53 22 a6 bd
       0.036359064 -0.081120156

critic_body.0.weight f4 [256, 19]
000000 0a 87 17 3e 6b 92 62 be 78 62 b2 3d 76 7c fc 3d
       0.14797607 -0.22126167 0.08710188 0.123284265
000010 38 b4 58 3e 68 ff 10 be 7d b3 89 3d 77 e1 c6 3d
       0.21162498 -0.1415993 0.06723688 0.09710973
000020 d2 23 2e be 0b 06 fd 3c 3b 67 b0 3d 9d 9d 09 be
       -0.17005852 0.03088667 0.0861344 -0.13439031
000030 77 6a 0c be 91 1d 35 3e a3 d0 fc bd 2b 2a e3 3d
       -0.13712488 0.1768706 -0.12344482 0.11092027
000040 84 3d d5 bd 36 44 e8 bd 9e 9d 49 bd 58 2a 48 3e
       -0.10412124 -0.11341135 -0.04922258 0.19547403
000050 df dd e5 3d 42 c4 1e be 0b 7e dc bd c6 c9 c6 3d
       0.11223959 -0.15504554 -0.10766228 0.09706454
000060 11 c1 de 3c 02 30 b1 bd 7b e0 6e 3e f4 e4 59 be
       0.02719167 -0.08651735 0.2332782 -0.21278745
000070 4e 85 99 bd 78 a6 48 be ba 18 55 be 7d c4 14 be
       -0.07496129 -0.19594753 -0.20810214 -0.1452808
000080 fc 1b b9 3d f3 52 0d be 6f 8e b4 ba 93 53 9c 3c
       0.09038541 -0.13801174 -0.0013775359 0.01908282
000090 75 c8 49 3e 9c 2a ae bc ac 33 60 3d b8 86 17 3e
       0.19705375 -0.021260552 0.05473678 0.14797485
0000a0 99 36 4a 3e 3a f3 2c be 15 56 5a 3b 14 c5 4e be
       0.1974739 -0.16889659 0.003331547 -0.20192367
0000b0 3c 0b 04 be 9c da f9 3d 12 14 4a bc ee 6b 57 be
       -0.1289491 0.121998996 -0.012333887 -0.21037266
0000c0 60 02 87 3c 8b 61 6e be 01 a4 16 3c 0c ea 36 3e
       0.016480625 -0.23279397 0.009194375 0.1786272
0000d0 ef 53 1a 3e 5a 03 b3 bd 9f bc 10 3e b7 27 79 bd
       0.1507108 -0.08740874 0.14134453 -0.06082889
0000e0 69 83 7e 3c 9d 84 1f 3e ae f0 96 3d ab 24 d6 bd
       0.01553426 0.15577932 0.07370125 -0.104562126
0000f0 de e4 25 be 16 56 12 3d ae 65 34 be b1 6f 88 bd
       -0.16200587 0.03572663 -0.17616913 -0.066619284
000100 60 7e 29 3e 12 56 ca bc d9 c3 08 bd 15 06 17 be
       0.16552114 -0.024699245 -0.0333899 -0.14748414
000110 9a 53 f5 bd 5f 9e 67 bc e1 29 39 bd 29 6a 43 3e
       -0.11978836 -0.01413688 -0.045205954 0.19083466
000120 1e 42 60 3d 53 6a 84 3d e3 a5 a7 3d 5c 6b 05 3e
       0.054750554 0.06465592 0.08185937 0.13029236
000130 b0 ed ae bc 4b ea 10 3e b0 73 4c 3e 51 d1 e4 bd
       -0.021353573 0.14151876 0.19966006 -0.111727364
000140 1f 7a 42 3e d1 66 47 3e df f7 47 3e 1a b7 61 be
       0.18991898 0.19472815 0.19528149 -0.22042504
000150 ce 11 2a 3e 91 74 a3 3d e0 02 1b be 86 62 43 3e
       0.16608354 0.07981218 -0.15137815 0.19080552
000160 29 cf ee bd 93 4b 63 bd a9 76 08 bc 47 5e 63 be
       -0.116606064 -0.055491995 -0.008329072 -0.22203933
000170 d6 2c 7c bb c7 cc d3 3c 8d 32 f9 3d e6 cd 8a 3d
       -0.0038478873 0.025854481 0.12167845 0.06777553
000180 99 a4 98 bd 90 24 0e be 13 96 ba 3c 1c 9f 55 3e
       -0.074532695 -0.13881135 0.02277664 0.20861477
000190 34 c7 8f bd 83 10 c2 3d 37 db ba bd 25 59 c7 3d
       -0.07020417 0.094758056 -0.09123843 0.097338
0001a0 7a ba 0e 3e 53 6f 5a be 8b 0d ad bc 1c c3 73 3d
       0.13938323 -0.2133153 -0.021124622 0.059512243
0001b0 f6 fb 57 bd 2d 5f 06 3c 3e 77 09 3e 58 ab 3e be
       -0.052730523 0.008201403 0.13424394 -0.1862005
0001c0 61 77 61 be 64 fc d8 bd ab 8f e6 bc d6 01 b2 3d
       -0.22018196 -0.10595015 -0.028144678 0.086917564
0001d0 cd 27 2a be a6 08 fd bc 09 bb 88 bd e5 20 77 be
       -0.16616745 -0.030887913 -0.06676299 -0.24133642
0001e0 7f 3d 76 3e c2 36 90 3d d5 e2 88 bb 4c 7f 67 be
       0.24046896 0.07041694 -0.004177431 -0.22607154
0001f0 0c 24 30 be 3b 8b 45 3e 02 15 02 3d 87 f6 a4 3c
       -0.17201251 0.19291393 0.031758316 0.020137085
000200 61 a7 10 bb c6 b9 b5 be 6d d8 d6 bd 80 53 92 3e
       -0.0022072422 -0.35493296 -0.10490499 0.2857933
000210 7b ad bb 3d e9 17 15 bc c9 19 a1 3d 17 11 04 3e
       0.09163948 -0.009099939 0.07866246 0.12897144
000220 ec 6d 85 3e 70 ed e7 3d 2b 50 6c 3d 93 6b 0d 3d
       0.26060426 0.113245845 0.05769364 0.03452642
000230 c1 9a 79 3c 55 2e 1f 3e 86 b6 1f be a1 0c 20 3d
       0.01523465 0.15545018 -0.15596971 0.039074544
000240 5a 2b 9c bd d6 36 36 be 02 a3 54 be 03 4f 11 be
       -0.07625456 -0.17794356 -0.20765308 -0.14190297
000250 5f 57 cd bd 56 86 32 3e 38 5f fc bd c1 da b0 3d
       -0.1002643 0.17434058 -0.12322849 0.08635474
000260 29 2a 4e 3d 19 08 a0 bd 2b 24 7d 3c 90 05 09 be
       0.050333176 -0.078140445 0.015450518 -0.13381028
000270 29 53 e4 3d b7 b2 ec bd e9 01 0b be 42 c1 1d bc
       0.11148674 -0.11557525 -0.13574947 -0.009628596
000280 c6 56 15 3e b6 8b 1c 3e d8 eb 95 3b 98 06 73 3d
       0.14583883 0.1528767 0.004575234 0.05933246
000290 87 f4 43 be 10 91 f6 bd 93 78 58 bd 8d 83 81 3e
       -0.19136249 -0.12039387 -0.052849364 0.25295678
0002a0 2a c8 6d bb de f0 28 3e 43 a9 b3 bd c8 a1 48 bc
       -0.0036282637 0.16498134 -0.087725185 -0.012245603
0002b0 0b bb 4a 3d 37 cc 0f 3e bb 49 8b bc 7b 23 c8 bd
       0.049494784 0.14042746 -0.01700293 -0.09772392
0002c0 2b 22 56 3d 24 c1 8f 3e 3c cf a6 be 2b 43 92 bd
       0.05227868 0.28077042 -0.32579982 -0.071417175
0002d0 6e 58 7b be eb 00 44 3d 47 a7 5b 3e 38 b4 a2 3c
       -0.24545452 0.047852438 0.2145053 0.019861326
0002e0 df fe 88 3c 0e 69 3d 3c 21 a3 e2 bd 14 80 93 3e
       0.016723095 0.0115606915 -0.110662706 0.28808653
0002f0 d1 7f 26 3e a6 54 d1 3d 6a 79 5f be 54 1b 6e be
       0.16259696 0.102212235 -0.2182366 -0.23252612
000300 be 09 e0 3d e7 8d 7c 3c a1 9e 4d 3e dd e3 b9 3c
       0.10939358 0.0154146915 0.20080043 0.022691661
000310 d3 14 0b 3e 1c 73 4e 3e cf 1c 08 be b9 82 4f be
       0.13582163 0.20161098 -0.1329224 -0.2026471
000320 60 b8 93 3d 3d b6 f6 3d 45 12 25 be 52 e3 19 3e
       0.07212901 0.12046478 -0.1612025 0.15028122
000330 60 eb c5 bd 91 e1 b7 bd 1f 98 1d 3e 68 8e 4e 3e
       -0.09664035 -0.0897857 0.15390061 0.20171511
000340 65 6d 4b 3d 07 26 43 be 77 2b fa bd 27 83 d3 bc
       0.049664874 -0.19057475 -0.122153215 -0.025819374
000350 5c 91 08 3d a1 1b 33 be 62 69 45 be 4b d5 ad 3e
       0.03334175 -0.17491008 -0.19278482 0.33951792
000360 41 58 3e 3e 0c a0 13 3d 53 d3 72 be dd 36 68 be
       0.18588354 0.036041304 -0.23713426 -0.22677179
000370 6d d1 25 3e 2e 73 b3 3c 83 72 07 bb bb 12 b9 3b
       0.16193171 0.021905508 -0.002066762 0.005647985
000380 02 c3 aa be 5b dc 2c 3e ba 78 01 3e 42 68 ee bb
       -0.33351904 0.16880934 0.1264371 -0.007275612
000390 69 42 2c bd 9c cc 9c 3d 1c ab 0f 3e 6d 33 80 3e
       -0.04205552 0.07656214 0.14030117 0.25039235
0003a0 d5 8a c8 bd 53 a4 d7 bd a7 53 bf 3d 04 b7 a5 3d
       -0.09792105 -0.10529389 0.09342127 0.08091548
0003b0 3f 6e 69 be 19 bc f9 3d 0c 0e 05 3d 73 d9 87 3c
       -0.22795962 0.1219408 0.0324841 0.01658318
0003c0 16 52 20 be cb b9 f4 3d 82 bd 48 3c 60 79 f2 bd
       -0.15656313 0.119495 0.012252213 -0.11839557
0003d0 48 8b 31 be 50 a0 c3 bd 3e 52 1f 3e 19 49 2b be
       -0.17338288 -0.095520616 0.15558717 -0.16727103
0003e0 e2 14 60 be cc 00 32 be f4 c6 3f bd 15 69 19 be
       -0.21882966 -0.17383116 -0.046820596 -0.14981492
0003f0 ea 4b 36 3e 77 b2 2e 3e c6 e0 64 bc 31 34 1c be
       0.17802396 0.17060266 -0.013969606 -0.15254284

critic_body.0.bias f4 [256]
000000 31 3a f3 bd 31 76 53 3e 68 c5 8c 3e c6 f9 2b be
       -0.118763335 0.20650555 0.2749436 -0.167945
000010 06 ed 33 be 6e 0a 8c 3e 35 87 cd 3c 50 e2 75 be
       -0.17570886 0.27351707 0.025088886 -0.24012113
000020 dd 9b 50 3e e9 12 70 bd 7a 0e 44 3e d2 a1 2a bd
       0.20371957 -0.058611784 0.19146147 -0.04165823
000030 aa 11 a3 bd 0f 06 d9 3c 4d c7 90 be a9 f3 63 be
       -0.079623535 0.026492147 -0.28277054 -0.22260918
000040 f4 61 67 be 76 24 2d 3d 0c f2 25 3e 9f 3b 9b bd
       -0.2259596 0.0422711 0.16205615 -0.07579731
000050 c9 8b 84 3d 8d 10 1b be 5b 48 84 3e c6 8f 23 3e
       0.064719744 -0.15143032 0.25836453 0.15972814
000060 9b 79 56 3d ff e0 c0 bc 5e 33 92 3e 37 8c 6c 3e
       0.052362066 -0.023544786 0.28554815 0.23100363
000070 c1 5b 29 3e 50 a4 33 3e 46 1a 9c be 30 64 01 3e
       0.16538908 0.17543149 -0.30488795 0.12635875
000080 ff 09 2b 3e 56 b1 6b 3e 77 c3 18 3e 05 e2 08 3d
       0.16703032 0.23016867 0.14918314 0.033418674
000090 83 ab 42 be 5a f8 00 3d 63 91 87 3d 5c df a3 3e
       -0.19010739 0.031486847 0.06619527 0.32006347
0000a0 b8 82 71 3e c6 f7 91 3e a2 ba 86 be f1 6f 40 3b
       0.23585021 0.2850935 -0.26314265 0.0029363597
0000b0 5b 9e 88 3e 23 e9 45 be a2 44 39 3e 8e fc 37 be
       0.26683316 -0.19327216 0.18092588 -0.17967436
0000c0 47 47 a4 3e c2 73 9a be 7b 25 78 3e 7b 62 7e 3e
       0.3208563 -0.3016644 0.24233048 0.24842255
0000d0 ef 1e 3f 3e 1f 9f a5 bd 44 20 89 3e 20 f0 63 be
       0.18664144 -0.080869906 0.2678243 -0.22259569
0000e0 9d 45 d6 bd ed ee 88 3e 0c c1 dd bd 17 bf 09 3e
       -0.104624964 0.26744786 -0.108278364 0.13451801
0000f0 3a 30 08 3e 69 79 0c 3d 3d 74 9d 3e e6 5c 33 bd
       0.13299647 0.034295473 0.30752745 -0.043789767
000100 3f 3c 20 3c 18 a7 5c 3e 34 de 8e 3b 40 ef 65 be
       0.009779989 0.21548116 0.004359985 -0.22454548
000110 69 d0 9a 3e 3c cc a9 bc c5 fa e5 bd 7e 4d 97 3e
       0.3023713 -0.02072727 -0.11229471 0.2955131
000120 1d 14 9c 3d 53 2c 9e bc 28 89 67 3e 72 b3 fc 3c
       0.07621024 -0.019308245 0.22610915 0.030847285
000130 f4 a2 a6 3b a3 94 f0 bd 89 30 bb 3c 9b 5a 1e 3e
       0.0050853435 -0.117471 0.022850292 0.1546425
000140 a3 c8 51 be c3 c1 6e 3e 95 86 5f 3e 6e a7 62 be
       -0.20486693 0.23316102 0.21828683 -0.22134182
000150 cd b0 03 be 3d 93 e1 3d b0 8b 88 3e 25 e1 a6 be
       -0.12860413 0.110144116 0.26669073 -0.32593647
000160 09 5b 52 3e 63 a6 4b 3e d9 a9 6f be 05 e0 1a 3c
       0.2054254 0.1988769 -0.23404635 0.0094528245
000170 25 7d 93 3d 35 5f f8 3d 84 20 84 3e d0 2b 64 3e
       0.07201604 0.12127534 0.25806057 0.22282338
000180 db b9 4b be e5 0b b9 bd 78 09 1a be f9 da 7b bd
       -0.19895117 -0.09035472 -0.15042675 -0.061488125
000190 e4 3c 68 3d 93 86 66 be 76 ea 3f bd dc 0b 93 3e
       0.056698695 -0.22512273 -0.04685446 0.28719985
0001a0 fa 83 9b 3e ac 7b 9a 3e 79 98 99 be a0 57 f2 bd
       0.30374128 0.3017248 -0.2999914 -0.118331194
0001b0 3a 28 37 3e 15 f0 47 be e8 3d 1b bd 49 bf 09 bc
       0.17886439 -0.19525178 -0.037900835 -0.008407422
0001c0 47 f5 69 3d 6f ee 7f 3e ed 23 47 3e 9b 0a 65 bd
       0.05711868 0.24993299 0.19447298 -0.055918317
0001d0 79 fb 87 3e 22 42 4d 3b 0f bb a2 bc 39 ca 1b be
       0.26559046 0.0031319936 -0.019864587 -0.1521386
0001e0 30 0c e2 3d 11 8f 81 3d e8 2e 40 bd ad ca e4 bd
       0.11037481 0.06326116 -0.046919733 -0.1117147
0001f0 d3 7e 99 bd 37 40 fe 3c f7 2a 8a bd 4c 17 37 be
       -0.07494893 0.03103648 -0.06746476 -0.17879981
000200 ab 6d 04 be 8f e7 a5 bd 1e e8 4a 3e 75 3c 3d 3b
       -0.1293246 -0.08100807 0.19815108 0.0028875147
000210 95 0b 8a bd 94 a4 8a 3d 1b 1d 40 3e 3c 7c 11 3d
       -0.0674049 0.06769672 0.18761103 0.03551887
000220 3c a0 65 bd 98 c0 56 bd 7c 58 49 3d bd 79 80 bd
       -0.056061015 -0.052429765 0.04915665 -0.0627322
000230 6b 74 98 3e 23 70 5e 3e 44 41 77 be c0 03 cc bd
       0.2977632 0.21722464 -0.2414599 -0.09961653
000240 5a 50 34 3d 1a 06 88 3e 37 be 3b 3e 68 42 8e 3e
       0.04402194 0.26567155 0.1833428 0.2778504
000250 b0 a4 4b bd 76 49 1a bc 8a a0 1f be 4c 71 5b bd
       -0.049717605 -0.0094169285 -0.15588585 -0.053574845
000260 89 fc 82 bd e5 09 48 be d9 78 6c 3e 89 5b 1a be
       -0.063958235 -0.19535024 0.23092975 -0.1507398
000270 90 cb 40 3d 6e c5 2d 3d f5 26 6f be 36 f5 16 3d
       0.047069132 0.04242461 -0.23354705 0.036854945
000280 67 fa 0b bd d6 ae d4 3d a0 74 8b be 6a fc 44 3e
       -0.03417435 0.1038491 -0.27237415 0.19236913
000290 64 2c 80 3e 03 0b 24 3e 38 62 24 bd 41 44 cb bb
       0.25033867 0.16019826 -0.04013273 -0.006203205
0002a0 c1 05 73 3d 2d cc d8 3d 2f 43 dc 3d 52 5b 47 be
       0.05933166 0.105858184 0.10755002 -0.1946843
0002b0 b0 ef 0e be 2c 9e 50 3e 0d 91 56 3d e4 56 10 3e
       -0.13958621 0.20372838 0.052384425 0.14095646
0002c0 18 33 c0 3d 05 77 a9 3d cd 7b 32 3e d7 36 8d be
       0.09384745 0.08274654 0.17430039 -0.27580902
0002d0 85 ef 2b 3e d3 a7 88 3d 60 7f d1 3d b5 4f 8b 3d
       0.16790588 0.06672635 0.10229373 0.06802312
0002e0 0a 2a 12 be ef fe 08 3e 11 56 72 3e 9a 8e 4c be
       -0.14273849 0.133785 0.23665644 -0.19976273
0002f0 e4 51 e5 ba 90 e9 96 bd 58 35 03 be 66 bb 82 3e
       -0.0017495719 -0.07368767 -0.12813318 0.255336
000300 b8 af f0 bc a7 f1 d7 3d 26 83 8c 3e c8 e6 4b bd
       -0.029380664 0.105441384 0.27443808 -0.049780637
000310 df 81 06 be 1e f1 70 3c 9e 63 48 be 5e bc 3b 3e
       -0.1313548 0.014705924 -0.19569251 0.18333575
000320 ea c0 6e 3e 0e 00 8c 3e c0 6f 64 3e 97 03 73 3e
       0.23315778 0.27343792 0.22308254 0.23731838
000330 e2 44 01 be de 7e ef bb 47 71 0c bd 29 13 24 3e
       -0.12623933 -0.007308825 -0.034287717 0.16022934
000340 09 46 93 3d a8 fe 6f be 20 ba 3b be 91 67 d7 3b
       0.071910925 -0.23436987 -0.1833272 0.0065736254
000350 b3 06 97 3e 61 c5 4d 3e 4b 26 7a be 40 2a 5a 3e
       0.294973 0.20094825 -0.2442867 0.2130518
000360 4a c2 13 bd e0 7c 8b be 9d 8b 58 be c3 6e 70 3e
       -0.03607396 -0.2724371 -0.21147008 0.23479752
000370 e5 d2 0b 3d 65 10 2c 3e e9 14 28 3e 55 d5 5d be
       0.03413667 0.16803129 0.16414227 -0.21663411
000380 d4 49 ae bc 66 4b 21 3e bf 99 20 be d6 6a d1 3d
       -0.021275438 0.15751418 -0.1568365 0.102254555
000390 28 73 64 3e d0 f9 61 be 96 b6 4e 3e 09 0d 7d be
       0.22309554 -0.22067952 0.20186839 -0.24712004
0003a0 f0 da 86 3e 4f 8f 20 bd 8d 23 94 bd fa 1e 01 3c
       0.2633891 -0.03919917 -0.07233343 0.007880921
0003b0 29 be e2 bd 08 1b fe bd 40 56 8e 3e b7 05 91 be
       -0.110714264 -0.124074996 0.2780018 -0.28324673
0003c0 a9 5c 7e be 64 ef 22 3e ac 4e 3e be 9e cf 1c 3e
       -0.24840035 0.15911633 -0.18584698 0.15313575
0003d0 b4 73 ab 3c b6 fd 6f 3e ad 67 b6 3d e3 f1 55 3e
       0.020929195 0.23436627 0.08906493 0.20893054
0003e0 91 7a 38 3c 8c 22 f1 bd 42 c7 c9 bd fb b7 6b be
       0.011259691 -0.117741674 -0.098524585 -0.23019402
0003f0 4a 75 03 3e 06 93 b9 bd 03 46 07 be a7 af 0b be
       0.12837711 -0.090612456 -0.13210301 -0.13641225
