logs/model_checkpoint_2500.pth (torch, 597761 bytes, 11 tensors)

actor_body.0.weight f4 [256, 18]
0.080174685 0.038927335 0.07008436 0.007832177 -0.2327497 -0.20692468 0.17630942 0.2191274
-0.007926586 -0.15208454 -0.14364497 0.11056104 0.092305504 -0.14110948 -0.17465235 -0.20664912
0.19479105 0.09915659 0.12741642 0.010186753 -0.18357769 -0.13590257 -0.0067913467 -0.17849286
0.14169517 0.013521411 0.118092716 -0.09866788 -0.027895847 0.14313795 0.0063889283 -0.045254447
-0.16371025 0.1873542 -0.13715848 -0.03978938 0.17416918 0.057007913 -0.026476033 -0.036694396
0.2352334 0.20990612 0.15224122 -0.205334 -0.11320422 -0.1625166 0.06741321 0.18926829
0.07050771 -0.15914752 -0.08203499 -0.15633632 -0.055601247 -0.09387112 0.102176495 0.19953096
-0.014686912 -0.007050409 0.15366249 -0.15230255 -0.10620551 0.09833458 0.22465995 -0.19561361
0.11518051 -0.036971357 0.030295745 -0.11022488 -0.02546712 0.102604814 0.21588416 0.117764786
0.026292441 -0.108512625 -0.2248495 -0.14193423 0.0059273923 0.20562695 -0.042235836 0.20846692
0.12097694 -0.187831 0.20985396 0.12719183 0.09532072 -0.16793403 0.0012727786 -0.18949178
-0.04983966 -0.105135255 -0.18163353 -0.19913445 0.17255822 -0.008675592 -0.008373342 -0.0793234
0.07350888 -0.13491909 0.03259446 -0.22228782 0.05604407 0.06855901 -0.21797909 -0.19228831
-0.08225132 0.02773063 -0.01666475 -0.09028681 0.14583927 -0.15516958 -0.12733327 0.10093201
-0.222796 0.018548042 0.0978928 -0.009211868 0.20424281 0.14201957 0.09152304 0.15386564
0.111532584 -0.22548072 -0.084237814 0.21054149 -0.09450616 0.03168305 0.016091723 0.09416179
-0.08755887 0.111329354 0.14214623 0.11486615 0.22312522 -0.076757334 -0.1351883 -0.2154094
-0.083576046 0.22596864 0.13376468 -0.07588568 -0.1654302 -0.11706697 -0.0062450673 0.20831394
0.08956194 -0.22456872 0.17460619 0.091162 0.007789749 0.009224372 0.074563056 -0.17178918
0.06532731 0.05272388 0.17710283 -0.08264716 -0.045140147 0.16966599 -0.084684566 0.071203336
0.15694138 -0.14330822 -0.027239002 0.18909138 0.034132484 0.22151366 0.09841834 -0.10396852
0.23316424 -0.16606064 0.078053296 -0.14515015 0.21526045 -0.07981557 0.047669575 0.07526618
-0.22013192 -0.14704438 0.19919957 0.094461314 -0.05326128 0.20060012 -0.18935685 -0.17634432
-0.20644668 0.22790919 0.13333516 0.22516516 -0.09708063 0.15712093 0.10989411 0.044214547
-0.033135373 -0.18880339 -0.024551775 -0.16058475 0.2250966 -0.074011944 0.027406607 -0.13749401
-0.21186335 0.16507404 0.067516975 -0.017078718 -0.06066193 0.18292719 0.2303645 0.21031311
-0.10535288 -0.22232725 -0.04497746 0.20644474 -0.06373772 0.015693998 -0.034979217 0.003757223
0.13158114 0.12754942 0.21904422 -0.11147802 0.21151252 -0.02422452 0.22414467 0.179469
0.2002732 -0.19986437 -0.03827358 -0.121358335 0.09712604 0.08699947 0.09126832 -0.040235322
0.19163725 -0.18936054 -0.22560667 -0.02228613 -0.22829838 -0.11585205 0.08699363 -0.013409329
0.12486209 -0.09869617 0.091431044 -0.20106694 0.09083309 -0.13850585 -0.22233747 0.18917121
0.19134745 -0.07975625 0.04719666 0.06374773 0.21919225 0.2053193 -0.012572518 0.11730839
00000000: a032 a43d 4572 1f3d 6488 8f3d 8852 003c
00000010: f055 6ebe 10e4 53be 758a 343e ef62 603e
00000020: 83de 01bc 0dbc 1bbe ab17 13be d46d e23d
00000030: ab0a bd3d 017f 10be 11d8 32be d49b 53be
00000040: 4e77 473e 9c12 cb3d 7379 023e 57e6 263c
00000050: cafb 3bbe 0b2a 0bbe f289 debb d5c6 36be
00000060: 8a18 113e e988 5d3c 98da f13d 6312 cabd
00000070: d585 e4bc c192 123e 375a d13b ba5c 39bd
00000080: a9a3 27be c8d9 3f3e 4673 0cbe 30fa 22bd
00000090: 6859 323e 2181 693d 44e4 d8bc dd4c 16bd
000000a0: 06e1 703e a1f1 563e 1fe5 1b3e 1343 52be
000000b0: 9dd7 e7bd c06a 26be f00f 8a3d 8ccf 413e
000000c0: 5966 903d 91f7 22be f601 a8bd a116 20be
000000d0: 22be 63bd 803f c0bd e941 d13d d851 4c3e
000000e0: 60a1 70bc 1e07 e7bb b359 1d3e 33f5 1bbe
000000f0: 4682 d9bd a463 c93d 420d 663e ef4e 48be
00000100: c2e3 eb3d 476f 17bd c82e f83c 95bd e1bd
00000110: 6ca0 d0bc 7922 d23d bd10 5d3e aa2e f13d
00000120: 3f63 d73c de3b debd f33e 66be 3557 11be
00000130: 923a c23b df8f 523e 7cff 2cbd 5a78 553e
00000140: c2c2 f73d c556 40be f5e3 563e 933e 023e
00000150: 8237 c33d e6f6 2bbe 5dd3 a63a 220a 42be
00000160: ac24 4cbd 2751 d7bd 24fe 39be e7e9 4bbe
00000170: 1ab3 303e 1224 0ebc 5830 09bc 4f74 a2bd
00000180: d38b 963d 3b28 0abe c581 053d 6b9f 63be
00000190: 778e 653d ab68 8c3d e935 5fbe 3ae7 44be
000001a0: 6173 a8bd 592b e33c 8484 88bc 4be8 b8bd
000001b0: e456 153e c6e4 1ebe a763 02be 71b5 ce3d
000001c0: a224 64be 10f2 973c 057c c83d 60ed 16bc
000001d0: 0725 513e 946d 113e 6e70 bb3d f48e 1d3e
000001e0: 326b e43d 6be4 66be e084 acbd 3098 573e
000001f0: 728c c1bd 16c6 013d cad2 833c e6d7 c03d
00000200: 1152 b3bd a500 e43d c88e 113e f23e eb3d
00000210: f07a 643e f332 9dbd cd6e 0abe 4894 5cbe
00000220: eb29 abbd 5364 673e 9cf9 083e f469 9bbd
00000230: 8966 29be cfc0 efbd 6ca3 ccbb 4050 553e
00000240: 406c b73d 58f5 65be f7cb 323e 25b3 ba3d
00000250: 2741 ff3b d221 173c 84b4 983d 81e9 2fbe
00000260: 53ca 853d fff4 573d 725a 353e ea42 a9bd
00000270: e0e4 38bd ecbc 2d3e 1a6f adbd 0ed3 913d
00000280: 3eb5 203e 64bf 12be 5424 dfbc 2ca1 413e
00000290: 81ce 0b3d 7ad4 623e 8e8f c93d 73ed d4bd
000002a0: 9bc2 6e3e cd0b 2abe 68da 9f3d 3ea2 14be
000002b0: 3c6d 5c3e 5876 a3bd 2c41 433d 2825 9a3d
000002c0: 436a 61be cd92 16be f9fa 4b3e ef74 c13d
000002d0: 8028 5abd 1e6a 4d3e c3e6 41be 9b93 34be
000002e0: c266 53be 0761 693e 0389 083e b291 663e
000002f0: 36d2 c6bd 4fe4 203e 2a10 e13d 501a 353d
00000300: f5b8 07bd ad55 41be ce20 c9bc 5470 24be
00000310: b97f 663e 9393 97bd d283 e03c 3bcb 0cbe
00000320: b5f2 58be 2b09 293e 5746 8a3d abe8 8bbc
00000330: a578 78bd 4451 3b3e ace4 6b3e 525c 573e
00000340: 40c3 d7bd c1a9 63be 493a 38bd 4066 533e
00000350: ec88 82bd b390 803c 5e46 0fbd be3b 763b
00000360: 35bd 063e 519c 023e 214d 603e 974e e4bd
00000370: bd96 583e 8072 c6bc 2e86 653e b9c6 373e
00000380: 6b14 4d3e 3fa9 4cbe c2c4 1cbd b88a f8bd
00000390: 04ea c63d c72c b23d e3ea ba3d cbcd 24bd
000003a0: 8e3c 443e bbe7 41be 6f05 67be 6791 b6bc
000003b0: 0dc7 69be d743 edbd b729 b23d cdb2 5bbc
000003c0: b2b7 ff3d 3821 cabd 3340 bb3d 7ee4 4dbe
000003d0: b306 ba3d 7ad4 0dbe 6fac 63be 19b6 413e
000003e0: 96f0 433e 3f57 a3bd 4951 413d 2b8e 823d
000003f0: ef73 603e 393f 523e f6fc 4dbc 623f f03d

actor_body.0.bias f4 [256]
-0.18978572 0.16313276 0.17601657 0.20550391 -0.22238249 0.08709843 -0.117966525 -0.017369026
0.08673215 -0.20482674 0.051805925 0.11213166 0.19927758 0.17480639 -0.044880804 -0.08542371
0.016050953 -0.20902525 -0.037007574 -0.10793153 -0.16846786 0.10154623 -0.18259807 -0.14685266
0.015217681 -0.1387279 0.006656561 0.019563472 0.18369822 -0.19825934 0.20058733 0.118578136
-0.21486455 0.2246555 -0.16107534 0.08828818 -0.075538754 0.18707573 0.10302359 -0.098205246
-0.197079 0.15150791 -0.22139192 0.02006426 0.19193344 0.20040223 -0.15773596 0.0044921795
-0.112666845 -0.19684155 -0.1856084 0.11100547 0.0372901 -0.12501647 0.14456029 -0.02674833
0.10000419 -0.025275972 0.15867648 -0.10358717 0.03796681 -0.23356342 -0.08323525 -0.11437185
0.14706449 0.10006173 0.052151076 -0.12972291 0.08863053 0.0326889 -0.10018396 -0.22767663
-0.013362715 -0.19916564 0.18503685 -0.20361455 -0.12956601 0.0033056617 0.10033721 0.1668265
-0.0919495 -0.23049465 0.078547455 -0.09972658 -0.08991036 -0.044500105 0.040716074 0.062472083
0.06577249 0.09222866 -0.0379665 -0.04130127 -0.05931107 -0.021091998 0.12743047 -0.17210256
-0.10051858 -0.051433485 0.13298315 -0.22849858 0.18601526 0.152331 -0.107555024 -0.10367279
-0.0031468242 0.11794647 -0.17899011 0.05850626 -0.17455888 -0.1956197 -0.11857901 0.1880682
-0.031774875 0.006375835 -0.16577044 -0.043622747 0.008511668 -0.12463413 -0.0293516 0.15013483
-0.18822682 -0.18747252 0.2348015 0.12926556 0.04790439 -0.19155732 -0.10972137 -0.08343452
0.049110014 -0.070297316 -0.20588613 -0.22739169 -0.18511823 -0.06547982 -0.22426622 -0.16582781
-0.11500372 -0.03062244 0.0052627646 0.050395887 -0.14193109 0.23302597 -0.07383976 0.15715387
-0.2237076 0.23382238 0.1730285 -0.14527719 -0.15377346 0.111067116 0.06618435 0.05191514
0.08047609 0.0077820504 -0.05380093 -0.18856874 -0.0012476029 -0.17088938 0.032887552 0.23319428
-0.19678965 -0.0021797507 0.19828069 0.07658605 -0.11482434 -0.12657839 -0.040152237 0.020980082
0.0024190887 -0.19765218 -0.026340628 -0.05667113 -0.19152918 -0.031546693 -0.11951992 -0.10398296
-0.14186399 0.15316491 -0.18823555 0.21370135 0.23342611 0.20259906 -0.09862374 -0.023985181
-0.1345595 0.019283982 0.21590786 -0.07572724 -0.097306706 -0.14412919 0.1978136 -0.051202435
-0.11531948 -0.16287312 -0.077386394 -0.0033133323 -0.100447126 0.12415391 -0.008059545 0.010121172
-0.007135574 0.109842554 -0.10260077 0.0570146 -0.22338183 0.1757073 -0.15826151 0.006034417
-0.01955004 0.1741517 -0.22459227 0.14437786 -0.05542111 0.08136466 -0.21025077 -0.08990625
0.06295933 0.0020503036 0.1223856 0.017728228 0.032332785 -0.07146948 -0.21443027 -0.03869328
0.13474914 -0.18308313 0.19093832 -0.10936579 0.0025036915 0.1923673 0.029105715 0.14814718
-0.05668147 -0.0009384417 0.18137033 0.07636683 0.09676475 -0.1288956 0.16349909 -0.13241553
-0.091333374 -0.15550086 -0.0031481448 0.0625419 0.1985097 0.113537796 0.123133 -0.22033535
0.104361415 -0.23437877 0.117195465 -0.09624311 0.12240684 0.121195115 0.057154387 -0.17842056
00000000: 3057 42be 460c 273e b03d 343e 9e6f 523e
00000010: 3cb8 63be a960 b23d 6f98 f1bd 7d49 8ebc
00000020: a0a0 b13d 1abe 51be 7332 543d 49a5 e53d
00000030: 6c0f 4c3e 7200 333e efd4 37bd a0f2 aebd
00000040: 4a7d 833c b70a 56be 4195 17bd 350b ddbd
00000050: d782 2cbe 78f7 cf3d fdfa 3abe 8b60 16be
00000060: 9553 793c b00e 0ebe 481f da3b 9343 a03c
00000070: 631b 3c3e 7f04 4bbe c466 4d3e 18d9 f23d
00000080: 7405 5cbe 170c 663e eff0 24be 6fd0 b43d
00000090: 10b4 9abd c890 3f3e 08fe d23d d51f c9bd
000000a0: 14cf 49be e424 1b3e 90b4 62be ce5d a43c
000000b0: 338a 443e 3e36 4d3e 8985 21be 2233 933b
000000c0: e0bd e6bd d590 49be 2110 3ebe d656 e33d
000000d0: 81bd 183d 5104 00be 9d07 143e 501f dbbc
000000e0: ffce cc3d 8e0f cfbc 167c 223e 8325 d4bd
000000f0: 1683 1b3d 402b 6fbe 3e77 aabd ca3b eabd
00000100: 1398 163e 2aed cc3d 5e9c 553d 15d6 04be
00000110: ec83 b53d cce4 053d 3f2d cdbd 1024 69be
00000120: 4aef 5abc 14f2 4bbe 4d7a 3d3e 5580 50be
00000130: f4ac 04be cda3 583b 987d cd3d 91d4 2a3e
00000140: 0550 bcbd ca06 6cbe 7ddd a03d 733d ccbd
00000150: ec22 b8bd be45 36bd e6c5 263d bae2 7f3d
00000160: bab3 863d 61e2 bc3d c382 1bbd 852b 29bd
00000170: 2af0 72bd 20c9 acbc 227d 023e a73b 30be
00000180: afdc cdbd ebab 52bd bc2c 083e 88fb 69be
00000190: c97a 3e3e a8fc 1b3e cf45 dcbd 6652 d4bd
000001a0: f33a 4ebb eb8d f13d 2f49 37be 43a4 6f3d
000001b0: 90bf 32be 8850 48be 8dd9 f2bd f394 403e
000001c0: 5f26 02bd 61ec d03b babf 29be c4ad 32bd
000001d0: 8674 0b3c 2e40 ffbd c472 f0bc f2bc 193e
000001e0: 88be 40be ccf8 3fbe ce6f 703e 315e 043e
000001f0: 6537 443d 9a27 44be 99b5 e0bd b8df aabd
00000200: 9527 493d 0af8 8fbd d0d3 52be 5ed9 68be
00000210: a28f 3dbe 491a 86bd 0ba6 65be c4ce 29be
00000220: 1287 ebbd e9db fabc 4573 ac3b eb6b 4e3d
00000230: 6256 11be 5c9e 6e3e 4d39 97bd f2ec 203e
00000240: 9b13 65be 226f 6f3e 622e 313e 8bc3 14be
00000250: ca76 1dbe 2877 e33d a98b 873d f8a4 543d
00000260: a6d0 a43d 9200 ff3b 5d5e 5cbd 2a18 41be
00000270: 9b86 a3ba a0fd 2ebe 19b5 063d 7bca 6e3e
00000280: 3a83 49be 26da 0ebb 180a 4b3e 26d9 9c3d
00000290: 0629 ebbd c49d 01be ac76 24bd 6cde ab3c
000002a0: 9389 1e3b 5565 4abe 4dc8 d7bc fd1f 68bd
000002b0: 3a20 44be 1b37 01bd dcc6 f4bd 05f5 d4bd
000002c0: cb44 11be 43d7 1c3e d2c0 40be 87d4 5a3e
000002d0: 4107 6f3e 2176 4f3e 3efb c9bd 927c c4bc
000002e0: f7c9 09be 71f9 9d3c f316 5d3e e216 9bbd
000002f0: bd48 c7bd 9a96 13be a68f 4a3e a5b9 51bd
00000300: 9f2c ecbd 36c8 26be c27c 9ebd 7e24 59bb
00000310: 39b7 cdbd 6844 fe3d 2f0c 04bc 46d3 253c
00000320: 88d1 e9bb 22f5 e03d 5a20 d2bd 2488 693d
00000330: 35be 64be 9dec 333e 4e0f 22be 5cbc c53b
00000340: 6827 a0bc d354 323e 84fb 65be cad7 133e
00000350: 3f01 63bd 84a2 a63d fa4b 57be c520 b8bd
00000360: d2f0 803d 635e 063b 4da5 fa3d ca3a 913c
00000370: 626f 043d 975e 92bd 9c93 5bbe d87c 1ebd
00000380: aefb 093e 257a 3bbe 5685 433e 2cfb dfbd
00000390: f914 243b effb 443e 1c6f ee3c e5b3 173e
000003a0: d42a 68bd c201 76ba 25b9 393e 3666 9c3d
000003b0: 992c c63d 35fd 03be 4e6c 273e f097 07be
000003c0: fe0c bbbd 9e3b 1fbe 1b51 4ebb f815 803d
000003d0: 2046 4b3e 8186 e83d 282d fc3d 979f 61be
000003e0: 70bb d53d fd00 70be 2d04 f03d 1c1b c5bd
000003f0: 70b0 fa3d 2535 f83d b81a 6a3d e1b3 36be

actor_body.2.weight f4 [256, 256]
0.01363223 -0.029648066 0.041964628 0.006815441 0.045475297 -0.050986752 -0.019839585 -0.0062126294
-0.03872828 0.006938562 -0.004740447 -0.051856995 0.0128145665 -0.05578156 0.033402465 0.0507951
-0.039353743 -0.043521367 -0.0033045337 0.054496832 0.06008543 -0.041725166 0.033381708 -0.041104868
0.045775034 0.04465478 -0.05165097 0.058412023 0.00874725 -0.0340083 0.049598433 0.015218057
0.024009012 -0.02664207 0.061201863 0.029153176 -0.0025949404 0.010591224 -0.039515458 -0.024241522
0.008873925 -0.030291393 0.05349098 0.024216063 -0.055836476 -0.016363986 0.00620088 0.023250028
0.014320374 -0.023948357 -0.0049542785 0.010590561 -0.036906466 0.013064019 -0.027620368 0.058072142
-0.061807327 -0.04950217 -0.026838996 -0.027259335 0.029224448 0.051184356 0.02828841 -0.005762063
0.01118692 -0.019007318 -0.006223209 -0.013497204 -0.06129004 0.051746264 -0.014295749 0.047332905
-0.057569258 -0.04423359 -0.013661645 -0.04495559 -0.045667723 0.005896546 -0.036483973 0.010877997
-0.00034304708 0.019861758 0.0019383952 -0.03152263 0.032805473 -0.0016851723 -0.04922712 -0.057933316
-0.009226888 0.05596158 -0.0023594648 0.05028291 -0.014059581 -0.018345185 0.0006411299 -0.03581564
-0.04808998 0.014569573 0.061867096 0.045378044 0.019793049 0.042255543 -0.04028502 0.023809135
0.044192813 0.023181327 0.04834467 -0.0024162605 0.008995809 0.05349625 0.05146543 -0.017377757
0.0017173886 -0.048954748 -0.022747308 -0.04831177 0.055480495 0.028906047 -0.0027638301 -0.043973558
-0.02069898 0.061971217 0.022163823 -0.04867015 0.03466084 0.0040547624 -0.058496155 -0.040484637
0.003037721 0.009725966 0.026260003 -0.04956962 0.029736169 -0.05558484 0.05140107 0.056629695
0.05345214 0.037975356 -0.013304651 -0.037345715 0.014435329 -0.051387705 0.057530418 5.8986247e-05
-0.051345676 0.014682479 0.019701034 0.023863733 0.0413602 -0.008123122 0.06140431 0.019692339
-0.047556855 -0.03222215 -0.01446715 0.021914765 -0.048635155 -0.016730078 0.022473507 0.05092728
0.026463829 0.033555582 0.059359767 -0.034524493 -0.015017159 0.029059306 0.033981934 -0.016236424
0.051297262 0.022646599 -0.00041090697 0.027996793 -0.033274315 -0.057414092 0.031891897 -0.019196384
-0.05640965 0.0065091774 0.011378169 0.004733667 0.060134582 -0.048546664 -0.051201083 0.051551826
0.0062187836 0.015190974 -0.03134045 -0.04985763 -0.029301368 -0.05611235 -0.03196559 -0.053274825
0.05721061 -0.05870586 0.035601385 0.041025095 -0.06039197 -0.01642114 0.023115471 -0.051558405
-0.019620202 0.059784733 0.006607637 -0.050368957 0.05564665 0.014237866 -0.05563795 -0.02651269
0.027444668 0.023109324 -0.017905794 0.012822904 0.014318325 0.0064810514 -0.054990076 0.027127855
-0.043843433 -0.0026566237 -0.0065305308 0.004631549 -0.051104516 -0.018268287 -0.05996862 -0.00879354
0.035461165 -0.044940643 0.031107172 0.0042345077 -0.025178611 0.0415157 0.0087475255 0.03452798
0.0043169707 -0.0237813 -0.014755607 0.019463673 -0.051939882 0.042968966 -0.010437779 -0.03755699
-0.011767894 -0.05359762 -0.025544368 0.009759977 -0.008284815 0.019368403 0.048837274 0.029537216
-0.043356597 -0.025517434 -0.049138613 -0.033588596 0.009925462 -0.020393342 0.049397573 -0.04710778
00000000: b859 5f3c 80e0 f2bc 1ae3 2b3d 1054 df3b
00000010: 4e44 3a3d 7cd7 50bd a086 a2bc 5093 cbbb
00000020: 8ca1 1ebd e05c e33b c055 9bbb 0068 54bd
00000030: 30f4 513c 347b 64bd 06d1 083d 860e 503d
00000040: 6431 21bd 7643 32bd e090 58bb 1238 5f3d
00000050: 241c 763d 02e8 2abd 42bb 083d 945d 28bd
00000060: 9a7e 3b3d eee7 363d f88f 53bd 7241 6f3d
00000070: a050 0f3c 4a4c 0bbd ba27 4b3d 2855 793c
00000080: 8cae c43c 7840 dabc ceae 7a3d a4d2 ee3c
00000090: e00f 2abb d086 2d3c f6da 21bd 2896 c6bc
000000a0: f063 113c a825 f8bc 5c19 5b3d c460 c63c
000000b0: cab4 64bd c40d 86bc c030 cb3b d876 be3c
000000c0: 00a0 6a3c 582f c4bc 8057 a2bb 0884 2d3c
000000d0: 3c2b 17bd 780a 563c 1c44 e2bc 0edd 6d3d
000000e0: ae29 7dbd cac2 4abd 74dd dbbc f84e dfbc
000000f0: 1c68 ef3c b0a6 513d 18bd e73c b0cf bcbb
00000100: 5849 373c 3cb5 9bbc 10ec cbbb 6023 5dbc
00000110: 440b 7bbd e4f3 533d b838 6abc 26e0 413d
00000120: becd 6bbd 482e 35bd 18d5 5fbc 5a23 38bd
00000130: 140e 3bbd d037 c13b 3870 15bd a039 323c
00000140: 00db b3b9 20b5 a23c c011 fe3a e01d 01bd
00000150: 085f 063d 00e1 dcba 60a2 49bd 7c4b 6dbd
00000160: 602c 17bc f837 653d 40a1 1abb 74f5 4d3d
00000170: 285a 66bc a448 96bc 8011 283a 6cb3 12bd
00000180: 00fa 44bd 38b5 6e3c 5a68 7d3d 54de 393d
00000190: 0825 a23c 2614 2d3d e801 25bd 600b c33c
000001a0: 8603 353d c4e6 bd3c 1005 463d 205a 1ebb
000001b0: 2863 133c e21e 5b3d 6acd 523d cc5b 8ebc
000001c0: 001a e13a c684 48bd 9058 babc 90e2 45bd
000001d0: 843f 633d 60cc ec3c 6021 35bb 9e1d 34bd
000001e0: e890 a9bc 88d5 7d3d e890 b53c 5a5a 47bd
000001f0: 86f8 0d3d d0dd 843b aa99 6fbd 38d3 25bd
00000200: 8014 473b a859 1f3c 381f d73c 8409 4bbd
00000210: 4499 f33c eeac 63bd ee89 523d 8af4 673d
00000220: a2f0 5a3d 0c8c 1b3d c0fb 59bc d2f7 18bd
00000230: 2882 6c3c ea7b 52bd 04a5 6b3d 0068 7738
00000240: d84f 52bd c88e 703c 1064 a13c e07d c33c
00000250: 5069 293d d816 05bc 1683 7b3d d451 a13c
00000260: faca 42bd 60fb 03bd a007 6dbc 9886 b33c
00000270: a835 47bd 840d 89bc 5c1a b83c 2099 503d
00000280: acca d83c 9471 093d 3a23 733d 8e69 0dbd
00000290: 880a 76bc c80d ee3c a430 0b3d 4002 85bc
000002a0: 141d 523d 5c85 b93c 006f d7b9 8859 e53c
000002b0: a64a 08bd 0a2b 6bbd 14a1 023d bc41 9dbc
000002c0: ce0d 67bd f04a d53b 806b 3a3c e01c 9b3b
000002d0: ae4f 763d ded8 46bd 3ab8 51bd 0228 533d
000002e0: f0c6 cb3b 90e3 783c d85e 00bd 8437 4cbd
000002f0: 6c09 f0bc 10d6 65bd 5aee 02bd b436 5abd
00000300: ac55 6a3d 8e75 70bd c2d2 113d ee09 283d
00000310: 925d 77bd a085 86bc a85c bd3c e82e 53bd
00000320: 8cba a0bc d6e0 743d e084 d83b ae4f 4ebd
00000330: beed 633d f045 693c 9ee4 63bd 2431 d9bc
00000340: a4d3 e03c c44f bd3c 2caf 92bc 2817 523c
00000350: 6897 6a3c 005f d43b 463d 61bd 3c3b de3c
00000360: 2c95 33bd c01a 2ebb 10fe d5bb 40c4 973b
00000370: f852 51bd 60a7 95bc a8a1 75bd c812 10bc
00000380: ba3f 113d ae13 38bd 78d4 fe3c a0c1 8a3b
00000390: 6043 cebc 5e0c 2a3d c851 0f3c 366d 0d3d
000003a0: 6075 8d3b 00d1 c2bc 80c1 71bc 4872 9f3c
000003b0: eabe 54bd 3a00 303d 3803 2bbc 5cd5 19bd
000003c0: 20ce 40bc 2e89 5bbd 6c42 d1bc 50e8 1f3c
000003d0: 08bd 07bc 7caa 9e3c 9809 483d 08f8 f13c
000003e0: b096 31bd f009 d1bc 9245 49bd 3294 09bd
000003f0: 689e 223c f00f a7bc 1c55 4a3d 16f4 40bd

actor_body.2.bias f4 [256]
0.057449512 0.02635479 0.05812437 -0.013549715 0.021605387 -0.036568016 -0.051992558 -0.033116646
-0.010607056 0.008673504 -0.060411394 -0.036953755 -0.0041217655 0.008705996 0.03514661 -0.061771892
0.010164835 0.054946385 -0.05598589 -0.061331928 0.024747513 0.017881371 -0.0021861345 -0.04922244
0.038632266 -0.029237293 -0.05900649 -0.040431164 0.035332665 0.021226607 -0.024457261 0.0053158626
0.006744668 0.0012011155 0.06217423 -0.04175572 0.016925506 0.056736708 0.008562736 0.030714616
-0.04413929 0.011539318 -0.03384786 0.043568045 -0.032330506 -0.022477955 0.035399534 0.04314804
0.016289048 0.043862253 0.050350122 -0.06020402 -0.0125419125 0.061709307 0.03211046 0.045379438
-0.036773182 -0.019776992 0.013635404 0.0436828 -0.04521554 0.03174334 0.012842633 0.0045123473
0.027325839 0.022895098 0.022025093 0.05485131 0.0090321675 0.04514593 0.016665563 0.033765316
-0.03402573 0.037522152 -0.023595497 0.0006228462 0.0022253022 0.03760641 0.014718361 -0.050927453
-0.0025480986 -0.047747478 -0.047884993 0.02117768 0.02534426 0.0463837 -0.02490636 -0.039953344
0.01751116 0.015327223 -0.034577385 0.043988816 0.052861303 0.041311294 -0.056151323 0.035372466
-0.044177577 0.003185749 0.044783026 -0.032367036 -0.021554902 -0.03643045 0.040514298 0.02874349
0.012888946 -0.05662191 -0.011584066 -0.043347977 -0.034682676 -0.047409073 0.041545287 -0.011983812
-0.04791326 0.033353917 0.019933797 -0.020798303 0.061950944 0.0188675 0.009236634 0.0349747
-0.044548914 -0.008864209 0.03769245 0.045514345 -0.039826527 0.0025902987 0.005271971 0.03245879
0.023377143 -0.009198159 -0.036742322 0.0041514337 0.053852886 -0.06181732 -0.05876548 -0.034110293
-0.032278344 0.038765185 -0.02670642 -0.0014692023 -0.05674363 -0.016847007 -0.029913515 -0.01593367
0.040768996 -0.0012176037 0.03922776 0.053071626 -0.030108407 -0.00184533 0.060892254 -0.06131372
-0.048245788 0.011370167 0.03148777 -0.0051290095 0.023798324 0.048226327 0.01805289 -0.00070400536
0.0398914 -0.06208022 -0.056427464 -0.060865782 0.033567466 0.02010493 0.047612242 -0.025059864
0.037442297 0.005228214 -0.025766142 0.053720087 -0.057585776 0.06052851 0.051484495 -0.010040067
0.009217948 -0.03487087 0.029935256 -0.057650387 -0.038272098 -0.0421307 0.03851579 0.005886823
-0.014885671 0.060512677 0.018149793 -0.05344355 0.025133573 -0.029136762 -0.042308405 -0.03704256
-0.028024934 0.038350277 0.019474186 0.03558465 -0.011704706 -0.06139139 0.007226661 0.06080234
0.05227893 -0.010349311 0.01700189 0.053742737 -0.021848582 0.046596907 0.0064212605 0.0038401186
0.015973702 -0.038398564 -0.037104093 -0.010119669 0.043246977 0.051175587 -0.017639183 -0.05760616
0.04005035 0.04405143 0.05365388 -0.05108048 0.031665303 0.006942779 0.0076543167 -0.046292603
0.026023537 0.013686225 -0.059346825 0.057929687 0.062040478 -0.011900909 -0.035525702 0.06036757
0.02459959 0.022298612 0.056475326 -0.02945862 -0.06037374 -0.033388056 -0.05593375 -0.042181104
-0.018706761 0.043775007 -0.047623426 -0.033002555 0.050015785 0.05116669 0.043081865 -0.005020924
0.046709485 -0.045545675 -0.0015711337 -0.054987885 -0.039497495 0.008613385 0.020422049 -0.058262594
00000000: 2e50 6b3d 00e6 d73c d213 6e3d a0ff 5dbc
00000010: c8fd b03c 58c8 15bd 26f6 54bd 52a5 07bd
00000020: 38c9 2dbc 501b 0e3c f071 77bd d25c 17bd
00000030: e00f 87bb 98a3 0e3c e4f5 0f3d 8604 7dbd
00000040: 688a 263c 760f 613d 7651 65bd 3037 7bbd
00000050: 4cbb ca3c f47b 923c 4045 0fbb 789d 49bd
00000060: de3c 1e3d 0c83 efbc cab0 71bd 269b 25bd
00000070: fcb8 103d 6ce3 ad3c 985a c8bc b030 ae3b
00000080: 6002 dd3b c06e 9d3a 68aa 7e3d 0c08 2bbd
00000090: 5ca7 8a3c c064 683d b84a 0c3c 389d fb3c
000000a0: 66cb 34bd 680f 3d3c 0ea4 0abd 6874 323d
000000b0: fe6c 04bd b023 b8bc 1aff 103d 00bc 303d
000000c0: 9c70 853c e8a8 333d ee3b 4e3d 7e98 76bd
000000d0: 987c 4dbc e6c2 7c3d 4286 033d cadf 393d
000000e0: 7a9f 16bd 5c03 a2bc 0867 5f3c bcec 323d
000000f0: ee33 39bd 4e05 023d e869 523c 50dc 933b
00000100: 70da df3c 808e bb3c f86d b43c c4ab 603d
00000110: a8fb 133c f0ea 383d 3886 883c 804d 0a3d
00000120: 905e 0bbd d4b0 193d 584b c1bc 8046 233a
00000130: 60d6 113b 2e09 1a3d 4825 713c 4e99 50bd
00000140: 00fe 26bb dc92 43bd 0e23 44bd d07c ad3c
00000150: c49e cf3c d6fc 3d3d 6c08 ccbc 1ea6 23bd
00000160: 9073 8f3c 081f 7b3c 04a1 0dbd 9e2d 343d
00000170: 1885 583d 0836 293d eefe 65bd b8e2 103d
00000180: 8cf3 34bd 00c8 503b 686e 373d 4c93 04bd
00000190: e893 b0bc 1838 15bd 52f2 253d 7877 eb3c
000001a0: 282c 533c 60ec 67bd 18cb 3dbc a68d 31bd
000001b0: 6c0f 0ebd 0430 42bd 642b 2a3d c057 44bc
000001c0: b240 44bd 1e9e 083d 344c a33c 3461 aabc
000001d0: 46c0 7d3d 0490 9a3c 4055 173c a241 0f3d
000001e0: ec78 36bd 303b 11bc 6663 1a3d 406d 3a3d
000001f0: 2421 23bd 00c2 293b 80c0 ac3b 82f3 043d
00000200: 6c81 bf3c e0b3 16bc 1e7f 16bd c008 883b
00000210: d894 5c3d 2834 7dbd 12b4 70bd 3cb7 0bbd
00000220: 4c36 04bd 3ec8 1e3d 6cc7 dabc 4092 c0ba
00000230: 026c 68bd bc02 8abc 300d f5bc 5487 82bc
00000240: 64fd 263d 0098 9fba 4aad 203d a261 593d
00000250: e8a5 f6bc 00df f1ba 286a 793d 1824 7bbd
00000260: 609d 45bd f049 3a3c 52f9 003d 4011 a8bb
00000270: b4f4 c23c f888 453d a8e3 933c 008d 38ba
00000280: 2a65 233d d447 7ebd 7c20 67bd 664e 79bd
00000290: 0a7e 093d 18b3 a43c 0e05 433d 584a cdbc
000002a0: 185d 193d 7051 ab3b 8413 d3bc 9809 5c3d
000002b0: 10df 6bbd beec 773d 68e1 523d 187f 24bc
000002c0: e006 173c c2d4 0ebd c83a f53c d022 6cbd
000002d0: 34c3 1cbd 3e91 2cbd bcc2 1d3d 40e6 c03b
000002e0: 08e3 73bc 24dc 773d e0ae 943c a0e7 5abd
000002f0: ece4 cd3c 38b0 eebc 944b 2dbd f0b9 17bd
00000300: 8c94 e5bc 2e15 1d3d 5488 9f3c 36c1 113d
00000310: 18c5 3fbc 8a75 7bbd a0cd ec3b e00b 793d
00000320: 6e22 563d 2890 29bc 8c47 8b3c 5821 5c3d
00000330: ccfb b2bc 66dc 3e3d 7069 d23b 80aa 7b3b
00000340: 48db 823c d047 1dbd 76fa 17bd f8cc 25bc
00000350: be23 313d 7e9d 513d 0c80 90bc 70f4 6bbd
00000360: d60b 243d 466f 343d 2cc4 5b3d c439 51bd
00000370: 7ab3 013d 4080 e33b 10d1 fa3b 509d 3dbd
00000380: 502f d53c 303c 603c a815 73bd ae47 6d3d
00000390: 281e 7e3d 08fc 42bc 6683 11bd fc43 773d
000003a0: 1485 c93c 94ab b63c ac52 673d 3453 f1bc
000003b0: 744a 77bd eac1 08bd ca1a 65bd 18c6 2cbd
000003c0: ec3e 99bc 6c4d 333d c810 43bd b02d 07bd
000003d0: 5add 4c3d 2a94 513d 9c76 303d 9086 a4bb
000003e0: 7252 3f3d 1a8e 3abd 80ee cdba fa3a 61bd
000003f0: 20c8 21bd 281f 0d3c 244c a73c c2a4 6ebd

actor_output.weight f4 [27, 256]
0.03446883 0.0460324 -0.024324067 -0.04708512 0.05271332 -0.043065667 -0.05278272 -0.005739078
-0.03609319 0.007047832 0.043268055 -0.020703614 -0.03664493 -0.024741866 -0.0076512396 0.006543413
-0.05728461 0.05525575 0.052825615 -0.027178407 -0.0084145665 0.0028236285 -0.055956386 0.060469717
0.062458083 -0.035784677 -0.015218064 -0.014524117 -0.050601207 -0.009128004 0.0026621744 0.014119647
0.05857689 -0.009667985 -0.04230298 -0.038495347 -0.029724643 0.013953611 0.023082376 -0.001885064
-0.043803 0.038230516 -0.026040077 0.0354805 -0.06154891 0.04631702 0.0046936497 -0.011187576
0.032917768 -0.036598742 0.020133898 -0.015624687 0.01355391 -0.005245745 0.014351264 -0.03281554
-0.058313012 0.027187832 0.038157 -0.051561907 0.01067616 0.010921858 -0.03013029 -0.046103418
-0.0012869611 -0.04746008 -0.051887162 -0.0352647 -0.030959599 -0.044360638 0.022742592 -0.014942579
0.025640585 0.014454804 0.051282354 0.008071855 0.024206571 0.019502304 -0.038279116 -0.060214438
0.047714338 0.019154482 0.023126267 -0.037804574 -0.021235682 0.05740585 -0.0149784535 -0.003985785
-0.0114822835 -0.033206 -0.02628357 0.007912271 -0.026546419 0.020647682 0.004988201 -0.001394853
0.022702768 0.052787937 -0.026709698 0.016273186 0.052821867 0.028013505 0.037290655 -0.020068623
-0.011268005 0.04168886 0.056811824 0.05886063 -0.036797255 0.0022805184 -0.056468263 0.020175315
-0.0033628196 -0.02779466 -0.0154712945 -0.0488573 0.054510377 0.026967287 -0.018023998 -0.009712979
-0.025822908 0.01357235 -0.039845668 -0.007499449 -0.0067728907 -0.005581066 0.019507542 0.04865396
-0.023715518 -0.0024814531 0.061166383 0.048123516 -0.046211556 0.0186648 0.039256506 0.0032488778
-0.044305377 0.029476598 -0.019841671 0.049790323 0.017285272 -0.05028087 -0.045549303 0.026291959
0.0078924075 -0.04487203 -0.023136571 -0.03661681 0.05472386 -0.002254352 0.015905708 -0.007527359
0.037996717 -0.04648739 -0.05933331 0.020825587 -0.0575212 0.007532567 -0.05004084 -0.010960244
-0.0088158995 -0.00093863904 -0.05412034 -0.026130177 -0.025569655 0.012787834 -0.044159636 0.030234486
-0.010340288 -0.05226604 0.024872415 -0.051812343 -0.0040385425 -0.060347088 0.061169796 0.05519876
-0.044581436 0.0405963 0.018991329 0.010091126 0.016854025 -0.025034599 0.011460014 -0.05992759
0.002505444 0.030784309 0.01659406 0.04059007 -0.043898173 0.061533242 -0.040110126 0.025123827
0.021097027 -0.0389307 -0.021080576 -0.024208598 0.03511958 0.013333075 -0.010902293 0.046610467
-0.048776694 0.004740663 0.031618983 -0.012617752 0.034133874 -0.049315788 0.033185847 0.034454733
-0.0020357072 0.04805188 0.010084011 -0.033265807 -0.035563298 -0.023364134 0.029647522 0.061929166
-0.0018390864 0.014791839 0.024314262 -0.027647614 0.030165285 0.0114623085 0.027857125 0.045765415
-0.00050806254 0.015513055 -0.008880265 0.0387311 0.024126269 -0.06052707 0.04491458 0.006074235
0.029222615 -0.013665758 0.06006869 0.035292983 -0.0039294586 0.05154735 0.004479617 -0.028531708
0.01586216 -0.04125724 0.034988865 0.048414215 -0.019067854 -0.00039244443 0.05880952 -0.059024103
0.00061359257 0.055936463 0.038982384 0.002487965 -0.053550623 -0.04150787 -0.03067606 -0.03155522
00000000: 302f 0d3d 788c 3c3d 4443 c7bc 54dc 40bd
00000010: ece9 573d a065 30bd b232 58bd e00e bcbb
00000020: 74d6 13bd 80f1 e63b d839 313d a09a a9bc
00000030: fe18 16bd 74af cabc 40b7 fabb 206a d63b
00000040: 44a3 6abd da53 623d ac5f 583d 40a5 debc
00000050: 40dd 09bc a00c 393b 8632 65bd 18af 773d
00000060: 0cd4 7f3d f492 12bd 3055 79bc 90f6 6dbc
00000070: 3643 4fbd a08d 15bc e077 2e3b 1856 673c
00000080: 52ee 6f3d 7866 1ebc e445 2dbd 4cad 1dbd
00000090: 1881 f3bc b09d 643c 4017 bd3c 4014 f7ba
000000a0: c66a 33bd 9a97 1c3d 0052 d5bc 0054 113d
000000b0: b61a 7cbd eab6 3d3d 30cd 993b 184c 37bc
000000c0: c8d4 063d 90e8 15bd d8ef a43c b0fe 7fbc
000000d0: 3811 5e3c 80e4 abbb 9021 6b3c 9669 06bd
000000e0: a0d9 6ebd 04b9 de3c 844a 1c3d 9432 53bd
000000f0: 10eb 2e3c 98f1 323c ccd3 f6bc f0d6 3cbd
00000100: 40af a8ba 8065 42bd a287 54bd b871 10bd
00000110: fc9e fdbc 80b3 35bd ac4e ba3c b8d1 74bc
00000120: 340c d23c d8d3 6c3c 720d 523d d03f 043c
00000130: dc4c c63c 4cc3 9f3c 90ca 1cbd 6aa3 76bd
00000140: 1c70 433d dce9 9c3c 4c73 bd3c f8d8 1abd
00000150: 74f6 adbc 6622 6b3d 3068 75bc 309b 82bb
00000160: 3020 3cbc 0403 08bd a450 d7bc 78a2 013c
00000170: e077 d9bc 5425 a93c 1074 a33b 80d3 b6ba
00000180: 28fb b93c 2a38 583d 4cce dabc 584f 853c
00000190: be5b 583d 947c e53c 16be 183d f466 a4bc
000001a0: 709d 38bc f0c1 2a3d 84b3 683d d817 713d
000001b0: b8b8 16bd c074 153b 444b 67bd b446 a53c
000001c0: c062 5cbb a0b1 e3bc 507b 7dbc 981e 48bd
000001d0: 4646 5f3d 80ea dc3c 10a7 93bc 3023 1fbc
000001e0: 908a d3bc 905e 5e3c 3635 23bd f0bd f5bb
000001f0: 20ef ddbb 60e1 b6bb 48ce 9f3c 6049 473d
00000200: 0c47 c2bc e09f 22bb 9a89 7a3d 2a1d 453d
00000210: 5448 3dbd ece6 983c 6ecb 203d 20eb 543b
00000220: 8e79 35bd e878 f13c 008b a2bc f0f0 4b3d
00000230: d899 8d3c 50f3 4dbd e891 3abd 3c62 d73c
00000240: 284f 013c bccb 37bd e888 bdbc 82fb 15bd
00000250: 2026 603d c0bd 13bb b04c 823c 10a8 f6bb
00000260: 72a2 1b3d 9069 3ebd 7c07 73bd 6c9a aa3c
00000270: 5a9b 6bbd c0d3 f63b a0f7 4cbd 9892 33bc
00000280: 9070 10bc 000f 76ba 4aad 5dbd f40e d6bc
00000290: 7477 d1bc 1084 513c bce0 34bd 50ae f73c
000002a0: 506a 29bc ea14 56bd 3cc1 cb3c 2e39 54bd
000002b0: c055 84bb 822e 77bd 2e8d 7a3d 1818 623d
000002c0: 069b 36bd 4e48 263d b493 9b3c 4055 253c
000002d0: 7411 8a3c 5c15 cdbc c8c2 3b3c a276 75bd
000002e0: 6032 243b 602f fc3c 44f0 873c c641 263d
000002f0: 92ce 33bd 480a 7c3d 844a 24bd 7cd0 cd3c
00000300: acd3 ac3c cc75 1fbd 2cb1 acbc 1c51 c6bc
00000310: 8cd9 0f3d f872 5a3c 889f 32bc 9eea 3e3d
00000320: 12ca 47bd 9057 9b3b e882 013d b0ba 4ebc
00000330: f6cf 0b3d 5aff 49bd e2ed 073d 6820 0d3d
00000340: 8069 05bb 0cd2 443d 6837 253c ba41 08bd
00000350: d2aa 11bd 2466 bfbc 5cdf f23c 70a9 7d3d
00000360: 800d f1ba 7859 723c b42e c73c 407d e2bc
00000370: 301d f73c 68cc 3b3c a034 e43c 8474 3b3d
00000380: 802f 05ba 782a 7e3c 887e 11bc 80a4 1e3d
00000390: 74a4 c53c 3ceb 77bd 5af8 373d 600a c73b
000003a0: 4464 ef3c 58e6 5fbc 960a 763d 608f 103d
000003b0: b0c2 80bb 5023 533d c0c9 923b 54bb e9bc
000003c0: 5cf1 813c 5afd 28bd 7c50 0f3d fc4d 463d
000003d0: 3034 9cbc 00c1 cdb9 40e2 703d 42c3 71bd
000003e0: 80d9 203a a21d 653d feab 1f3d 200d 233b
000003f0: e657 5bbd 2804 2abd 5c4c fbbc 0c40 01bd

actor_output.bias f4 [27]
0.038685657 0.062203407 -0.028067097 -0.031839095 -0.010100022 -0.032584734 0.05183974 0.033820704
-0.036638096 0.028338984 0.004749529 0.014405072 0.02335976 -0.022454023 0.060436897 0.023695543
-0.05327382 0.033080615 -0.01996819 0.013526872 -0.02511213 0.057016045 -0.024845004 -0.054372616
-0.015539572 0.01817315 -0.052530482
00000000: da74 1e3d 00c9 7e3d f8ec e5bc b669 02bd
00000010: 907a 25bc 9277 05bd e855 543d 9487 0a3d
00000020: d411 16bd 2827 e83c f0a1 9b3b 4003 6c3c
00000030: f85c bf3c 80f1 b7bc ae8c 773d 281d c23c
00000040: a635 5abd 8a7f 073d 5494 a3bc d09f 5d3c
00000050: f4b7 cdbc a889 693d c087 cbbc d2b5 5ebd
00000060: b099 7ebc dcdf 943c 342a 57bd

critic_body.0.weight f4 [256, 18]
0.038228337 -0.20736319 0.14946757 0.17958693 -0.21283229 -0.06843139 0.08645904 -0.14129508
0.09496265 -0.11211238 -0.09785237 -0.14072147 0.04105893 0.091963634 0.015255373 -0.22975767
0.02849565 -0.32795626 0.15598288 -0.13538799 -0.115470424 0.024090694 -0.21832511 -0.24459563
0.15524895 -0.012969825 -0.25567535 0.24721237 -0.00803959 -0.36374024 -0.006500471 0.0629259
-0.074541755 -0.117588185 -0.048070088 0.14391784 -0.19539264 -0.07180515 -0.057081882 0.33392912
0.1453812 0.0037003735 -0.103142336 -0.16563004 -0.1492993 0.030792026 -0.22395611 0.12809168
-0.00075330347 -0.041379802 -0.1330966 0.19013682 -0.097986855 -0.1075538 -0.13864218 0.24718313
0.1593507 0.0001933539 -0.16681246 -0.07525815 -0.118393295 -0.039462216 -0.21369602 -0.025206432
-0.17535892 -0.08488412 -0.23637292 -0.0982388 0.025165439 -0.049262524 -0.07764804 0.1127228
0.16619933 0.0031105883 -0.09365975 -0.17875467 -0.11936038 0.060633007 -0.34046978 0.14243732
0.07268321 0.05616525 -0.06945727 0.10467055 -0.084662 -0.008406315 0.007923862 0.36568242
0.013749304 0.12248882 -0.11697295 -0.20421042 0.15283893 -0.15130553 -0.12069402 -0.16809624
-0.07736782 0.11867684 -0.15200305 -0.055887368 0.22981882 0.004623511 0.06705288 -0.06600109
0.02441878 0.04201687 -0.037848562 0.084485605 0.14209868 -0.04974836 0.23462687 -0.038380656
0.17548075 -0.092323616 0.27991608 -0.20888558 0.12578018 -0.1196517 0.09686765 0.1312248
-0.05841968 0.0028654719 -0.0021552877 -0.22181341 -0.12773463 0.1916672 -0.06885637 -0.15261562
0.065473124 0.23291576 -0.09609147 0.10451653 -0.21610616 0.18818451 -0.09424878 0.048185393
-0.23377012 -0.13811044 -0.011121452 -0.13951151 0.007051345 0.27821666 -0.018857472 -0.08782019
0.22534628 0.22024287 -0.24554725 0.11825486 -0.03562585 0.14200592 0.09564096 -0.010886442
0.046465978 0.18989135 -0.08488881 -0.06670129 0.042450655 0.15777682 0.050537582 -0.14090727
0.055292446 0.05118076 -0.15160617 -0.16291651 -0.17697343 -0.24695517 -0.14503667 0.13244204
0.073189616 0.21160713 0.11722016 -0.21393217 -0.08455096 -0.15370418 0.053642277 -0.13183028
-0.0043585603 0.023684017 -0.0071658823 -0.11028198 0.15009199 -0.14312589 0.07041715 -0.081789635
-0.19743693 -0.17098524 -0.35663137 -0.19753669 0.12526783 0.21933228 0.07195565 0.15114352
0.007411493 -0.04685062 -0.124268934 0.24826229 0.19936019 -0.10501234 0.011427417 0.25554276
0.17912999 -0.018654387 0.026753038 0.06382858 -0.0005374479 -0.17477784 -0.040646926 -0.11150353
-0.04802481 -0.21914674 -0.17399259 0.03907962 -0.06526499 0.18284114 0.09585125 0.1577641
0.13969003 -0.12292327 0.031622324 0.2232685 0.11407681 -0.17229141 -0.28708944 0.23152268
-0.16072969 0.21297483 -0.12497228 -0.24661058 0.014587513 -0.13974883 -0.12883785 0.18797356
-0.20894213 0.07461181 -0.19648907 0.18925653 -0.022050269 -0.0021871368 0.1419096 0.089018516
-0.111350216 0.13585481 -0.015524761 0.26615214 -0.16079697 -0.039456837 -0.5261882 -0.13222003
-0.21762754 -0.101962976 0.13802724 -0.011666617 0.14616202 0.083338484 0.21271385 -0.056157555
00000000: 5195 1c3d 0457 54be 070e 193e a3e5 373e
00000010: b5f0 59be c225 8cbd 7011 b13d a8af 10be
00000020: c77b c23d 2d9b e5bd d366 c8bd 4a19 10be
00000030: 692d 283d 6e57 bc3d acf1 793c 9845 6bbe
00000040: b66f e93c e2e9 a7be fab9 1f3e 26a3 0abe
00000050: c27b ecbd d959 c53c 9e90 5fbe 4777 7abe
00000060: 95f9 1e3e 647f 54bc e1e7 82be 3d25 7d3e
00000070: 7cb8 03bc 293c babe e701 d5bb 4bdf 803d
00000080: 59a9 98bd 13d2 f0bd 24e5 44bd 335f 133e
00000090: 0215 48be 940e 93bd b1ce 69bd c2f8 aa3e
000000a0: cfde 143e f781 723b 4a3c d3bd ec9a 29be
000000b0: eae1 18be 8f3f fc3c c054 65be 772a 033e
000000c0: 5779 45ba de7d 29bd 7a4a 08be 3ab3 423e
000000d0: 55ad c8bd 2b45 dcbd 37f8 0dbe 931d 7d3e
000000e0: d42c 233e 0bbf 4a39 e3d0 2abe f220 9abd
000000f0: 2f78 f2bd 22a3 21bd 21d3 5abe b87d cebc
00000100: 4a91 33be bad7 adbd be0b 72be 6d31 c9bd
00000110: c027 ce3c 80c7 49bd f005 9fbd 36db e63d
00000120: 2830 2a3e 03db 4b3b afd0 bfbd 770b 37be
00000130: 3773 f4bd 515a 783d 0e52 aebe 17db 113e
00000140: efda 943d 880d 663d 9d3f 8ebd 835d d63d
00000150: 4563 adbd a4ba 09bc 16d3 013c ba3a bb3e
00000160: c344 613c 6bdb fa3d 848f efbd 891c 51be
00000170: cf81 1c3e d6ef 1abe 6d2e f7bd 6c21 2cbe
00000180: 0573 9ebd d80c f33d b0a6 1bbe 27ea 64bd
00000190: a055 6b3e d280 973b 0553 893d 942b 87bd
000001a0: e509 c83c e219 2c3d 1807 1bbd ca06 ad3d
000001b0: 5182 113e f0c4 4bbd 0742 703e 0935 1dbd
000001c0: 3ab1 333e 2a14 bdbd 2951 8f3e 1ae6 55be
000001d0: 85cc 003e f30b f5bd 8c62 c63d cb5f 063e
000001e0: 7949 6fbd a4ca 3b3b ba3f 0dbb 0e23 63be
000001f0: decc 02be 6844 443e 9204 8dbd 4547 1cbe
00000200: c616 863d 7881 6e3e 9bcb c4bd c30c d63d
00000210: ef4a 5dbe 71b3 403e 8105 c1bd 0c5e 453d
00000220: 6f61 6fbe d36c 0dbe c036 36bc 1bdc 0ebe
00000230: f80e e73b 6a72 8e3e fc7a 9abc 12db b3bd
00000240: 2dc1 663e 5987 613e bd70 7bbe 9b2f f23d
00000250: 69ec 11bd 006a 113e 68df c33d 0c5d 32bc
00000260: 1c53 3e3d e172 423e 2fda adbd b09a 88bd
00000270: bde0 2d3d 3f90 213e 7f00 4f3d ff49 10be
00000280: 557a 623d eba2 513d a63e 1bbe 96d3 26be
00000290: 8638 35be d1e1 7cbe 7e84 14be e39e 073e
000002a0: 70e4 953d 8aaf 583e 2011 f03d 0911 5bbe
000002b0: 0e29 adbd a164 1dbe 01b8 5b3d 84fe 06be
000002c0: 41d2 8ebb fc04 c23c c7cf eabb 85db e1bd
000002d0: b7b1 193e 988f 12be de36 903d 5381 a7bd
000002e0: e82c 4abe c116 2fbe 6398 b6be 0f47 4abe
000002f0: 3646 003e a498 603e 7c5d 933d 5ec5 1a3e
00000300: 1cdc f23b 70e6 3fbd b680 febd 7838 7e3e
00000310: 1425 4c3e b610 d7bd 103a 3b3c 80d6 823e
00000320: da6d 373e 16d1 98bc 3029 db3c 8fb8 823d
00000330: 85e3 0cba f6f8 32be 647d 26bd f65b e4bd
00000340: aab5 44bd 0168 60be 1d2b 32be f411 203d
00000350: a7a9 85bd b53a 3b3e a94d c43d ea8c 213e
00000360: e70a 0f3e 32bf fbbd 6986 013d 7fa0 643e
00000370: 1aa1 e93d 296d 30be 63fd 92be 4814 6d3e
00000380: 5396 24be 1316 5a3e 77f1 ffbd 7c87 7cbe
00000390: 7700 6f3c 511a 0fbe 12ee 03be 247c 403e
000003a0: edf4 55be 14ce 983d 6e34 49be 77cc 413e
000003b0: c4a2 b4bc 1156 0fbb c050 113e 574f b63d
000003c0: 950b e4bd 861d 0b3e 915b 7ebc 1845 883e
000003d0: f6a7 24be 7e9d 21bd 45b4 06bf b064 07be
000003e0: c1d9 5ebe f7d1 d0bd 0357 0d3e 5725 3fbc
000003f0: 7fab 153e 5ead aa3d a9d1 593e 7705 66bd

critic_body.0.bias f4 [256]
0.019278573 -0.2779681 -0.03134649 0.17848216 -0.2331152 -0.10328737 -0.019080106 -0.022822432
-0.07823864 0.00074496545 -0.2799667 -0.07707815 -0.058511797 -0.09780466 -0.24647436 -0.006588581
-0.24756996 -0.2533021 -0.032468256 -0.23504178 0.10344586 -0.045011573 -0.16389531 -0.18927681
-0.3353791 0.13035285 0.07799807 0.0022644186 -0.18985032 -0.1945747 0.1553289 -0.13732342
-0.26331922 -0.094325915 0.108491704 -0.025369875 0.050912563 0.18721129 -0.19564672 -0.007831818
0.010063932 0.17598546 -0.06356612 -0.014913267 -0.04753949 0.14802173 0.025555851 -0.22511636
-0.19928028 -0.079743974 0.017179012 -0.08669355 -0.25927988 0.06028877 -0.08169491 -0.2602351
-0.15532401 0.1671227 -0.2696171 0.11670971 0.054668065 -0.020462433 0.13616608 -0.007262758
-0.033211675 0.051289525 -0.26636818 0.100025296 -0.24782827 -0.22754976 -0.02543158 0.17335351
-0.26018295 -0.11725952 -0.14201134 0.047863305 -0.26024523 -0.2787527 -0.16724117 -0.21928132
0.039715894 -0.0046717324 -0.24453431 -0.23235805 -0.11964553 -0.2663099 0.06074871 0.14581367
0.06646849 0.17407581 0.0010064745 -0.20128308 -0.020846924 -0.21692748 -0.056827657 -0.12126575
0.03487465 -0.14162195 -0.14352526 0.11058618 0.09139726 -0.051616628 -0.02571553 -0.025098074
-0.15148483 0.005883243 0.16267459 0.03659723 -0.022837872 -0.104733095 0.14112176 -0.029065454
-0.08715018 0.057409782 -0.16312863 -0.050550804 -0.19295582 0.15764032 0.11949081 -0.11775904
-0.056491293 -0.22060768 0.15403934 -2.5153991e-05 0.113802396 -0.051730108 -0.23680058 0.002105954
0.17803508 0.084212966 0.09824747 -0.04752718 -0.09035672 0.1721385 0.15964854 -0.016078593
0.0773753 -0.10056924 -0.102753714 0.16168118 0.16932707 -0.12245624 -0.14022765 -0.15355025
-0.027182272 -0.21555145 -0.021858787 0.13648476 0.16331469 -0.0012784277 -0.28268886 -0.09960698
0.19331427 -0.14161597 -0.055801272 -0.26377445 -0.22570977 -0.058985904 -0.20260912 -0.016510857
-0.03465537 -0.083652265 -0.042818855 -0.16544054 -0.23029466 -0.030929815 -0.039826937 -0.2144494
-0.26681176 0.046236627 -0.21803926 0.008082867 0.062030498 0.26498625 -0.17656404 0.027156383
-0.12711993 -0.12131493 -0.048470367 0.023442492 -0.0938598 -0.08187453 -0.06681494 -0.17242885
-0.0028003894 0.12370797 0.12070363 -0.13861059 -0.19055288 0.017175384 0.16091609 0.048717983
0.03392698 -0.028788641 -0.019530378 0.17549057 -0.089019276 -0.023589302 0.12748404 0.023273828
-0.021734321 -0.010061573 0.014806186 -0.24608037 -0.12450973 0.032512646 -0.087662145 -0.13493268
0.10821464 -0.2670957 0.020274278 -0.11727725 -0.022146497 -0.06145389 0.005267833 -0.007440121
0.17394139 -0.12131361 0.0823561 0.13235296 -0.055473294 -0.0052736057 -0.11843636 -0.16831714
0.021090958 0.10710128 -0.040929604 -0.1254959 -0.15882951 -0.017165085 -0.2547509 -0.18153916
0.09076842 -0.021769542 0.13868363 -0.2796766 0.030021919 -0.14288642 0.0501092 0.027304702
0.18254806 -0.08095451 0.08526392 0.10595003 -0.290179 -0.1625396 0.051095307 -0.19685343
0.11179841 -0.24504116 -0.025208982 -0.15668957 0.112530224 -0.031037213 -0.02628702 -0.02837451
00000000: 19ee 9d3c d651 8ebe 2d65 00bd 07c4 363e
00000010: c0b5 6ebe 5488 d3bd e24d 9cbc 1cf6 babc
00000020: 953b a0bd c949 433a cc57 8fbe 26db 9dbd
00000030: 11aa 6fbd cf4d c8bd c663 7cbe 06e5 d7bb
00000040: fb82 7dbe d0b0 81be 6ffd 04bd cbae 70be
00000050: 6cdb d33d 0e5e 38bd 2cd4 27be c8d1 41be
00000060: cfb6 abbe 387b 053e 74bd 9f3d a466 143b
00000070: 1f68 42be 973e 47be 8a0e 1f3e 839e 0cbe
00000080: c7d1 86be f22d c1bd e630 de3d 7cd4 cfbc
00000090: b189 503d 51b4 3f3e 9d57 48be 0751 00bc
000000a0: 31e3 243c 8835 343e f42e 82bd c756 74bc
000000b0: c5b8 42bd 0293 173e 815a d13c e784 66be
000000c0: 2110 4cbe cf50 a3bd 00bb 8c3c 638c b1bd
000000d0: 55c0 84be 5bf1 763d a94f a7bd 893d 85be
000000e0: 420d 1fbe 3722 2b3e 410b 8abe 8005 ef3d
000000f0: 9feb 5f3d d5a0 a7bc 1f6f 0b3e 6efc edbb
00000100: f708 08bd f714 523d 6961 88be 10da cc3d
00000110: b2c6 7dbe ce02 69be e455 d0bc 9583 313e
00000120: b336 85be c225 f0bd 6c6b 11be 500c 443d
00000130: dd3e 85be adb8 8ebe 4541 2bbe 488b 60be
00000140: 22ad 223d 5515 99bb 3467 7abe 45ef 6dbe
00000150: b708 f5bd c559 88be a4d3 783d 2e50 153e
00000160: a220 883d ee40 323e aeeb 833a 271d 4ebe
00000170: 2bc7 aabc 3d22 5ebe 1ec4 68bd 2d5a f8bd
00000180: b9d8 0e3d 5805 11be 49f8 12be 027b e23d
00000190: 7d2e bb3d f56b 53bd 60a9 d2bc 7a9a cdbc
000001a0: d71e 1bbe 38c8 c03b 2b94 263e fae6 153d
000001b0: 7d16 bbbc 4e7e d6bd 3982 103e ad1a eebc
000001c0: cb7b b2bd 8526 6b3d 310b 27be 5c0e 4fbd
000001d0: 3696 45be 776c 213e 99b7 f43d a72b f1bd
000001e0: 6a63 67bd fbe6 61be 7dbc 1d3e c901 d3b7
000001f0: 3b11 e93d f3e2 53bd da7b 72be 0c04 0a3b
00000200: d44e 363e d977 ac3d f835 c93d dcab 42bd
00000210: f20c b9bd 1345 303e e87a 233e 41b7 83bc
00000220: f176 9e3d 3ff7 cdbd 8a70 d2bd c08f 253e
00000230: 1364 2d3e 56ca fabd d697 0fbe 473c 1dbe
00000240: 5bad debc 85b9 5cbe 3311 b3bc a9c2 0b3e
00000250: f73b 273e ea90 a7ba 98bc 90be bffe cbbd
00000260: 2df4 453e c703 11be e08f 64bd 720d 87be
00000270: 7620 67be 349b 71bd c478 4fbe c741 87bc
00000280: caf2 0dbd e151 abbd d362 2fbd 3f69 29be
00000290: 5dd2 6bbe 8660 fdbc 9221 23bd a098 5bbe
000002a0: 8d9b 88be 9e62 3d3d af45 5fbe 006e 043c
000002b0: b113 7e3d 47ac 873e 34cd 34be 1077 de3c
000002c0: ba2b 02be f673 f8bd dd88 46bd 780a c03c
000002d0: 9139 c0bd d5ad a7bd 45d6 88bd 3091 30be
000002e0: bd86 37bb 9b5a fd3d 7733 f73d efef 0dbe
000002f0: 4b20 43be 64b3 8c3c 30c7 243e 828c 473d
00000300: 04f7 0a3d 28d6 ebbc 2cfe 9fbc cdb3 333e
00000310: bd4f b6bd 5a3e c1bc 2d8b 023e c1a8 be3c
00000320: 2d0c b2bc 4cd9 24bc a595 723c 7efc 7bbe
00000330: f5fe febd fb2b 053d 3688 b3bd cb2b 0abe
00000340: a39f dd3d c5c0 88be 3e16 a63c 0e2f f0bd
00000350: 926c b5bc 13b7 7bbd c99d ac3b 42cc f3bb
00000360: b11d 323e 4573 f8bd 51aa a83d 8987 073e
00000370: f737 63bd 36ce acbb c38e f2bd 545b 2cbe
00000380: f2c6 ac3c ea57 db3d cda5 27bd ff81 00be
00000390: 34a4 22be cb9d 8cbc b66e 82be 67e5 39be
000003a0: cbe4 b93d 0a56 b2bc 1503 0e3e c531 8fbe
000003b0: 87f0 f53c d150 12be 4e3f 4d3d 1cae df3c
000003c0: e1ed 3a3e 7acb a5bd da9e ae3d 54fc d83d
000003d0: 5892 94be c870 26be 5049 513d f293 49be
000003e0: 91f6 e43d 12ec 7abe 1183 cebc 3b73 20be
000003f0: 3f76 e63d c141 febc e057 d7bc a971 e8bc
