gym/logs/model_checkpoint_800.pth (torch, 627585 bytes, 11 tensors)

actor_body.0.weight f4 [256, 19]
00000000: 9415 dbbd 9e2d 50bc eba5 92bd c27c b43d
00000010: 8c9a a8bd d224 183e 6971 49be b7ca c8bc
00000020: 73d6 e83d c1f9 e73d a46f ef3c dcb7 c93d
00000030: 3c82 f0bd e9ee 413d ca97 273e ad2f 883d
00000040: e5e0 4ebe 084c a4bd 460b 1b3e c01a 073e
00000050: 92da 31be e874 fd3d 2b9c 003e cc11 e9bd
00000060: dcb6 7f3d e75b a73c 33e5 363d 5345 35be
00000070: d0c9 4b3e 0c26 e5bd 9d02 44bd d444 69bd
00000080: 1845 dfbd 0b7d 34be 4c08 dfbb 9b76 49be
00000090: a398 d7bd 9ff6 1fbd 8ef1 943d 52a1 0d3d
000000a0: 459d 513e a75a 163d 14b4 d63d 4bbc dbbd
000000b0: 7043 543e e534 c8bd cbd8 4dbd 48c4 9b3d
000000c0: 6330 e3bd 1737 44be e840 103d 31fc 653e
000000d0: cca9 46bc eeed a43d 1fe3 21be 4450 ef3d
000000e0: 5db4 b23c c152 3cbe c198 fb3c 00fa 0b3e
000000f0: b038 29bc d417 23bb 1df2 f9bb c3b7 47be
00000100: d959 1cbd 712a 34be 7b55 06be 2ce4 5dbe
00000110: c8d2 173d bf61 db3d ae90 99b9 5a3d 4abe
00000120: a02d 4ebe 9a4a 5fbb 241e 6e3d a0ba 73bd
00000130: 87e2 13bd 91d4 36bd a97b acbd 6b60 68bc
00000140: 2be4 0bbd ca5a a2ba 0187 53be 52fd 893d
00000150: de03 26bd b8bf 0c3e 409e 393d 4f28 443e
00000160: 88d3 61bd 4ece 4f3e fe5b 1a3e 00bb 1a3e
00000170: 820d ec3d 2949 41bd aeeb 3e3e 99b7 a63d
00000180: e550 04be 4523 423e efcf dfbd a4be f6bb
00000190: 3265 613e 9708 3bbe 25b7 5e3d beb5 873c
000001a0: 86fb 17be 66fb 303d f566 153e 94f1 603e
000001b0: 15cf 23be 16e0 17bd f104 133e c4e2 873a
000001c0: a81d 23be 2b94 593e 286a b83d 4ea7 ffbd
000001d0: 199e 5a3e 6a49 9fbd f765 d3bd 5271 373e
000001e0: ceb0 2f3e 60c7 8c3d e754 87bd bc6e a3bd
000001f0: 05cd 3d3e 4753 01be 5cfe 4f3e 1683 5ebe
00000200: 166d 183e 0ae9 36be 4ace fe3c 5d49 313e
00000210: bea8 bd3c fa93 40be e52e f6bd cd0a 0ebe
00000220: d0e6 513e 0321 d2bd 973e 1a3e 311a 143d
00000230: af40 543e 1fd8 373e 3ba7 883d 34f0 1abd
00000240: fa0f 3fbd 87fb 00be a4e0 9e3d a629 1a3e
00000250: ed78 ba3d 9daa 27be c13f 24be 8997 2c3e
00000260: d522 ea3d c801 693e fa20 043e eec1 d63d
00000270: 36ae 2d3e c8ae 05be 599e 2a3c 6a70 c5bc
00000280: caec 67ba 779f fb3c 2cc0 313e dbc6 14be
00000290: e82f fe3d e0d9 0b3d f386 4cbe 8d49 d0bc
000002a0: 1d44 533e 94dd 293e a719 b1bc 89aa 273c
000002b0: a137 3b3e 11d2 933d 0b43 05be 30ba 113e
000002c0: cb94 2d3d 242a 0d3e be34 0cbe 73b7 42b9
000002d0: a82e 9f3c a161 5c3e 58bf 103c 826b 5c3e
000002e0: d1e6 903d 6ada dfbd 240b 64be 74a5 073d
000002f0: 6039 a8bd f31b af3d db5e 31be 87db 15be
00000300: 9d1e 0a3e bfaa 22be e70e 85bd 9488 4cbe
00000310: 7ea2 47be 61af 10be e818 31bd 2a40 b2bd
00000320: 9054 0a3e a017 3abe 65a2 24be 83d8 c7bd
00000330: 20df 5e3e e13d 15be c164 ccbd bc36 84bc
00000340: 4f06 203c 41f8 e0bd 6238 eabc 45e4 643e
00000350: 3a7c 0c3e 3724 1dbe 981e 063e 3d8f 723d
00000360: dd5e 473d f7b3 873c e1ad 5dbe 54af 40be
00000370: fc4b 6a3e b610 cfbd c42a 003e f7bc dbbb
00000380: 032d 063e 9279 32be 35e3 65be da0c 60be
00000390: 0d9d c43d 01b3 adbd 4aec 21be 4fe6 17bc
000003a0: 0260 903d 3220 3ebe e0fb be3d 04b2 30bc
000003b0: 2b5f 613e b4c3 f03d c917 5ebe 443d 103c
000003c0: 54c6 523e f6da 383d 2d2b 063d 2277 383d
000003d0: f88e 0dbd a9b3 eebd 9f93 cf3c 4532 0fbe
000003e0: 2599 90bb 04b1 80bc d444 1abd 0d6d 46be
000003f0: 080a b83d 2c10 8b3d 7547 e03d 5073 9ebd
-0.10697475 -0.0127061885 -0.071605526 0.08812858 -0.082326025 0.14857796 -0.19672169 -0.024510724
0.11369028 0.11326934 0.02922804 0.098495215 -0.1174359 0.047346983 0.16366497 0.066497184
-0.20202978 -0.08022314 0.15141019 0.13193798 -0.17368534 0.12375814 0.12559573 -0.113803476
0.062430248 0.020429565 0.044652175 -0.17702226 0.19901204 -0.111888975 -0.047854055 -0.056950405
-0.109018505 -0.17625825 -0.006806409 -0.1967415 -0.1052716 -0.039053556 0.072726354 0.034577675
0.2047015 0.036707547 0.10483566 -0.107292734 0.2072885 -0.09775714 -0.050255578 0.07605797
-0.110932134 -0.1916164 0.03521815 0.22459485 -0.012125444 0.08053194 -0.15809296 0.11685231
0.02181452 -0.18390943 0.030712487 0.13669586 -0.010328457 -0.002488603 -0.007627739 -0.19503693
-0.038171623 -0.17594315 -0.13118546 -0.21669072 0.03706625 0.10712003 -0.0002929023 -0.19749966
-0.20134592 -0.0034071566 0.058134213 -0.05950415 -0.036104705 -0.044636313 -0.08422024 -0.014183144
-0.034153145 -0.0012386676 -0.20656969 0.0673777 -0.04053103 0.1374501 0.045316935 0.19156002
-0.055133373 0.20293543 0.15074155 0.15110397 0.11526014 -0.04718891 0.18644592 0.08140487
-0.12921484 0.18958767 -0.10928332 -0.0075300504 0.22011259 -0.18264996 0.05437388 0.016566154
-0.14842042 0.043208502 0.14590056 0.21967155 -0.15996964 -0.03707894 0.14357354 0.0010367264
-0.15929282 0.21247928 0.09004623 -0.12483083 0.21349372 -0.077776745 -0.103221826 0.17914322
0.1715729 0.06873965 -0.06607991 -0.07980105 0.1853524 -0.12629424 0.20311874 -0.21729693
0.14885363 -0.17862335 0.031104226 0.17313142 0.023151752 -0.18806449 -0.12020663 -0.13871308
0.20498204 -0.10260203 0.15062939 0.03615779 0.207278 0.17953537 0.06672522 -0.03782673
-0.046646096 -0.1259595 0.077576905 0.1505495 0.09105096 -0.16373678 -0.16039945 0.16854681
0.11432425 0.22754586 0.12903205 0.10486208 0.16960987 -0.13054955 0.01041373 -0.024101455
-0.0008847235 0.030715687 0.17358464 -0.14528982 0.12411481 0.03414333 -0.19973354 -0.025425697
0.20631452 0.16588432 -0.021618677 0.01023353 0.1828294 0.07217801 -0.13013856 0.14231181
0.04237823 0.13785607 -0.13691995 -0.00018569622 0.019431427 0.21521617 0.008834682 0.21525386
0.07075275 -0.10930331 -0.22269875 0.033116773 -0.082140684 0.08550253 -0.1732134 -0.14634524
0.1348824 -0.15885447 -0.06496983 -0.19973975 -0.1949558 -0.14129402 -0.043236643 -0.087036446
0.1350882 -0.18173075 -0.16077574 -0.09758093 0.21764803 -0.14574386 -0.09980155 -0.01613938
0.009767129 -0.10984851 -0.028591339 0.22352703 0.13719264 -0.15345846 0.13097608 0.059218634
0.048674453 0.016565306 -0.21648361 -0.18816882 0.22880548 -0.10110609 0.12516314 -0.006705876
0.13103108 -0.17429188 -0.22449954 -0.21879902 0.096002676 -0.08481408 -0.15812793 -0.009271218
0.07049562 -0.18566969 0.09325385 -0.01078463 0.2200896 0.117560774 -0.21688761 0.008803669
0.20583469 0.045130692 0.03275602 0.04503549 -0.034560174 -0.11655361 0.025338946 -0.1398402
-0.0044127875 -0.015709408 -0.037663296 -0.19377537 0.08986288 0.06790194 0.10951129 -0.07736838

actor_body.0.bias f4 [256]
00000000: 5e4d 223c 81b0 71b9 c57d 02be c754 60bd
00000010: d386 3cbe 6568 413e f18e 0abd 0d05 c4bd
00000020: 7794 bebc e5f9 243e f6f5 9fbd ca5c 5b3e
00000030: 80f4 63be 853f 1f3d 6531 5d3e 1c94 0c3e
00000040: ad08 5bbd 2837 2e3e d3c5 f43d 76d4 453e
00000050: 9b52 44be c502 073e 9265 e03d 2edc 2d3e
00000060: e173 1cbe 4772 9dbb ee81 4c3e c899 31be
00000070: 06b8 233e e36a 453e 2474 21bd 9890 69bd
00000080: 2177 60be a289 c7bd 7333 863d 685f 55be
00000090: f52c 0e3e aedb 45be be34 173c 5f16 0ebe
000000a0: c573 453d eee0 57bd a500 59bd 5b8a fd3d
000000b0: 0628 55be 1988 673e ec3d 653d 05fd 313e
000000c0: a2c1 813d ff1c 973d d965 11be d4aa ef3c
000000d0: 7827 f4bd 439a 61bd 79ea 5fbe 2256 00be
000000e0: 1b6f 5d3e f95a a4bd 336c ee3d 8c32 41be
000000f0: 8b60 42be f621 3dbc 53a8 d3bb 6e77 2c3e
00000100: d3a5 8abc 4f14 183b a017 a43b 0335 d73d
00000110: e432 423e d51b 0cbe 2519 cd3d 19f9 cc3d
00000120: c663 d1bd 19c8 563d 8ccb a43d 4cd6 bd3d
00000130: edd6 5b3e 8f4f e23d 1634 95bd 2c57 073e
00000140: 1a30 ccbd c047 48be 489c 52be d292 00bd
00000150: 2f04 cdbd 5df6 183e c3d5 bf3d c9c6 37be
00000160: 48bd 0a3e e96e 303b 9569 263d 0761 a1bd
00000170: 2981 2bbe ac1c e1bd dadd 153e ae09 3c3e
00000180: 3ee7 52bd 13c3 36be b659 923d 0e82 ad3d
00000190: 83d6 d1bd 737e 9fbd fa6b e13d fc79 fa3d
000001a0: e674 543e 3983 61be fb59 21be 4d55 113e
000001b0: 8429 2d3e ec5c bd3c 3e6b 03bd b5ea 513e
000001c0: 6566 4bbe 704f 06be 47c6 49be 078d 26bc
000001d0: d3da 4bbe bb5d 31be b0bd 57be 2334 9e3d
000001e0: c494 acbc ceda f1bd 8471 363e 4b8a 343e
000001f0: 719a 0abe 1b6b 1abe 35b7 87bd ad2a 18bc
00000200: 4fe6 2dbe cec0 90bd 9594 cfbd f341 e5bd
00000210: c952 4c3a 92ce e2bd 01af 563d d4ed 10bd
00000220: 8ab1 16be 174a 4e3e 5ce3 443e f281 e1bd
00000230: feb7 0b3e e08e 833d 4c8b 153e 43cb ed3d
00000240: daf2 343e 2d4f 713d 2488 5ebe 2590 5cbc
00000250: 0d53 af3d c9fb 3cbe 2d16 e4bd 5fef 423d
00000260: 4f7b 203c 01cd 51be d04e 3c3e 08e2 d93d
00000270: b799 f9bd 8132 173d 9d73 073e c614 03be
00000280: 7164 5a3e d94c ce3d 9f00 05bc e89b af3c
00000290: 0c7b e53d 0946 3c3e f09f 993c 3005 c9bd
000002a0: 0e8e 57bd 362d d63b 2a04 18be b7be 373c
000002b0: 7de4 fe3c 00a8 23be c98d 0bbe e6df ecbd
000002c0: d3a5 ee3d 864a 2bbd 2e6b b1bd f545 63be
000002d0: b43a 9c3d b286 04be 5110 8a3d bf0d 913c
000002e0: 200d 023d fa4b 483e 456e 3dbd b3c7 bc3d
000002f0: 8b90 49be 21ca b4bd 7800 36be 4149 223e
00000300: c726 e6bb 8581 c73d 5536 fbbd fbba bb3c
00000310: 7f5f 87bd f874 753c 3751 6d3d 9bc0 dd3d
00000320: 4daa 69be 50dc 8a3d 6f22 04bb 46cd fc3d
00000330: 0616 343e 122f 913c 5e52 d13d c3b2 2cbe
00000340: da57 5dbc 6af5 90bd e6b3 633e 5f2f 25be
00000350: bc10 d8bd 5e66 d4bd a060 0dbe 49be 183e
00000360: 8cdd ec3d 2853 0a3e 22c2 7abd 80d9 66be
00000370: ee2b 23be 1153 84bb 4e53 41be 5801 b63d
00000380: 18f3 a1bc 01a5 35be da32 1e3e 6c35 4abd
00000390: f3d0 e1bd 6c37 e9bd e858 613e 5842 5bbe
000003a0: 165a 0e3d 9bca 88bd 7d2e ae3d 8ccd 55bc
000003b0: a8e1 a1bb ac8a 7a3d daa7 653d 9e87 fd3d
000003c0: be11 e93d 1b98 89bd 1f24 2f3d 7e6f 4bbe
000003d0: 782b 78bd 5901 58be 3313 c83d 1f30 9bbd
000003e0: 4c52 273d d580 00be 1027 9a3d bc5c f83c
000003f0: 60bd f83d 1b8a a53d 348e 953d b31b 0dbe
0.009906141 -0.00023049304 -0.1274329 -0.05476835 -0.18410806 0.1888748 -0.033827726 -0.09571276
-0.023264153 0.16110952 -0.07810585 0.21422115 -0.22261238 0.038878936 0.21600874 0.13728374
-0.05347507 0.17013228 0.119517945 0.19319329 -0.19172136 0.1318465 0.10956873 0.16978523
-0.1527858 -0.0048048827 0.19971439 -0.17343819 0.15988168 0.19279055 -0.0394174 -0.05702266
-0.21920444 -0.09743048 0.06552782 -0.20837176 0.13884337 -0.19322082 0.009228883 -0.13875721
0.04820611 -0.052704744 -0.05297913 0.12379905 -0.20816049 0.22610511 0.055967256 0.17381676
0.06335761 0.073785774 -0.14199008 0.029256262 -0.119215906 -0.055078756 -0.21866788 -0.12532857
0.21624415 -0.08025164 0.11641731 -0.18866938 -0.1898214 -0.011543741 -0.006459275 0.16842434
-0.016924774 0.0023205464 0.005007699 0.10508158 0.18964726 -0.13682492 0.100145616 0.10008449
-0.102241084 0.05243692 0.08046636 0.092693895 0.21468706 0.11050331 -0.07285325 0.13216847
-0.09970112 -0.1955862 -0.20567429 -0.03139002 -0.100105636 0.1493773 0.09366944 -0.17946924
0.13548768 0.0026921576 0.040628035 -0.078798346 -0.1674849 -0.10991797 0.14635411 0.18363068
-0.05149006 -0.17847852 0.07146017 0.084720716 -0.10245993 -0.0778779 0.11006923 0.12230298
0.20747718 -0.22022714 -0.15756981 0.14192696 0.16910368 0.023115598 -0.032084696 0.2049969
-0.19863279 -0.1311624 -0.19704543 -0.0101654595 -0.19907694 -0.17320912 -0.21068454 0.07724788
-0.02106703 -0.11809312 0.1781674 0.1763088 -0.13535477 -0.1507992 -0.06626741 -0.009287518
-0.16982387 -0.070680246 -0.10135762 -0.111942194 0.00077943184 -0.110745564 0.05241299 -0.03538306
-0.14716163 0.2014545 0.19227356 -0.11011113 0.13644406 0.064237356 0.14603919 0.11611035
0.17670766 0.0589134 -0.21731621 -0.013462101 0.085607626 -0.18455423 -0.11137042 0.047591563
0.009795024 -0.20488359 0.1838944 0.10638815 -0.12187522 0.0369134 0.13227697 -0.12800893
0.21327378 0.10073251 -0.008117824 0.021436647 0.1120511 0.18386091 0.018753022 -0.098154426
-0.05262571 0.0065361513 -0.14845338 0.011214904 0.031114811 -0.15982056 -0.13628305 -0.11566143
0.11652722 -0.041819118 -0.08663021 -0.22194655 0.07628384 -0.12942007 0.06741393 0.01770675
0.0317508 0.19560233 -0.04624774 0.09217777 -0.19684045 -0.088276155 -0.17773616 0.15848257
-0.0070236656 0.09741501 -0.122662224 0.022916308 -0.06610011 0.014981501 0.05793878 0.10827752
-0.22818871 0.067803025 -0.0020162126 0.1234384 0.17586526 0.01772264 0.102207884 -0.16865067
-0.013509715 -0.07078059 0.22236595 -0.16131352 -0.10550067 -0.103710875 -0.13806391 0.14916338
0.11565694 0.13508284 -0.061220296 -0.22543907 -0.15934727 -0.0040382226 -0.18879434 0.08886975
-0.019769236 -0.17738725 0.15449086 -0.049367353 -0.11026182 -0.11387524 0.22006571 -0.21412027
0.03475388 -0.06679269 0.08504961 -0.0130494945 -0.0049402304 0.061167404 0.05606828 0.123793826
0.11380337 -0.06718465 0.042759057 -0.1986675 -0.06058833 -0.21094264 0.09769287 -0.07577538
0.04084997 -0.12549146 0.07526982 0.030317657 0.121454954 0.08082982 0.07302514 -0.13780098

actor_body.2.weight f4 [256, 256]
00000000: 600f d93b 9066 cabb 9008 e83c f036 75bc
00000010: 0086 beb9 70a6 6d3d de6b 4a3d 3c7f f43c
00000020: e218 593d 5805 69bc 9a16 643d 589f c13c
00000030: 4ebc 0bbd 441a 903c d054 b43b 744c f43c
00000040: ea7f 733d e89a 3a3c 426f 07bd 06e6 5b3d
00000050: 82da 7d3d 108b 99bb b0f4 c6bc 6809 7b3c
00000060: 00ec 61b9 949a 57bd ded6 6fbd a0ba b5bc
00000070: 001e 653c cab1 423d d84a 513c 10ba b1bb
00000080: 1ec1 3bbd 781e d1bc a6f4 1abd 00a6 2eb9
00000090: 7030 5f3d 5236 56bd f8fc e8bc 7aa5 353d
000000a0: cc0f 5cbd 70f6 2a3d eeb4 523d 5a99 6fbd
000000b0: 70ba c7bc 0cf0 cbbc 1225 3cbd b86f 51bd
000000c0: 0098 c8b9 1e9d 5e3d 1e75 393d 5849 22bc
000000d0: c8ed f83c 508f 403c 7c3a f83c c043 d33c
000000e0: b8a8 44bc a45b 62bd 5482 c13c dcaf ccbc
000000f0: 701b 2f3c 488d 973c 94f2 6f3d c029 4e3b
00000100: c065 7dbb 8ebe 30bd 46be 20bd 0030 53bc
00000110: 4642 183d 90a4 163d 9839 c6bc faed 053d
00000120: a6a6 4e3d 16a3 28bd 486c 8abc 1025 773d
00000130: bc3a fdbc 3483 aabc e8b9 15bd fc63 8b3c
00000140: 62c5 77bd 2014 5d3d 1054 3bbd e0d7 57bc
00000150: 7a2a 1b3d 18b8 c93c 5ed4 2c3d 9055 2e3c
00000160: 1ae6 72bd 8851 2dbd e00b 31bc 502f d6bc
00000170: b076 b23c d8e6 4bbd a835 09bc 64a6 1ebd
00000180: b8b3 243c a817 81bc 4017 aa3c b0ae 2dbd
00000190: 0c7e 873c 922f 583d 60eb bbbb 5096 603d
000001a0: 68a4 0cbd 4437 143d a0c3 953b c08d f53b
000001b0: 302e c83b 2029 f23c e054 a63c ce7e 363d
000001c0: 9475 47bd 00bb d83b 7882 6a3d 9455 f8bc
000001d0: e26e 613d 9a03 42bd 2e1e 05bd 904d a9bb
000001e0: 4c9e 0e3d cc0a a03c 7c17 f73c 1ce5 cbbc
000001f0: 84b5 33bd 6c5f f83c 9ccb 8e3c 00fe 91ba
00000200: ceee 72bd b487 28bd 7426 343d 4871 e6bc
00000210: 58c3 e0bc 5c49 f7bc 40ba 4d3c b264 0a3d
00000220: 004b 8eb9 8c77 633d 5e31 7fbd a09a 423d
00000230: 506c 583c dc35 d63c 08f5 45bc f05a 503d
00000240: 58f9 183c fc28 8ebc ecfe f6bc 3806 77bd
00000250: b2ee 07bd 1c62 d9bc 50ec 04bc b040 d63b
00000260: b087 0abc ec7d a2bc c09f 823a c62d 6abd
00000270: 5610 1d3d fa15 1b3d 08e6 543c 969d 1bbd
00000280: 1c70 5b3d a8ed 783d 92f6 53bd 12f7 1d3d
00000290: 16a3 2fbd 1409 75bd 8c76 cd3c 16bf 163d
000002a0: a001 383d 764a 75bd e88f 1e3d 04c8 5b3d
000002b0: b20b 33bd a85b b43c 2c64 e33c 4ae0 223d
000002c0: 4871 2ebc f6c5 16bd d44d 8dbc 70d8 b3bc
000002d0: f8b0 8bbc d4b4 1bbd 409a 63bd 1095 ddbc
000002e0: 501a 5cbd 80df fc3b b243 16bd 14f9 2b3d
000002f0: 5e1c 20bd 40d2 093b 7426 90bc 2438 773d
00000300: 48f5 2e3d 8cec 3fbd ac8d cbbc c0a4 5a3d
00000310: ba09 53bd 88c0 2f3c f83c 023c 0090 9eb8
00000320: 5a66 483d 7028 f4bc a878 963c 204d 57bc
00000330: 70f8 8ebb 80c1 a13b 083a bcbc e4c1 c83c
00000340: aa89 33bd fcca c0bc 022d 0dbd 88f6 373d
00000350: e4d3 73bd 58cc 0dbd 2099 13bd 9044 43bc
00000360: ac4b d13c 2e37 2dbd 3cdb c8bc a4cd a33c
00000370: 46f9 153d 0014 bcbc f087 bc3c a860 37bc
00000380: 64eb 943c a05f 723c cc23 adbc 88cd 183c
00000390: 2091 373c 3065 623c dc3f 97bc 504a 6bbc
000003a0: c029 18bb dcb7 073d aaae 7a3d d2fd 713d
000003b0: 5aeb 2abd 1c70 f73c 8603 0cbd 482d 92bc
000003c0: b44c 793d 5c49 d73c dc6c 703d 28a5 25bc
000003d0: 0621 4f3d 9e43 7d3d 40b2 55bb 9829 dc3c
000003e0: 40dc 86bc b2e3 65bd 8e06 763d ea82 57bd
000003f0: 4070 a33a 9026 b03c 6076 7cbc 30e3 333c
0.0066241473 -0.006176777 0.028324395 -0.014966711 -0.00036339462 0.058020055 0.049419276 0.029845826
0.053002246 -0.014222465 0.055685617 0.023635551 -0.03411513 0.01759065 0.0055032745 0.029821612
0.05944816 0.011389472 -0.033065088 0.053686164 0.061975963 -0.004685767 -0.024286598 0.015322067
-0.00021545589 -0.05263765 -0.058554523 -0.022183716 0.013984203 0.047532834 0.012774192 -0.0054237917
-0.045838468 -0.025527224 -0.03783097 -0.00016655773 0.054489553 -0.052297898 -0.028440937 0.044347264
-0.053726003 0.041738927 0.05144208 -0.058495857 -0.024380893 -0.024894737 -0.04593379 -0.051131934
-0.00038260221 0.054349057 0.045277707 -0.009905182 0.03038682 0.011752918 0.030301325 0.025789142
-0.012003116 -0.055263177 0.023621716 -0.0249862 0.010687694 0.018499985 0.05858095 0.003145799
-0.0038665384 -0.043150477 -0.03924396 -0.012889862 0.03717258 0.036778033 -0.024197385 0.032697655
0.050451897 -0.041171156 -0.016897336 0.06033808 -0.030911796 -0.020814516 -0.036554247 0.01701545
-0.060490973 0.05397427 -0.045734465 -0.013174027 0.037882306 0.024623916 0.042194717 0.010640517
-0.059301473 -0.042314082 -0.010806054 -0.026145607 0.02178511 -0.049780697 -0.008374609 -0.0387329
0.010052614 -0.01575835 0.02076304 -0.042402923 0.016539596 0.05277974 -0.005734846 0.05483085
-0.034336478 0.036185518 0.0045704395 0.0074937046 0.0061090216 0.029560626 0.020304143 0.044554524
-0.048696116 0.006614089 0.05725333 -0.030314244 0.055037387 -0.047366716 -0.032499485 -0.005166717
0.034818932 0.019536398 0.030162565 -0.024889521 -0.04387428 0.030318938 0.017431073 -0.001113832
-0.059309773 -0.04114504 0.043981984 -0.028130189 -0.027436897 -0.030186348 0.0125566125 0.033787437
-0.0002714023 0.05553393 -0.06230294 0.047510743 0.013209417 0.026148729 -0.012082346 0.050867975
0.009336792 -0.017353527 -0.030150853 -0.060308665 -0.033186622 -0.02653604 -0.008112982 0.006538473
-0.008455202 -0.019835435 0.0009965822 -0.05717256 0.038345657 0.037862755 0.012994297 -0.037992083
0.053573713 0.06077352 -0.05174882 0.038565703 -0.04288014 -0.05982311 0.025080942 0.036803328
0.044923425 -0.059885465 0.03871146 0.053657547 -0.043712325 0.022016361 0.027757727 0.03976468
-0.010647126 -0.036809884 -0.017249025 -0.021953791 -0.017052159 -0.038014248 -0.055567026 -0.027048618
-0.05373603 0.007717073 -0.036685653 0.041985586 -0.039089553 0.002102986 -0.01759646 0.060356274
0.042714387 -0.046856448 -0.024847828 0.053379774 -0.051522948 0.010727055 0.007949106 -7.560849e-05
0.048925735 -0.029804438 0.01836808 -0.013140947 -0.004363112 0.004936397 -0.02297689 0.024506517
-0.04383246 -0.02353429 -0.03446675 0.044912845 -0.059528247 -0.034618706 -0.036034703 -0.011918202
0.025548778 -0.04228895 -0.024518602 0.019995518 0.03661468 -0.022958755 0.023014039 -0.011192478
0.01817865 0.014793307 -0.021135233 0.009326346 0.011204034 0.01381807 -0.018463068 -0.014360979
-0.0023218244 0.033134326 0.06120173 0.059079953 -0.041728355 0.030204825 -0.034183048 -0.017843857
0.060864165 0.026280098 0.058697566 -0.010110177 0.050568603 0.061832063 -0.0032607466 0.026875302
-0.016462445 -0.05612535 0.060064845 -0.052615084 0.0012469366 0.021502763 -0.015409082 0.010979459

actor_body.2.bias f4 [256]
00000000: 3c86 a43c ae3a 163d 50e4 533d 0200 0c3d
00000010: 7033 acbc 5022 d7bc 90e5 c7bb bcfb 883c
00000020: d064 a5bc 0e16 5e3d b0be 60bc 5c6b 0a3d
00000030: d08a 11bc 5454 ccbc 402d 363b d0e8 2fbd
00000040: 6c6b 3f3d f638 483d 8035 6ebc 789f 193d
00000050: b0d2 4f3c f470 5f3d 4446 6c3d 0001 0ebd
00000060: 54a5 a43c f0ef 8a3c 30cf af3b d000 c6bb
00000070: 6839 793d de79 113d dc61 95bc 4ee9 23bd
00000080: c290 6e3d 2841 393c 6478 0cbd 56ad 25bd
00000090: c424 95bc 3cba 8dbc 4642 3a3d 0087 38bb
000000a0: 5851 963c 8039 acbc d248 663d 78f2 7dbc
000000b0: a8d6 9ebc 68fb 4dbc 04be 00bd e086 7fbb
000000c0: 7ef1 49bd 6ce6 efbc 1067 503d 8030 0e3a
000000d0: 30fc e43c eea8 12bd 6023 c73b 8692 5d3d
000000e0: 602b aa3b 30f3 cdbc 004d 0f3d 28d1 0d3c
000000f0: 8093 6abc 20cb ff3c 181d fcbc 0ce7 cd3c
00000100: 1063 003c 8433 97bc a81c 6abd 4016 cf3a
00000110: 6ca3 6abd d480 e33c 1068 ef3c 3896 263c
00000120: c4cf b03c d6e7 40bd a04f e13b 9afa 13bd
00000130: 4072 2fbd 444a 8f3c f433 e73c ae0f 49bd
00000140: 78e9 6f3d 50ea 143d b0d7 a23b 40d5 8fbc
00000150: 1082 20bc 80be c1bb 585d 243d d092 9dbc
00000160: 4893 cabc 0ed2 193d 607c a1bb be05 203d
00000170: dce3 b0bc bc5f be3c 7c62 6e3d a6d8 3f3d
00000180: facf 0dbd 48f6 f23c 60b0 c9bb 243e a83c
00000190: 700b 043d a4a0 673d 1ccf adbc 8408 983c
000001a0: f6c0 0b3d 0075 9cbc 504f 753c c8e0 00bc
000001b0: 0892 5cbd d8bc f63c bcee 12bd ba62 36bd
000001c0: bc28 34bd 385d 983c cc7f e53c 283a 0b3c
000001d0: 0cdb 58bd ce54 49bd c080 c23b 9043 1b3d
000001e0: b23d 783d 783d 5dbd 62cf 403d e0b1 d4bb
000001f0: f2ef 1ebd a8fe e7bc 5636 21bd 6c25 0e3d
00000200: d6d0 353d da9c 693d 9aec 503d 04c1 e73c
00000210: 2059 5bbb 6074 d4bb 80e1 5b3c 28d7 fe3c
00000220: 38b9 2c3c 5ce0 8f3c 90bc b9bb a2f5 0ebd
00000230: 1612 773d 729d 113d 6065 fdbb cc53 c93c
00000240: c05a 43bb 44ba 733d 6051 633b 98b7 babc
00000250: 28bb 103c 401d 92bb 9470 413d 6090 97bc
00000260: 2a78 243d 1cee 9e3c 20df 09bb dcd6 6bbd
00000270: a405 ec3c 9cd1 e43c 26ad 3ebd 007d c33b
00000280: 8c7d 383d 164f 70bd c0c7 bf3a a84a 25bc
00000290: d0f3 0e3c e0bb 9bbb cc3a 9f3c a8fe 6fbc
000002a0: 1054 503d f8a3 113c 40b5 1abd 4817 99bc
000002b0: e06e 02bd 742c 44bd cca2 27bd a00d 0b3b
000002c0: fc77 b8bc d093 0dbd 28e8 263c f629 233d
000002d0: 56e9 3ebd 9893 82bc 1a79 3e3d 087f 463c
000002e0: d097 123d f2f1 57bd 488c adbc eae5 4cbd
000002f0: 685c 7dbc 5a10 09bd e027 89bc 2073 6d3d
00000300: 80b4 f7ba 8083 57ba 0c80 803c 7064 5ebd
00000310: 4ca0 25bd 3647 303d a00e 973c fec8 25bd
00000320: 5252 3ebd fa95 123d d666 573d 803d 773a
00000330: 9c86 a53c a076 433b 08ed 863c 0020 b2ba
00000340: 0063 de3c 846e 36bd 34fa 7e3d f4a6 73bd
00000350: 1e95 483d d084 fe3c d090 4dbd 3c91 3e3d
00000360: 8419 8f3c eadc 123d 60b0 6dbd 6032 1f3b
00000370: 98d2 77bd 3a10 013d 00c7 213d 98fb 43bc
00000380: 165d 51bd ac4c 4fbd a01c 5cbd 0ce3 ab3c
00000390: 1c73 163d 8849 1b3d c004 5bbb 10cb bcbb
000003a0: 400c cd3c ba20 11bd 3245 5fbd 5067 203c
000003b0: 5a1a 66bd f2ca 283d fae0 70bd 78dd 9fbc
000003c0: 48cf 56bd e063 c1bb 78ac fc3c 282b 8f3c
000003d0: 2071 103c bcda 57bd f41f 223d 6add 0e3d
000003e0: 90b9 a63b 7819 01bd 00d6 bfb9 5ee9 55bd
000003f0: c81e 383c 6e8c 3d3d 8a54 76bd 1456 3fbd
0.02008354 0.036677055 0.051731408 0.034179695 -0.021020621 -0.026261479 -0.006100364 0.016721599
-0.020189673 0.05422025 -0.013717338 0.033793792 -0.008883193 -0.024942555 0.0027797967 -0.042946637
0.046733305 0.048882447 -0.014539123 0.037505597 0.012684509 0.05455108 0.057684198 -0.034668922
0.020098366 0.016960114 0.005365275 -0.0060425773 0.060845762 0.035516612 -0.01823514 -0.04001742
0.05824352 0.011307038 -0.0342945 -0.04044851 -0.018206008 -0.017300718 0.04547336 -0.0028156638
0.018349335 -0.021023512 0.05622179 -0.015499704 -0.019389465 -0.012572147 -0.031431213 -0.0038990304
-0.04930257 -0.029284678 0.050879538 0.0005424097 0.027952284 -0.035805635 0.006077215 0.054094814
0.005193159 -0.025140375 0.034985542 0.008655824 -0.014317393 0.031224787 -0.030775592 0.025134586
0.007836118 -0.018457182 -0.057156235 0.0015799478 -0.057284757 0.027771391 0.029224426 0.010167651
0.021583445 -0.047096096 0.006875947 -0.036127664 -0.042833567 0.017491467 0.028223015 -0.04908722
0.058572263 0.03635627 0.0049695596 -0.01755774 -0.009796634 -0.005912602 0.040128082 -0.019235045
-0.024728432 0.03755384 -0.0049281567 0.039067976 -0.021593027 0.02323901 0.05819939 0.04683747
-0.03462217 0.029658452 -0.0061550587 0.020537443 0.03223747 0.056549683 -0.021216922 0.018558748
0.03411957 -0.019098759 0.014972523 -0.007866092 -0.053850204 0.030119345 -0.035872206 -0.044527747
-0.04398416 0.018599138 0.02801504 0.008497752 -0.052943274 -0.04915314 0.0059357584 0.03790623
0.060605712 -0.0540137 0.047072776 -0.006490931 -0.03880305 -0.028319672 -0.03935846 0.034703657
0.044388615 0.05703435 0.05100689 0.02829028 -0.003346987 -0.0064835995 0.013420463 0.031108454
0.0105422065 0.017563038 -0.0056682304 -0.034902222 0.060319982 0.035550542 -0.007733032 0.02457609
-0.002980873 0.05950381 0.0034685954 -0.022792622 0.008833684 -0.0044590533 0.047226503 -0.01850146
0.04015366 0.019400649 -0.0021037534 -0.057577953 0.028811283 0.02793198 -0.046551846 0.005965829
0.045041606 -0.058669172 0.0014631674 -0.0100886 0.008725122 -0.004752621 0.019437216 -0.014648117
0.05086142 0.008889191 -0.03777051 -0.01868786 -0.03184402 -0.047893956 -0.04092674 0.0021217838
-0.02251815 -0.034564793 0.010187186 0.03983494 -0.046609245 -0.015939519 0.04650221 0.012115248
0.03578931 -0.05272097 -0.021185055 -0.05002395 -0.015463926 -0.03346286 -0.016742647 0.05797112
-0.0018898398 -0.0008221194 0.015686058 -0.054295003 -0.040436074 0.043036662 0.01843959 -0.040474884
-0.046465226 0.03578756 0.052588306 0.00094314665 0.020205788 0.0029825345 0.016470447 -0.0013589859
0.027146816 -0.04453899 0.06225033 -0.05948539 0.048970334 0.03106919 -0.050186932 0.046525225
0.017468221 0.03585521 -0.058029532 0.00242915 -0.060503572 0.031509615 0.03949642 -0.01196184
-0.051114164 -0.05061023 -0.053738236 0.020982288 0.03673087 0.03791192 -0.003341958 -0.0057615116
0.025030255 -0.0354316 -0.05450935 0.009790257 -0.056177475 0.04120917 -0.058808304 -0.019514784
-0.052443773 -0.0059017986 0.030843958 0.017476633 0.008816034 -0.052698836 0.039581254 0.034879126
0.0050880387 -0.03151843 -0.000365898 -0.05222451 0.011237808 0.046276502 -0.060139216 -0.04671295

actor_output.weight f4 [54, 256]
00000000: 1c4b 393d 803f 11bb 38e2 28bd 485d 0dbc
00000010: 5062 7f3d 0819 1d3c 84e9 fabc 5645 4dbd
00000020: d6e3 63bd 1e0a 24bd 6074 ffbc b896 2d3c
00000030: f069 edbb 10cf c7bb 04d4 053d 0c06 a8bc
00000040: 0008 56bd f0bb ec3b 9a5e 6ebd 8c6c a73c
00000050: 0cf1 1a3d 7657 67bd 2025 143c 8292 4e3d
00000060: 7477 a53c 984d 9b3c 74ff 16bd 066a 2c3d
00000070: 72e1 25bd 1e62 26bd 4e95 143d f840 50bc
00000080: c045 08bd d013 723d 68f5 eebc 34d2 793d
00000090: de6e 3abd 187b 533d 0c95 bb3c be8d 6abd
000000a0: b837 ce3c 50c8 d6bc 7849 1dbd 54eb 51bd
000000b0: f0ed b0bc 6a99 57bd 4a06 253d 641d aabc
000000c0: 28ae 7b3c e836 81bc 1ea1 46bd 7499 3e3d
000000d0: 0af6 1cbd e8fa 5cbc 54f4 913c 50dd 68bc
000000e0: 1006 f4bc 82f0 6f3d 00a2 cb3b 0a2a 0ebd
000000f0: 64af 84bc c0ad 963b f83e d73c 300c f73b
00000100: 944e 9e3c 3e08 2bbd c055 63bb 1cf3 1bbd
00000110: d0dd 38bc ec76 553d 00e1 e7bb 0098 0b3a
00000120: 74e0 c53c 4877 213d 340f 883c c04b 3cbc
00000130: 3833 cb3c 9888 283c 8052 573a 1838 c4bc
00000140: 48f9 5f3c 684e 083d e007 863b b07e e93c
00000150: 1059 2dbc 0c81 acbc 7810 9dbc 4c7d 523d
00000160: 9012 48bc f474 2abd 4cd5 f9bc 8e04 6dbd
00000170: 208c 513c 7008 cbbc 3a26 5e3d 848b 933c
00000180: c000 a33a d0e4 1d3d b0a0 6a3c c04c 38bc
00000190: 9e69 073d 3e41 32bd 1825 bc3c f4fa e93c
000001a0: f405 a83c 6853 233c 8c14 363d 74f1 7a3d
000001b0: c856 9a3c 7494 e53c 7c0a a9bc 943a 693d
000001c0: 48a8 b63c b052 983b d655 07bd a459 6ebd
000001d0: ca23 423d a009 15bb f861 863c 1a5c 77bd
000001e0: 7cd9 b23c 4077 91bb 703a debc fcdf 7a3d
000001f0: 0030 8fbc d8fa 2cbc b0c8 313d a68c 27bd
00000200: 906c 5b3c 7086 be3c 4411 9cbc 68b1 c4bc
00000210: 08dc 323d 80b1 e2bc 0cde 57bd d0d0 03bc
00000220: 3e8a 3abd 2c8a 51bd e23e 073d e80b 05bc
00000230: 4cf4 a73c f07f 4bbc b6ca 253d f040 8cbc
00000240: 3ce6 35bd 7056 91bc 92a9 1abd d22e 2cbd
00000250: ec87 8fbc 525a 6dbd 46dd 793d 54d2 bc3c
00000260: 225d 043d 8cff 3a3d c042 0c3c 7885 b43c
00000270: 2c99 52bd ea60 073d 4cef 4d3d f8c4 afbc
00000280: b4a9 30bd b0f4 9dbc 2071 2bbc 00f6 d53a
00000290: 78d0 31bc 68b7 2f3d 00b2 6eb9 9c87 84bc
000002a0: da28 30bd c40a 643d 6cf4 f23c 686f 523c
000002b0: 9004 da3c 38aa bd3c 9abd 41bd 80af 46bb
000002c0: 6012 7a3b a651 0cbd 8897 1bbc f893 273d
000002d0: 649c e13c 102d 483c e83e 0a3c 5c6e ae3c
000002e0: 7e12 063d 94d4 b2bc b46f 353d aa5f 2a3d
000002f0: dc4f fbbc 82d0 313d 5471 953c 52a2 36bd
00000300: 48c7 5e3d 3608 53bd 806d db3a 82be 5b3d
00000310: 80a0 b1ba 9235 7d3d fc9e de3c a071 a1bc
00000320: 7058 1ebd 3470 d63c a8dc 613c 7670 5cbd
00000330: 1095 e2bc 58a2 2bbc 0422 88bc d681 4ebd
00000340: 6077 79bd 5c44 0a3d e6f9 48bd d642 243d
00000350: 2a15 6cbd 2a0e 713d 209f 1d3c 308f a4bc
00000360: 726b 6d3d d0ec cebb 0009 96ba d47b 163d
00000370: 6a6f 743d 8436 febc c242 43bd 2c48 853c
00000380: f050 90bc 70f6 5ebd cc92 223d e69b 413d
00000390: 62bb 36bd d8b8 42bd 6c5c 3dbd 7807 6bbc
000003a0: 8038 ef3c 4848 543d a4aa e2bc 6475 38bd
000003b0: dc1b 123d e6b7 4e3d 40f5 e73b 2887 893c
000003c0: 50a4 113d bea9 1c3d 7803 7f3d b685 663d
000003d0: 22b9 523d e0ed b53b 60d1 4a3c 0002 ed39
000003e0: 94d6 903c d237 243d 9ae7 3bbd 1c21 65bd
000003f0: ca76 11bd 7c59 fe3c 2802 67bd 4829 4dbd
0.045237646 -0.0022163093 -0.041231364 -0.008628197 0.062349617 0.009588487 -0.030628927 -0.050114952
-0.055637203 -0.04004871 -0.031183422 0.010595016 -0.0072452947 -0.006097682 0.032672897 -0.020510696
-0.052253723 0.0072245523 -0.058195688 0.020437501 0.037827536 -0.056479894 0.009042054 0.05043269
0.020198561 0.018957898 -0.036864713 0.0420933 -0.040498205 -0.040620916 0.0362752 -0.012710802
-0.033269644 0.059100926 -0.029169753 0.06099148 -0.045515887 0.051631063 0.02289822 -0.057264082
0.025173053 -0.026218563 -0.038400143 -0.051249817 -0.021597832 -0.05263654 0.0402892 -0.020765968
0.015361346 -0.015773252 -0.048493497 0.046533063 -0.03832058 -0.013487555 0.0178167 -0.014212921
-0.029788047 0.058578975 0.0062143803 -0.03470806 -0.016196914 0.0045983493 0.026275143 0.0075392947
0.019324578 -0.041755907 -0.0034688562 -0.038073644 -0.011283353 0.052115366 -0.0070763826 0.0005325079
0.02415488 0.039420396 0.016608812 -0.01149267 0.024804696 0.010286473 0.00082138926 -0.023952529
0.013670273 0.0332779 0.0040902942 0.028502792 -0.010580316 -0.021057628 -0.019172892 0.051389024
-0.012211457 -0.04161544 -0.030497216 -0.05786567 0.012789756 -0.024784297 0.054235674 0.018010862
0.0012436137 0.03854829 0.014320537 -0.011248767 0.03305971 -0.04351925 0.022966906 0.028562047
0.020510651 0.009968616 0.04445319 0.061265424 0.018840209 0.02802489 -0.020634882 0.05694063
0.02229704 0.004648529 -0.033040844 -0.058190957 0.047397412 -0.0022741333 0.016404137 -0.06039057
0.02183222 -0.0044392645 -0.027127475 0.061248764 -0.017478943 -0.010557853 0.04340428 -0.040905617
0.013392583 0.023257464 -0.019051202 -0.024010375 0.04366687 -0.02767253 -0.052701995 -0.00804539
-0.045541994 -0.05115716 0.033018954 -0.008120514 0.020502232 -0.012420639 0.040476523 -0.017120808
-0.04440902 -0.017741412 -0.03775937 -0.04203684 -0.017520867 -0.057947464 0.06100204 0.023049511
0.03231538 0.045653865 0.008560836 0.0220363 -0.051415607 0.03305141 0.05027704 -0.021456227
-0.04313059 -0.019281715 -0.010463983 0.0016323924 -0.0108529255 0.04289952 -0.00022763759 -0.016177945
-0.04300771 0.05567433 0.029657565 0.012843944 0.026613504 0.023152456 -0.04729996 -0.0030317008
0.0038157925 -0.034257554 -0.009496577 0.0409126 0.027540393 0.012217775 0.00843785 0.021292858
0.03273248 -0.02182988 0.04429598 0.04159514 -0.030677728 0.04341174 0.018242516 -0.044588394
0.05438927 -0.051521502 0.0016741008 0.05364848 -0.0013551861 0.061818667 0.027175419 -0.019707501
-0.03865856 0.02617655 0.013785519 -0.05381819 -0.02765897 -0.0104757175 -0.016617782 -0.05041679
-0.06090486 0.0337566 -0.049066447 0.040102802 -0.05763737 0.0588514 0.009620458 -0.020087808
0.057963796 -0.0063148513 -0.0011446774 0.036739185 0.059676565 -0.031031854 -0.047671087 0.016269766
-0.017616719 -0.05443424 0.039690778 0.047267817 -0.044612296 -0.047539562 -0.04623072 -0.014345042
0.029201746 0.051826745 -0.027669258 -0.045033827 0.0356711 0.050468348 0.0070787966 0.01678808
0.03555709 0.038247816 0.062259167 0.05627986 0.051446088 0.0055520386 0.01237902 0.00045205653
0.017680444 0.040092297 -0.04587517 -0.05593978 -0.035513677 0.031048529 -0.05639854 -0.050088197

actor_output.bias f4 [54]
00000000: fa86 553d e81e 7fbd 903b ce3c a872 cfbc
00000010: 2451 8b3c 0808 4dbc 307f f23c 0e18 45bd
00000020: 78f3 5b3c 36fc 48bd a057 983b 8cfe e43c
00000030: 18f1 00bd ac32 843c 4adb 653d 001d 553d
00000040: 286e 32bd d8bd 04bc 402b c43c 9a6d 233d
00000050: b065 793d 6678 50bd 1426 e73c 70f1 e5bb
00000060: 94d4 24bd e090 05bd 0cc1 543d 403a 33bb
00000070: 24ee 46bd c035 703d b683 59bd 30c6 973c
00000080: f046 7e3c 86c9 15bd 1002 553c a255 46bd
00000090: f4c6 1c3d 606e 1bbc 4862 083c 10b2 97bb
000000a0: 4881 033c 4c77 76bd d08f ecbc d035 c6bc
000000b0: 4cb6 6bbd b4f8 bebc 9881 c83c 9aaa 70bd
000000c0: a405 9f3c a03b 313d 1436 cd3c ac57 3abd
000000d0: e8dc 093c 00b7 243b
0.052130677 -0.062285334 0.025174886 -0.025323227 0.017006464 -0.012514122 0.029601663 -0.048118643
0.013424747 -0.049068652 0.0046491176 0.027953409 -0.031479925 0.016137443 0.056117333 0.05202961
-0.043562084 -0.008101903 0.023946404 0.039899446 0.060887992 -0.05089607 0.0282164 -0.007017307
-0.040241793 -0.032608867 0.051941916 -0.0027347952 -0.048566952 0.05864501 -0.053104125 0.01852712
0.0155198425 -0.03656914 0.01300098 -0.04842151 0.038275674 -0.009486765 0.008324213 -0.004629381
0.0080264285 -0.060172364 -0.028877169 -0.024195582 -0.0575469 -0.02331195 0.024475858 -0.05875645
0.01941187 0.043269753 0.0250502 -0.045493767 0.008414485 0.002513349

critic_body.0.weight f4 [256, 19]
00000000: 3a4a a9bd 001b 2ebe 566c 58be ae6f 0b3e
00000010: 4694 a63d b5c5 573d 39d8 2dbd cc52 14be
00000020: fe52 3ebe 1ee5 a63b 0650 a4bd 9531 15be
00000030: e605 8e3a fd56 e4bc 7e68 dbbb 9dea 0e3e
00000040: 130e 4ebe 8c4b ffb9 15ee 4ebd bfd8 b4bd
00000050: 2233 bfbd 8aeb 263d cd6c a23e 32e7 3e3d
00000060: ca53 af3b 997b ac3b 3864 9b3e 0bd3 e9bd
00000070: 5477 50be 3282 00be 2e40 bc3d 1d6b 86bd
00000080: 23d5 e7bc 025d 16bc ade3 1f3e 9a9d 113e
00000090: 4063 66bd 2d41 b43d c8be a7bd 2e9d b33d
000000a0: a0d3 703d 554d 053e e093 90bd 364f 38bd
000000b0: 445f 02bb 71c4 6c3b d3b3 9b3c 92d4 fd3d
000000c0: 4eab 5f3e d74b 96b9 05eb 25bd 43c2 5bbb
000000d0: 52d6 e5bb 1542 30bd 5435 b0bd 2a74 dc3b
000000e0: c402 95be 684f 713d 0b3e b9bd e6e3 e03d
000000f0: f2be c9bd 0e26 ba3d 16ef dfbd 3811 e03c
00000100: 01e9 07be f848 33be 46fb 60bd 3483 32bd
00000110: 3e7c 10bd 4d86 5d3c 5d87 aebc 3a7d 01bd
00000120: 6930 cc3c bf97 cabd 043c 863d 352b 18be
00000130: f167 abbb d934 313b 6055 0fbe 176d 933d
00000140: 6459 97bd d70e c2bd c690 fbbc 8161 71bd
00000150: b01c 053e 8d5d 8fbd 286c e8bd 5b79 7b3b
00000160: d44d 83bd 87fa 19bd 8655 a1bc 9eff 1b3d
00000170: b117 643d a019 803d 482c 033d 44a7 843c
00000180: 68ff fabd 3634 b43d 4630 22be 9d19 80be
00000190: 07ac 85be 5c13 0ebe 3572 6dbe 7c34 4e3e
000001a0: b2c5 2f3e d112 603e 4e83 d93c 4d96 a43d
000001b0: 2753 b63d ccb3 113d 61fd 3b3e f944 273e
000001c0: a489 cbbd 59b9 ae3d 2781 97bd 0629 e2bb
000001d0: edcc 733e b993 b13d 6598 32bd f6d9 7b3e
000001e0: a43c 823e 6659 ebbd cc02 453e 756e 203e
000001f0: f077 0abe 9446 02be 3707 83bd 9d47 04bd
00000200: e234 c2bc b36b ecbd c4dc 6b3e 9e42 ab3d
00000210: e730 2b3e ef32 3c3e a24f 023e 0968 093c
00000220: ef80 6f3e 5848 f3bc 1c18 5cbe bf4a b8bd
00000230: a9a5 603e 4fb9 3d3d b7c5 133e 57b6 a8be
00000240: 6bd2 c1bd 18e4 09bc 0ea4 3bbd 7766 8abd
00000250: 9f0f 4cbd a82d c7be d565 04be a026 b03c
00000260: 37fd d1bc d83f 05be 46ea 09be 9ad7 34bd
00000270: 572b 5ebc 39d2 a5bd d7a9 143e 07ac 353e
00000280: fbb1 24be 761f f6bc 6b10 243e 3aba 38be
00000290: 2685 703e 8d4a 42be f0ed 73bd ba74 b93d
000002a0: 4c10 9c3d df0c acbc 7a58 82bc 00d8 0d3d
000002b0: 1dcc 683e 8f78 29bd 75f8 09bd ed80 61bc
000002c0: b80f ddbd f0e9 2a3e de47 e63d a50d df3d
000002d0: 907d 01bc 0ace 31be 782a b0be 7794 4b3d
000002e0: 8526 6b3a 1664 fdbb 6732 a9be 7d2d 9fbe
000002f0: 4647 a3be b52f 003c 5d8c ba3c c730 09bd
00000300: aec4 4dbd 58af 943e dc9e 1fbc 74f6 0f3d
00000310: e2d9 793d 2bef abbd 7bf2 80be d3dc 823d
00000320: ee9d f3bd 01e7 e2bd 09a1 09bd d065 e5bb
00000330: b602 373b 14c8 b3bc 97c9 c33d 04ba 913c
00000340: 6d59 4ebe b413 babd d9ac 38be a84b e53d
00000350: db09 6d3e c7db 22be 160d 4cbe bb22 463e
00000360: f813 8cbd 59a9 293d 00b3 cfbd 221c 1c3b
00000370: 656d 453e cb75 6f3d df74 cc3d bdfc 49bd
00000380: 0a22 ef3c 161d 5fbe 8b23 0d3e e237 2f3e
00000390: f1ae 67bd af6e d8bc da77 20be 81c6 23be
000003a0: 10c6 523e 6777 343d 9634 5bbe f3e4 663d
000003b0: 9d18 8cbe f41a 7dbe 7187 8e3c 86ed 29be
000003c0: 0d19 fdbd 4620 bbbd a9df 793d f526 843d
000003d0: aaf4 a6bd 961f 56bd c642 8c3d 58f1 babc
000003e0: a973 9fbd 073b 5dbe f8e0 973d 3ebd 0dbd
000003f0: 09cc 163d 22a7 32be 1f1d dbb8 ac51 a23d
-0.08266111 -0.17002487 -0.21135077 0.13616821 0.0813375 0.052678782 -0.042442534 -0.1448471
-0.18586347 0.005093231 -0.08023076 -0.14569695 0.0010835498 -0.02787351 -0.006695806 0.13956685
-0.20122556 -0.00048693677 -0.05052002 -0.088304035 -0.09335925 0.04075197 0.31723633 0.046607204
0.0053505646 0.0052637574 0.30349898 -0.114172064 -0.2035802 -0.12549666 0.09191929 -0.06563399
-0.028299874 -0.009177448 0.15614195 0.14220276 -0.056246996 0.08801494 -0.081906855 0.08770214
0.05879557 0.13017781 -0.07059455 -0.044997416 -0.0019893209 0.003612783 0.019006645 0.1239406
0.21842691 -0.00028666735 -0.040507335 -0.0033532537 -0.0070140744 -0.04303177 -0.086039215 0.006727715
-0.29103673 0.05891362 -0.09045037 0.10980968 -0.09850873 0.090892896 -0.10934274 0.02735196
-0.13272478 -0.17508304 -0.054927133 -0.043582156 -0.035274737 0.013520789 -0.02130478 -0.031613566
0.024925428 -0.098922245 0.06554416 -0.14860232 -0.0052308966 0.0027039556 -0.13997412 0.071985416
-0.07390097 -0.09475487 -0.030708682 -0.058930878 0.12999225 -0.07000265 -0.11348754 0.0038371894
-0.06411329 -0.037592437 -0.019694101 0.038085572 0.055686656 0.062548876 0.03202465 0.01619304
-0.12255746 0.08799021 -0.15838727 -0.2501954 -0.2610781 -0.13874573 -0.23188098 0.20137209
0.17165259 0.21882178 0.026551869 0.0803648 0.08902579 0.03557186 0.18358375 0.16334905
-0.09938362 0.08531446 -0.07397681 -0.006901863 0.23808642 0.08670754 -0.043602366 0.24594864
0.2543689 -0.11491661 0.19239348 0.15667136 -0.13522315 -0.12722236 -0.063978605 -0.03229486
-0.023706857 -0.115439795 0.23033434 0.083623156 0.16717874 0.18378805 0.1272569 0.00838662
0.23389028 -0.029697582 -0.21493572 -0.08998632 0.21938194 0.046319302 0.14430891 -0.32951614
-0.09463962 -0.008416198 -0.04581075 -0.06757825 -0.049819585 -0.3890202 -0.12929471 0.021502793
-0.025633438 -0.13012636 -0.13468274 -0.044150926 -0.013560138 -0.080967374 0.14517914 0.17741404
-0.16083519 -0.030044299 0.16021888 -0.1803979 0.23488292 -0.18973751 -0.059553087 0.09055467
0.07620296 -0.021002231 -0.01591133 0.03462982 0.22734113 -0.04137474 -0.033684213 -0.013763648
-0.10794014 0.16690803 0.11244176 0.10891274 -0.007903472 -0.17363754 -0.344074 0.049702134
0.00089702784 -0.0077328784 -0.33046266 -0.31089392 -0.31890315 0.007823874 0.022772009 -0.033493783
-0.050236396 0.29040027 -0.009742465 0.035147145 0.060998805 -0.08395227 -0.25184998 0.06389775
-0.11895357 -0.11079217 -0.03360084 -0.0070006624 0.00279252 -0.02194599 0.095599346 0.017788894
-0.201513 -0.09085789 -0.18034686 0.11196071 0.23148291 -0.15904151 -0.19926867 0.19349186
-0.06839746 0.041421268 -0.101415634 0.002382048 0.19280012 0.058461946 0.09983229 -0.049313296
0.029191036 -0.21788439 0.1378309 0.17111161 -0.05656332 -0.026419966 -0.1567072 -0.15993692
0.20583367 0.044059183 -0.21406779 0.056370687 -0.27362528 -0.24717313 0.017398568 -0.16594514
-0.12358294 -0.09137015 0.061004315 0.06452743 -0.08152135 -0.052276216 0.068486735 -0.02282016
-0.07785732 -0.21604548 0.07415956 -0.034604304 0.036815677 -0.17446569 -0.00010448158 0.07925734

critic_body.0.bias f4 [256]
00000000: 578a 62be e8de 60be 1bda 4cbe 2ebe cebe
00000010: e8df c9be 9593 113e 7236 1bb9 6df7 d13d
00000020: 8ec1 debe 9591 5fbd 7495 80be 0d55 493e
00000030: b969 7cbe 9454 d0be 3f06 6bbc 7b4f 4cbe
00000040: 8987 8dbe d577 c0be d527 27be 0f7e 193e
00000050: a2b1 063e 9dc7 c63d 3450 a6bd 6776 dcbe
00000060: 74c1 82be bf44 a43e c296 b5be bb2e 80be
00000070: 4f00 e23d 02b5 883d bca5 323e 0cd8 44bc
00000080: de11 efbd e0dc eb3d 9d68 b0be d540 84be
00000090: 631d 503e 8024 afbe e9a6 89be 933d e9bc
000000a0: 4309 333e ab4a 74be a6cd 96bd 017e 97be
000000b0: c12f 353b 180c 90be c101 2c3b 0607 93be
000000c0: bf1b 3fbd d798 d93d 85fd 593e 6f88 333e
000000d0: b138 adbe 2c81 a0be 1cf2 29bc 430d 23bd
000000e0: b54c 613e 416a 27be ad30 a5be b75c 183c
000000f0: 27b3 b7be 7291 563d ff34 a03e 1ed2 3fbe
00000100: acf1 c0bc e766 5abe 0241 a1bb 7229 3cbe
00000110: 4e67 8bbe e916 10be 986d 253d ec65 b0bd
00000120: 7c93 f3be 32ad 713e 9bfd b73d 3465 dd3d
00000130: bd9c f9bd 714f 66be 09f8 fe3c e04e 32bd
00000140: de0f a5be c1d8 e23b eb7a be3d 1a14 62be
00000150: 1d1f 18be a9fd b9be 994f 913e 6778 893e
00000160: 87da a7bd 6f1a 3c3e 911e a5bd 0ad1 79be
00000170: 5935 a4be 23bc b1be 6e0c 063e e615 77be
00000180: 17cf 103c 2caa f33d fc07 d3be 8d0a 05be
00000190: 0c6d a0be aa83 a8be ef66 c9be df39 aabe
000001a0: 6885 d0be 447b f4bb fdd9 45bb 143a 663e
000001b0: ec2e c0be df89 f23d a451 debe 475a 21bc
000001c0: 179f 863e 7201 a33d afd0 103e c7e1 ccbe
000001d0: 98aa b8be fc15 383c 1f0d e63c 7006 5f3c
000001e0: 357e c2bd e78e a6be ba19 cdbe 184c e0be
000001f0: e74d 81be 9fda 31be 1ced 57bc 9760 6d3a
00000200: 877f 93be 8588 613d c74f 94bd 5d07 9bbe
00000210: 848a af3b fa5a 91be a33e b3be f558 a6be
00000220: 4c90 58be 3aa7 cebe 75bf eebd a2d8 6ebd
00000230: 7d8a 8b3e 1661 adbe 7b45 093e e729 9fbe
00000240: 476a c0bd 5380 193e 1be4 8b3e 3b78 c7bd
00000250: c954 b1bc 6eb3 f03b c066 f1bb 38ff 75bb
00000260: 1ea5 73be 6919 7fbc fabe 7cbe e678 343e
00000270: 3111 b0be e663 84bd be55 a13d 504c d0be
00000280: 4710 713d 7204 c1be e52b 43be d258 5ebe
00000290: f268 31be 447b 783e fd91 703e ee49 703e
000002a0: ef21 c8be dc5e 5b3e f6cb 0fbc 5bf6 b5be
000002b0: 52d1 3f3e 6dd5 983d 888b 923e 2451 3dbd
000002c0: 9aec dc3c 8b07 cdbd 69e2 af3b 1b52 5f3e
000002d0: 670b 95be 9a0a 823e 9c37 b7be 9432 c2be
000002e0: 7d95 f33c 0d07 0a3d 960e aebe 042f 533e
000002f0: 4bb6 133e e338 8ebe cafc 7f3b 0171 fc3d
00000300: bfab 92be b09c d5be 3add 0e3e d020 35bd
00000310: 2702 3f3e b1dd 063e ddf7 55be e97a 8fbe
00000320: 513a 3b3e 5cfc e43d a50b 9ebe e7fc 9b3e
00000330: 3df0 7ebe ceed bcbe 8bc5 cfbe 1a75 6fbe
00000340: 0579 d7bc d61f 58bd 0482 63be c0fc 7c3e
00000350: 1194 cdbd 47e6 2b3d dfe8 9b3c 78e6 7fbe
00000360: 8793 213d 0dab bc3c 941d 8f3e 7767 bfbe
00000370: 0000 183e 2024 83be b833 613e 7fd7 bb3d
00000380: 43bd 84be 6a06 593e 04a8 94bd ed58 96be
00000390: 01b2 063e 72a4 39be 139c a9be 2903 9bbe
000003a0: 7aba 033e 8448 6ebe c618 7ebe 11a0 bdbe
000003b0: bdde 27be e06d 4cbd 02e3 08bc 4faa af3d
000003c0: 4701 6f3e 1932 3fbe 05d3 d6be a8fb 70bc
000003d0: 6319 0bbe 0835 c1be c2f9 ba3c d15e a73d
000003e0: 5dbe acbc 559d e23d 10ef 14be 00b5 59be
000003f0: 8dc3 d0be 8a23 3dbe 3a8d 69bb 30fa 743e
-0.22123085 -0.21960032 -0.20005076 -0.4037947 -0.3942864 0.14216454 -0.00014802234 0.10252271
-0.43507046 -0.054582197 -0.25114024 0.1966135 -0.24649705 -0.40689528 -0.014344751 -0.19952194
-0.27642468 -0.37591425 -0.16323788 0.14989494 0.13153699 0.09706042 -0.08120766 -0.43059084
-0.25538218 0.320837 -0.35466582 -0.25035653 0.11035215 0.066751495 0.17446035 -0.0120144
-0.1167333 0.11516738 -0.34454814 -0.25830713 0.2032371 -0.34207535 -0.26885155 -0.028471744
0.17484002 -0.23856609 -0.07363443 -0.2958832 0.0027646872 -0.28134227 0.0026246163 -0.28716296
-0.04665732 0.10624855 0.21288116 0.17532514 -0.33832315 -0.3134855 -0.010372665 -0.03980757
0.22001918 -0.16349126 -0.322637 0.009299449 -0.3587887 0.0523848 0.31290433 -0.18732497
-0.023552738 -0.21328317 -0.0049210796 -0.18375185 -0.27227253 -0.1407124 0.04038772 -0.0861319
-0.4757346 0.23601225 0.08983918 0.108103186 -0.121880986 -0.22491242 0.031124132 -0.043532252
-0.32238668 0.0069228117 0.093007885 -0.2207798 -0.14855619 -0.3632634 0.2838104 0.26849672
-0.08195978 0.18369459 -0.08062471 -0.24396148 -0.3207195 -0.3471385 0.13090679 -0.24129447
0.008838437 0.11897692 -0.4121703 -0.12992306 -0.31333196 -0.32912952 -0.39336345 -0.33247277
-0.4072678 -0.0074609835 -0.0030189746 0.22483093 -0.375358 0.11842703 -0.43421662 -0.009848184
0.2629325 0.0795926 0.14142106 -0.40016004 -0.36067653 0.01123571 0.028082429 0.013612375
-0.09496728 -0.325309 -0.4005869 -0.43808055 -0.25254747 -0.17368554 -0.01317909 0.00090552255
-0.28808233 0.055061836 -0.07241779 -0.30279055 0.0053570885 -0.28389722 -0.35008726 -0.32489744
-0.21148795 -0.4036196 -0.11657611 -0.058312066 0.27254096 -0.33863133 0.13405411 -0.31086656
-0.09395271 0.14990358 0.27322468 -0.09739729 -0.021646874 0.0073456084 -0.007366985 -0.0037536155
-0.23793456 -0.015570023 -0.24682227 0.17624244 -0.34388116 -0.064643666 0.07877682 -0.40683222
0.058853414 -0.37698704 -0.19059713 -0.2171357 -0.1732519 0.24265772 0.2349319 0.23465702
-0.3908839 0.21422905 -0.008776655 -0.35539517 0.18732193 0.07462583 0.2862208 -0.04621996
0.02696829 -0.10011204 0.0053675664 0.21808665 -0.29110262 0.25398713 -0.35784614 -0.37929213
0.029734368 0.03369813 -0.33995503 0.20623404 0.14425008 -0.27777776 0.0039060586 0.12326241
-0.28646657 -0.41721106 0.13951579 -0.044220746 0.18653165 0.13170506 -0.20895334 -0.2802346
0.18283965 0.11180946 -0.3086826 0.30466387 -0.24896331 -0.3690018 -0.405804 -0.23384514
-0.026302824 -0.052764736 -0.22217566 0.24705791 -0.10038007 0.041967656 0.01903194 -0.2499026
0.039447334 0.023030782 0.27952254 -0.37383625 0.1484375 -0.256135 0.21992385 0.09171962
-0.25925645 0.21193853 -0.07258609 -0.2936472 0.1315384 -0.18129137 -0.33126888 -0.30275849
0.12864104 -0.2326985 -0.24814138 -0.37036183 -0.16393562 -0.049909472 -0.008354904 0.08577406
0.23340331 -0.18671454 -0.4195787 -0.014708437 -0.13583903 -0.37735772 0.022824172 0.08172382
-0.021086866 0.11065165 -0.1454432 -0.21260452 -0.40774193 -0.18470588 -0.0035637156 0.23923564
