gym/logs/model_checkpoint_700.pth (torch, 627585 bytes, 11 tensors)

actor_body.0.weight f4 [256, 19]
00000000: 9415 dbbd 9e2d 50bc eba5 92bd c27c b43d
00000010: 8c9a a8bd d224 183e 6971 49be b7ca c8bc
00000020: 73d6 e83d c1f9 e73d a46f ef3c dcb7 c93d
00000030: 3c82 f0bd e9ee 413d ca97 273e ad2f 883d
00000040: e5e0 4ebe 084c a4bd 460b 1b3e c01a 073e
00000050: 92da 31be e874 fd3d 2b9c 003e cc11 e9bd
00000060: dcb6 7f3d e75b a73c 33e5 363d 5345 35be
00000070: d0c9 4b3e 0c26 e5bd 9d02 44bd d444 69bd
00000080: 1845 dfbd 0b7d 34be 4c08 dfbb 9b76 49be
00000090: a398 d7bd 9ff6 1fbd 8ef1 943d 52a1 0d3d
000000a0: 459d 513e a75a 163d 14b4 d63d 4bbc dbbd
000000b0: 7043 543e e534 c8bd cbd8 4dbd 48c4 9b3d
000000c0: 6330 e3bd 1737 44be e840 103d 31fc 653e
000000d0: cca9 46bc eeed a43d 1fe3 21be 4450 ef3d
000000e0: 5db4 b23c c152 3cbe c198 fb3c 00fa 0b3e
000000f0: b038 29bc d417 23bb 1df2 f9bb c3b7 47be
00000100: d959 1cbd 712a 34be 7b55 06be 2ce4 5dbe
00000110: c8d2 173d bf61 db3d ae90 99b9 5a3d 4abe
00000120: a02d 4ebe 9a4a 5fbb 241e 6e3d a0ba 73bd
00000130: 87e2 13bd 91d4 36bd a97b acbd 6b60 68bc
00000140: 2be4 0bbd ca5a a2ba 0187 53be 52fd 893d
00000150: de03 26bd b8bf 0c3e 409e 393d 4f28 443e
00000160: 88d3 61bd 4ece 4f3e fe5b 1a3e 00bb 1a3e
00000170: 820d ec3d 2949 41bd aeeb 3e3e 99b7 a63d
00000180: e550 04be 4523 423e efcf dfbd a4be f6bb
00000190: 3265 613e 9708 3bbe 25b7 5e3d beb5 873c
000001a0: 86fb 17be 66fb 303d f566 153e 94f1 603e
000001b0: 15cf 23be 16e0 17bd f104 133e c4e2 873a
000001c0: a81d 23be 2b94 593e 286a b83d 4ea7 ffbd
000001d0: 199e 5a3e 6a49 9fbd f765 d3bd 5271 373e
000001e0: ceb0 2f3e 60c7 8c3d e754 87bd bc6e a3bd
000001f0: 05cd 3d3e 4753 01be 5cfe 4f3e 1683 5ebe
00000200: 166d 183e 0ae9 36be 4ace fe3c 5d49 313e
00000210: bea8 bd3c fa93 40be e52e f6bd cd0a 0ebe
00000220: d0e6 513e 0321 d2bd 973e 1a3e 311a 143d
00000230: af40 543e 1fd8 373e 3ba7 883d 34f0 1abd
00000240: fa0f 3fbd 87fb 00be a4e0 9e3d a629 1a3e
00000250: ed78 ba3d 9daa 27be c13f 24be 8997 2c3e
00000260: d522 ea3d c801 693e fa20 043e eec1 d63d
00000270: 36ae 2d3e c8ae 05be 599e 2a3c 6a70 c5bc
00000280: caec 67ba 779f fb3c 2cc0 313e dbc6 14be
00000290: e82f fe3d e0d9 0b3d f386 4cbe 8d49 d0bc
000002a0: 1d44 533e 94dd 293e a719 b1bc 89aa 273c
000002b0: a137 3b3e 11d2 933d 0b43 05be 30ba 113e
000002c0: cb94 2d3d 242a 0d3e be34 0cbe 73b7 42b9
000002d0: a82e 9f3c a161 5c3e 58bf 103c 826b 5c3e
000002e0: d1e6 903d 6ada dfbd 240b 64be 74a5 073d
000002f0: 6039 a8bd f31b af3d db5e 31be 87db 15be
00000300: 9d1e 0a3e bfaa 22be e70e 85bd 9488 4cbe
00000310: 7ea2 47be 61af 10be e818 31bd 2a40 b2bd
00000320: 9054 0a3e a017 3abe 65a2 24be 83d8 c7bd
00000330: 20df 5e3e e13d 15be c164 ccbd bc36 84bc
00000340: 4f06 203c 41f8 e0bd 6238 eabc 45e4 643e
00000350: 3a7c 0c3e 3724 1dbe 981e 063e 3d8f 723d
00000360: dd5e 473d f7b3 873c e1ad 5dbe 54af 40be
00000370: fc4b 6a3e b610 cfbd c42a 003e f7bc dbbb
00000380: 032d 063e 9279 32be 35e3 65be da0c 60be
00000390: 0d9d c43d 01b3 adbd 4aec 21be 4fe6 17bc
000003a0: 0260 903d 3220 3ebe e0fb be3d 04b2 30bc
000003b0: 2b5f 613e b4c3 f03d c917 5ebe 443d 103c
000003c0: 54c6 523e f6da 383d 2d2b 063d 2277 383d
000003d0: f88e 0dbd a9b3 eebd 9f93 cf3c 4532 0fbe
000003e0: 2599 90bb 04b1 80bc d444 1abd 0d6d 46be
000003f0: 080a b83d 2c10 8b3d 7547 e03d 5073 9ebd
-0.10697475 -0.0127061885 -0.071605526 0.08812858 -0.082326025 0.14857796 -0.19672169 -0.024510724
0.11369028 0.11326934 0.02922804 0.098495215 -0.1174359 0.047346983 0.16366497 0.066497184
-0.20202978 -0.08022314 0.15141019 0.13193798 -0.17368534 0.12375814 0.12559573 -0.113803476
0.062430248 0.020429565 0.044652175 -0.17702226 0.19901204 -0.111888975 -0.047854055 -0.056950405
-0.109018505 -0.17625825 -0.006806409 -0.1967415 -0.1052716 -0.039053556 0.072726354 0.034577675
0.2047015 0.036707547 0.10483566 -0.107292734 0.2072885 -0.09775714 -0.050255578 0.07605797
-0.110932134 -0.1916164 0.03521815 0.22459485 -0.012125444 0.08053194 -0.15809296 0.11685231
0.02181452 -0.18390943 0.030712487 0.13669586 -0.010328457 -0.002488603 -0.007627739 -0.19503693
-0.038171623 -0.17594315 -0.13118546 -0.21669072 0.03706625 0.10712003 -0.0002929023 -0.19749966
-0.20134592 -0.0034071566 0.058134213 -0.05950415 -0.036104705 -0.044636313 -0.08422024 -0.014183144
-0.034153145 -0.0012386676 -0.20656969 0.0673777 -0.04053103 0.1374501 0.045316935 0.19156002
-0.055133373 0.20293543 0.15074155 0.15110397 0.11526014 -0.04718891 0.18644592 0.08140487
-0.12921484 0.18958767 -0.10928332 -0.0075300504 0.22011259 -0.18264996 0.05437388 0.016566154
-0.14842042 0.043208502 0.14590056 0.21967155 -0.15996964 -0.03707894 0.14357354 0.0010367264
-0.15929282 0.21247928 0.09004623 -0.12483083 0.21349372 -0.077776745 -0.103221826 0.17914322
0.1715729 0.06873965 -0.06607991 -0.07980105 0.1853524 -0.12629424 0.20311874 -0.21729693
0.14885363 -0.17862335 0.031104226 0.17313142 0.023151752 -0.18806449 -0.12020663 -0.13871308
0.20498204 -0.10260203 0.15062939 0.03615779 0.207278 0.17953537 0.06672522 -0.03782673
-0.046646096 -0.1259595 0.077576905 0.1505495 0.09105096 -0.16373678 -0.16039945 0.16854681
0.11432425 0.22754586 0.12903205 0.10486208 0.16960987 -0.13054955 0.01041373 -0.024101455
-0.0008847235 0.030715687 0.17358464 -0.14528982 0.12411481 0.03414333 -0.19973354 -0.025425697
0.20631452 0.16588432 -0.021618677 0.01023353 0.1828294 0.07217801 -0.13013856 0.14231181
0.04237823 0.13785607 -0.13691995 -0.00018569622 0.019431427 0.21521617 0.008834682 0.21525386
0.07075275 -0.10930331 -0.22269875 0.033116773 -0.082140684 0.08550253 -0.1732134 -0.14634524
0.1348824 -0.15885447 -0.06496983 -0.19973975 -0.1949558 -0.14129402 -0.043236643 -0.087036446
0.1350882 -0.18173075 -0.16077574 -0.09758093 0.21764803 -0.14574386 -0.09980155 -0.01613938
0.009767129 -0.10984851 -0.028591339 0.22352703 0.13719264 -0.15345846 0.13097608 0.059218634
0.048674453 0.016565306 -0.21648361 -0.18816882 0.22880548 -0.10110609 0.12516314 -0.006705876
0.13103108 -0.17429188 -0.22449954 -0.21879902 0.096002676 -0.08481408 -0.15812793 -0.009271218
0.07049562 -0.18566969 0.09325385 -0.01078463 0.2200896 0.117560774 -0.21688761 0.008803669
0.20583469 0.045130692 0.03275602 0.04503549 -0.034560174 -0.11655361 0.025338946 -0.1398402
-0.0044127875 -0.015709408 -0.037663296 -0.19377537 0.08986288 0.06790194 0.10951129 -0.07736838

actor_body.0.bias f4 [256]
00000000: 5e4d 223c 81b0 71b9 c57d 02be c754 60bd
00000010: d386 3cbe 6568 413e f18e 0abd 0d05 c4bd
00000020: 7794 bebc e5f9 243e f6f5 9fbd ca5c 5b3e
00000030: 80f4 63be 853f 1f3d 6531 5d3e 1c94 0c3e
00000040: ad08 5bbd 2837 2e3e d3c5 f43d 76d4 453e
00000050: 9b52 44be c502 073e 9265 e03d 2edc 2d3e
00000060: e173 1cbe 4772 9dbb ee81 4c3e c899 31be
00000070: 06b8 233e e36a 453e 2474 21bd 9890 69bd
00000080: 2177 60be a289 c7bd 7333 863d 685f 55be
00000090: f52c 0e3e aedb 45be be34 173c 5f16 0ebe
000000a0: c573 453d eee0 57bd a500 59bd 5b8a fd3d
000000b0: 0628 55be 1988 673e ec3d 653d 05fd 313e
000000c0: a2c1 813d ff1c 973d d965 11be d4aa ef3c
000000d0: 7827 f4bd 439a 61bd 79ea 5fbe 2256 00be
000000e0: 1b6f 5d3e f95a a4bd 336c ee3d 8c32 41be
000000f0: 8b60 42be f621 3dbc 53a8 d3bb 6e77 2c3e
00000100: d3a5 8abc 4f14 183b a017 a43b 0335 d73d
00000110: e432 423e d51b 0cbe 2519 cd3d 19f9 cc3d
00000120: c663 d1bd 19c8 563d 8ccb a43d 4cd6 bd3d
00000130: edd6 5b3e 8f4f e23d 1634 95bd 2c57 073e
00000140: 1a30 ccbd c047 48be 489c 52be d292 00bd
00000150: 2f04 cdbd 5df6 183e c3d5 bf3d c9c6 37be
00000160: 48bd 0a3e e96e 303b 9569 263d 0761 a1bd
00000170: 2981 2bbe ac1c e1bd dadd 153e ae09 3c3e
00000180: 3ee7 52bd 13c3 36be b659 923d 0e82 ad3d
00000190: 83d6 d1bd 737e 9fbd fa6b e13d fc79 fa3d
000001a0: e674 543e 3983 61be fb59 21be 4d55 113e
000001b0: 8429 2d3e ec5c bd3c 3e6b 03bd b5ea 513e
000001c0: 6566 4bbe 704f 06be 47c6 49be 078d 26bc
000001d0: d3da 4bbe bb5d 31be b0bd 57be 2334 9e3d
000001e0: c494 acbc ceda f1bd 8471 363e 4b8a 343e
000001f0: 719a 0abe 1b6b 1abe 35b7 87bd ad2a 18bc
00000200: 4fe6 2dbe cec0 90bd 9594 cfbd f341 e5bd
00000210: c952 4c3a 92ce e2bd 01af 563d d4ed 10bd
00000220: 8ab1 16be 174a 4e3e 5ce3 443e f281 e1bd
00000230: feb7 0b3e e08e 833d 4c8b 153e 43cb ed3d
00000240: daf2 343e 2d4f 713d 2488 5ebe 2590 5cbc
00000250: 0d53 af3d c9fb 3cbe 2d16 e4bd 5fef 423d
00000260: 4f7b 203c 01cd 51be d04e 3c3e 08e2 d93d
00000270: b799 f9bd 8132 173d 9d73 073e c614 03be
00000280: 7164 5a3e d94c ce3d 9f00 05bc e89b af3c
00000290: 0c7b e53d 0946 3c3e f09f 993c 3005 c9bd
000002a0: 0e8e 57bd 362d d63b 2a04 18be b7be 373c
000002b0: 7de4 fe3c 00a8 23be c98d 0bbe e6df ecbd
000002c0: d3a5 ee3d 864a 2bbd 2e6b b1bd f545 63be
000002d0: b43a 9c3d b286 04be 5110 8a3d bf0d 913c
000002e0: 200d 023d fa4b 483e 456e 3dbd b3c7 bc3d
000002f0: 8b90 49be 21ca b4bd 7800 36be 4149 223e
00000300: c726 e6bb 8581 c73d 5536 fbbd fbba bb3c
00000310: 7f5f 87bd f874 753c 3751 6d3d 9bc0 dd3d
00000320: 4daa 69be 50dc 8a3d 6f22 04bb 46cd fc3d
00000330: 0616 343e 122f 913c 5e52 d13d c3b2 2cbe
00000340: da57 5dbc 6af5 90bd e6b3 633e 5f2f 25be
00000350: bc10 d8bd 5e66 d4bd a060 0dbe 49be 183e
00000360: 8cdd ec3d 2853 0a3e 22c2 7abd 80d9 66be
00000370: ee2b 23be 1153 84bb 4e53 41be 5801 b63d
00000380: 18f3 a1bc 01a5 35be da32 1e3e 6c35 4abd
00000390: f3d0 e1bd 6c37 e9bd e858 613e 5842 5bbe
000003a0: 165a 0e3d 9bca 88bd 7d2e ae3d 8ccd 55bc
000003b0: a8e1 a1bb ac8a 7a3d daa7 653d 9e87 fd3d
000003c0: be11 e93d 1b98 89bd 1f24 2f3d 7e6f 4bbe
000003d0: 782b 78bd 5901 58be 3313 c83d 1f30 9bbd
000003e0: 4c52 273d d580 00be 1027 9a3d bc5c f83c
000003f0: 60bd f83d 1b8a a53d 348e 953d b31b 0dbe
0.009906141 -0.00023049304 -0.1274329 -0.05476835 -0.18410806 0.1888748 -0.033827726 -0.09571276
-0.023264153 0.16110952 -0.07810585 0.21422115 -0.22261238 0.038878936 0.21600874 0.13728374
-0.05347507 0.17013228 0.119517945 0.19319329 -0.19172136 0.1318465 0.10956873 0.16978523
-0.1527858 -0.0048048827 0.19971439 -0.17343819 0.15988168 0.19279055 -0.0394174 -0.05702266
-0.21920444 -0.09743048 0.06552782 -0.20837176 0.13884337 -0.19322082 0.009228883 -0.13875721
0.04820611 -0.052704744 -0.05297913 0.12379905 -0.20816049 0.22610511 0.055967256 0.17381676
0.06335761 0.073785774 -0.14199008 0.029256262 -0.119215906 -0.055078756 -0.21866788 -0.12532857
0.21624415 -0.08025164 0.11641731 -0.18866938 -0.1898214 -0.011543741 -0.006459275 0.16842434
-0.016924774 0.0023205464 0.005007699 0.10508158 0.18964726 -0.13682492 0.100145616 0.10008449
-0.102241084 0.05243692 0.08046636 0.092693895 0.21468706 0.11050331 -0.07285325 0.13216847
-0.09970112 -0.1955862 -0.20567429 -0.03139002 -0.100105636 0.1493773 0.09366944 -0.17946924
0.13548768 0.0026921576 0.040628035 -0.078798346 -0.1674849 -0.10991797 0.14635411 0.18363068
-0.05149006 -0.17847852 0.07146017 0.084720716 -0.10245993 -0.0778779 0.11006923 0.12230298
0.20747718 -0.22022714 -0.15756981 0.14192696 0.16910368 0.023115598 -0.032084696 0.2049969
-0.19863279 -0.1311624 -0.19704543 -0.0101654595 -0.19907694 -0.17320912 -0.21068454 0.07724788
-0.02106703 -0.11809312 0.1781674 0.1763088 -0.13535477 -0.1507992 -0.06626741 -0.009287518
-0.16982387 -0.070680246 -0.10135762 -0.111942194 0.00077943184 -0.110745564 0.05241299 -0.03538306
-0.14716163 0.2014545 0.19227356 -0.11011113 0.13644406 0.064237356 0.14603919 0.11611035
0.17670766 0.0589134 -0.21731621 -0.013462101 0.085607626 -0.18455423 -0.11137042 0.047591563
0.009795024 -0.20488359 0.1838944 0.10638815 -0.12187522 0.0369134 0.13227697 -0.12800893
0.21327378 0.10073251 -0.008117824 0.021436647 0.1120511 0.18386091 0.018753022 -0.098154426
-0.05262571 0.0065361513 -0.14845338 0.011214904 0.031114811 -0.15982056 -0.13628305 -0.11566143
0.11652722 -0.041819118 -0.08663021 -0.22194655 0.07628384 -0.12942007 0.06741393 0.01770675
0.0317508 0.19560233 -0.04624774 0.09217777 -0.19684045 -0.088276155 -0.17773616 0.15848257
-0.0070236656 0.09741501 -0.122662224 0.022916308 -0.06610011 0.014981501 0.05793878 0.10827752
-0.22818871 0.067803025 -0.0020162126 0.1234384 0.17586526 0.01772264 0.102207884 -0.16865067
-0.013509715 -0.07078059 0.22236595 -0.16131352 -0.10550067 -0.103710875 -0.13806391 0.14916338
0.11565694 0.13508284 -0.061220296 -0.22543907 -0.15934727 -0.0040382226 -0.18879434 0.08886975
-0.019769236 -0.17738725 0.15449086 -0.049367353 -0.11026182 -0.11387524 0.22006571 -0.21412027
0.03475388 -0.06679269 0.08504961 -0.0130494945 -0.0049402304 0.061167404 0.05606828 0.123793826
0.11380337 -0.06718465 0.042759057 -0.1986675 -0.06058833 -0.21094264 0.09769287 -0.07577538
0.04084997 -0.12549146 0.07526982 0.030317657 0.121454954 0.08082982 0.07302514 -0.13780098

actor_body.2.weight f4 [256, 256]
00000000: 600f d93b 9066 cabb 9008 e83c f036 75bc
00000010: 0086 beb9 70a6 6d3d de6b 4a3d 3c7f f43c
00000020: e218 593d 5805 69bc 9a16 643d 589f c13c
00000030: 4ebc 0bbd 441a 903c d054 b43b 744c f43c
00000040: ea7f 733d e89a 3a3c 426f 07bd 06e6 5b3d
00000050: 82da 7d3d 108b 99bb b0f4 c6bc 6809 7b3c
00000060: 00ec 61b9 949a 57bd ded6 6fbd a0ba b5bc
00000070: 001e 653c cab1 423d d84a 513c 10ba b1bb
00000080: 1ec1 3bbd 781e d1bc a6f4 1abd 00a6 2eb9
00000090: 7030 5f3d 5236 56bd f8fc e8bc 7aa5 353d
000000a0: cc0f 5cbd 70f6 2a3d eeb4 523d 5a99 6fbd
000000b0: 70ba c7bc 0cf0 cbbc 1225 3cbd b86f 51bd
000000c0: 0098 c8b9 1e9d 5e3d 1e75 393d 5849 22bc
000000d0: c8ed f83c 508f 403c 7c3a f83c c043 d33c
000000e0: b8a8 44bc a45b 62bd 5482 c13c dcaf ccbc
000000f0: 701b 2f3c 488d 973c 94f2 6f3d c029 4e3b
00000100: c065 7dbb 8ebe 30bd 46be 20bd 0030 53bc
00000110: 4642 183d 90a4 163d 9839 c6bc faed 053d
00000120: a6a6 4e3d 16a3 28bd 486c 8abc 1025 773d
00000130: bc3a fdbc 3483 aabc e8b9 15bd fc63 8b3c
00000140: 62c5 77bd 2014 5d3d 1054 3bbd e0d7 57bc
00000150: 7a2a 1b3d 18b8 c93c 5ed4 2c3d 9055 2e3c
00000160: 1ae6 72bd 8851 2dbd e00b 31bc 502f d6bc
00000170: b076 b23c d8e6 4bbd a835 09bc 64a6 1ebd
00000180: b8b3 243c a817 81bc 4017 aa3c b0ae 2dbd
00000190: 0c7e 873c 922f 583d 60eb bbbb 5096 603d
000001a0: 68a4 0cbd 4437 143d a0c3 953b c08d f53b
000001b0: 302e c83b 2029 f23c e054 a63c ce7e 363d
000001c0: 9475 47bd 00bb d83b 7882 6a3d 9455 f8bc
000001d0: e26e 613d 9a03 42bd 2e1e 05bd 904d a9bb
000001e0: 4c9e 0e3d cc0a a03c 7c17 f73c 1ce5 cbbc
000001f0: 84b5 33bd 6c5f f83c 9ccb 8e3c 00fe 91ba
00000200: ceee 72bd b487 28bd 7426 343d 4871 e6bc
00000210: 58c3 e0bc 5c49 f7bc 40ba 4d3c b264 0a3d
00000220: 004b 8eb9 8c77 633d 5e31 7fbd a09a 423d
00000230: 506c 583c dc35 d63c 08f5 45bc f05a 503d
00000240: 58f9 183c fc28 8ebc ecfe f6bc 3806 77bd
00000250: b2ee 07bd 1c62 d9bc 50ec 04bc b040 d63b
00000260: b087 0abc ec7d a2bc c09f 823a c62d 6abd
00000270: 5610 1d3d fa15 1b3d 08e6 543c 969d 1bbd
00000280: 1c70 5b3d a8ed 783d 92f6 53bd 12f7 1d3d
00000290: 16a3 2fbd 1409 75bd 8c76 cd3c 16bf 163d
000002a0: a001 383d 764a 75bd e88f 1e3d 04c8 5b3d
000002b0: b20b 33bd a85b b43c 2c64 e33c 4ae0 223d
000002c0: 4871 2ebc f6c5 16bd d44d 8dbc 70d8 b3bc
000002d0: f8b0 8bbc d4b4 1bbd 409a 63bd 1095 ddbc
000002e0: 501a 5cbd 80df fc3b b243 16bd 14f9 2b3d
000002f0: 5e1c 20bd 40d2 093b 7426 90bc 2438 773d
00000300: 48f5 2e3d 8cec 3fbd ac8d cbbc c0a4 5a3d
00000310: ba09 53bd 88c0 2f3c f83c 023c 0090 9eb8
00000320: 5a66 483d 7028 f4bc a878 963c 204d 57bc
00000330: 70f8 8ebb 80c1 a13b 083a bcbc e4c1 c83c
00000340: aa89 33bd fcca c0bc 022d 0dbd 88f6 373d
00000350: e4d3 73bd 58cc 0dbd 2099 13bd 9044 43bc
00000360: ac4b d13c 2e37 2dbd 3cdb c8bc a4cd a33c
00000370: 46f9 153d 0014 bcbc f087 bc3c a860 37bc
00000380: 64eb 943c a05f 723c cc23 adbc 88cd 183c
00000390: 2091 373c 3065 623c dc3f 97bc 504a 6bbc
000003a0: c029 18bb dcb7 073d aaae 7a3d d2fd 713d
000003b0: 5aeb 2abd 1c70 f73c 8603 0cbd 482d 92bc
000003c0: b44c 793d 5c49 d73c dc6c 703d 28a5 25bc
000003d0: 0621 4f3d 9e43 7d3d 40b2 55bb 9829 dc3c
000003e0: 40dc 86bc b2e3 65bd 8e06 763d ea82 57bd
000003f0: 4070 a33a 9026 b03c 6076 7cbc 30e3 333c
0.0066241473 -0.006176777 0.028324395 -0.014966711 -0.00036339462 0.058020055 0.049419276 0.029845826
0.053002246 -0.014222465 0.055685617 0.023635551 -0.03411513 0.01759065 0.0055032745 0.029821612
0.05944816 0.011389472 -0.033065088 0.053686164 0.061975963 -0.004685767 -0.024286598 0.015322067
-0.00021545589 -0.05263765 -0.058554523 -0.022183716 0.013984203 0.047532834 0.012774192 -0.0054237917
-0.045838468 -0.025527224 -0.03783097 -0.00016655773 0.054489553 -0.052297898 -0.028440937 0.044347264
-0.053726003 0.041738927 0.05144208 -0.058495857 -0.024380893 -0.024894737 -0.04593379 -0.051131934
-0.00038260221 0.054349057 0.045277707 -0.009905182 0.03038682 0.011752918 0.030301325 0.025789142
-0.012003116 -0.055263177 0.023621716 -0.0249862 0.010687694 0.018499985 0.05858095 0.003145799
-0.0038665384 -0.043150477 -0.03924396 -0.012889862 0.03717258 0.036778033 -0.024197385 0.032697655
0.050451897 -0.041171156 -0.016897336 0.06033808 -0.030911796 -0.020814516 -0.036554247 0.01701545
-0.060490973 0.05397427 -0.045734465 -0.013174027 0.037882306 0.024623916 0.042194717 0.010640517
-0.059301473 -0.042314082 -0.010806054 -0.026145607 0.02178511 -0.049780697 -0.008374609 -0.0387329
0.010052614 -0.01575835 0.02076304 -0.042402923 0.016539596 0.05277974 -0.005734846 0.05483085
-0.034336478 0.036185518 0.0045704395 0.0074937046 0.0061090216 0.029560626 0.020304143 0.044554524
-0.048696116 0.006614089 0.05725333 -0.030314244 0.055037387 -0.047366716 -0.032499485 -0.005166717
0.034818932 0.019536398 0.030162565 -0.024889521 -0.04387428 0.030318938 0.017431073 -0.001113832
-0.059309773 -0.04114504 0.043981984 -0.028130189 -0.027436897 -0.030186348 0.0125566125 0.033787437
-0.0002714023 0.05553393 -0.06230294 0.047510743 0.013209417 0.026148729 -0.012082346 0.050867975
0.009336792 -0.017353527 -0.030150853 -0.060308665 -0.033186622 -0.02653604 -0.008112982 0.006538473
-0.008455202 -0.019835435 0.0009965822 -0.05717256 0.038345657 0.037862755 0.012994297 -0.037992083
0.053573713 0.06077352 -0.05174882 0.038565703 -0.04288014 -0.05982311 0.025080942 0.036803328
0.044923425 -0.059885465 0.03871146 0.053657547 -0.043712325 0.022016361 0.027757727 0.03976468
-0.010647126 -0.036809884 -0.017249025 -0.021953791 -0.017052159 -0.038014248 -0.055567026 -0.027048618
-0.05373603 0.007717073 -0.036685653 0.041985586 -0.039089553 0.002102986 -0.01759646 0.060356274
0.042714387 -0.046856448 -0.024847828 0.053379774 -0.051522948 0.010727055 0.007949106 -7.560849e-05
0.048925735 -0.029804438 0.01836808 -0.013140947 -0.004363112 0.004936397 -0.02297689 0.024506517
-0.04383246 -0.02353429 -0.03446675 0.044912845 -0.059528247 -0.034618706 -0.036034703 -0.011918202
0.025548778 -0.04228895 -0.024518602 0.019995518 0.03661468 -0.022958755 0.023014039 -0.011192478
0.01817865 0.014793307 -0.021135233 0.009326346 0.011204034 0.01381807 -0.018463068 -0.014360979
-0.0023218244 0.033134326 0.06120173 0.059079953 -0.041728355 0.030204825 -0.034183048 -0.017843857
0.060864165 0.026280098 0.058697566 -0.010110177 0.050568603 0.061832063 -0.0032607466 0.026875302
-0.016462445 -0.05612535 0.060064845 -0.052615084 0.0012469366 0.021502763 -0.015409082 0.010979459

actor_body.2.bias f4 [256]
00000000: 3c86 a43c ae3a 163d 50e4 533d 0200 0c3d
00000010: 7033 acbc 5022 d7bc 90e5 c7bb bcfb 883c
00000020: d064 a5bc 0e16 5e3d b0be 60bc 5c6b 0a3d
00000030: d08a 11bc 5454 ccbc 402d 363b d0e8 2fbd
00000040: 6c6b 3f3d f638 483d 8035 6ebc 789f 193d
00000050: b0d2 4f3c f470 5f3d 4446 6c3d 0001 0ebd
00000060: 54a5 a43c f0ef 8a3c 30cf af3b d000 c6bb
00000070: 6839 793d de79 113d dc61 95bc 4ee9 23bd
00000080: c290 6e3d 2841 393c 6478 0cbd 56ad 25bd
00000090: c424 95bc 3cba 8dbc 4642 3a3d 0087 38bb
000000a0: 5851 963c 8039 acbc d248 663d 78f2 7dbc
000000b0: a8d6 9ebc 68fb 4dbc 04be 00bd e086 7fbb
000000c0: 7ef1 49bd 6ce6 efbc 1067 503d 8030 0e3a
000000d0: 30fc e43c eea8 12bd 6023 c73b 8692 5d3d
000000e0: 602b aa3b 30f3 cdbc 004d 0f3d 28d1 0d3c
000000f0: 8093 6abc 20cb ff3c 181d fcbc 0ce7 cd3c
00000100: 1063 003c 8433 97bc a81c 6abd 4016 cf3a
00000110: 6ca3 6abd d480 e33c 1068 ef3c 3896 263c
00000120: c4cf b03c d6e7 40bd a04f e13b 9afa 13bd
00000130: 4072 2fbd 444a 8f3c f433 e73c ae0f 49bd
00000140: 78e9 6f3d 50ea 143d b0d7 a23b 40d5 8fbc
00000150: 1082 20bc 80be c1bb 585d 243d d092 9dbc
00000160: 4893 cabc 0ed2 193d 607c a1bb be05 203d
00000170: dce3 b0bc bc5f be3c 7c62 6e3d a6d8 3f3d
00000180: facf 0dbd 48f6 f23c 60b0 c9bb 243e a83c
00000190: 700b 043d a4a0 673d 1ccf adbc 8408 983c
000001a0: f6c0 0b3d 0075 9cbc 504f 753c c8e0 00bc
000001b0: 0892 5cbd d8bc f63c bcee 12bd ba62 36bd
000001c0: bc28 34bd 385d 983c cc7f e53c 283a 0b3c
000001d0: 0cdb 58bd ce54 49bd c080 c23b 9043 1b3d
000001e0: b23d 783d 783d 5dbd 62cf 403d e0b1 d4bb
000001f0: f2ef 1ebd a8fe e7bc 5636 21bd 6c25 0e3d
00000200: d6d0 353d da9c 693d 9aec 503d 04c1 e73c
00000210: 2059 5bbb 6074 d4bb 80e1 5b3c 28d7 fe3c
00000220: 38b9 2c3c 5ce0 8f3c 90bc b9bb a2f5 0ebd
00000230: 1612 773d 729d 113d 6065 fdbb cc53 c93c
00000240: c05a 43bb 44ba 733d 6051 633b 98b7 babc
00000250: 28bb 103c 401d 92bb 9470 413d 6090 97bc
00000260: 2a78 243d 1cee 9e3c 20df 09bb dcd6 6bbd
00000270: a405 ec3c 9cd1 e43c 26ad 3ebd 007d c33b
00000280: 8c7d 383d 164f 70bd c0c7 bf3a a84a 25bc
00000290: d0f3 0e3c e0bb 9bbb cc3a 9f3c a8fe 6fbc
000002a0: 1054 503d f8a3 113c 40b5 1abd 4817 99bc
000002b0: e06e 02bd 742c 44bd cca2 27bd a00d 0b3b
000002c0: fc77 b8bc d093 0dbd 28e8 263c f629 233d
000002d0: 56e9 3ebd 9893 82bc 1a79 3e3d 087f 463c
000002e0: d097 123d f2f1 57bd 488c adbc eae5 4cbd
000002f0: 685c 7dbc 5a10 09bd e027 89bc 2073 6d3d
00000300: 80b4 f7ba 8083 57ba 0c80 803c 7064 5ebd
00000310: 4ca0 25bd 3647 303d a00e 973c fec8 25bd
00000320: 5252 3ebd fa95 123d d666 573d 803d 773a
00000330: 9c86 a53c a076 433b 08ed 863c 0020 b2ba
00000340: 0063 de3c 846e 36bd 34fa 7e3d f4a6 73bd
00000350: 1e95 483d d084 fe3c d090 4dbd 3c91 3e3d
00000360: 8419 8f3c eadc 123d 60b0 6dbd 6032 1f3b
00000370: 98d2 77bd 3a10 013d 00c7 213d 98fb 43bc
00000380: 165d 51bd ac4c 4fbd a01c 5cbd 0ce3 ab3c
00000390: 1c73 163d 8849 1b3d c004 5bbb 10cb bcbb
000003a0: 400c cd3c ba20 11bd 3245 5fbd 5067 203c
000003b0: 5a1a 66bd f2ca 283d fae0 70bd 78dd 9fbc
000003c0: 48cf 56bd e063 c1bb 78ac fc3c 282b 8f3c
000003d0: 2071 103c bcda 57bd f41f 223d 6add 0e3d
000003e0: 90b9 a63b 7819 01bd 00d6 bfb9 5ee9 55bd
000003f0: c81e 383c 6e8c 3d3d 8a54 76bd 1456 3fbd
0.02008354 0.036677055 0.051731408 0.034179695 -0.021020621 -0.026261479 -0.006100364 0.016721599
-0.020189673 0.05422025 -0.013717338 0.033793792 -0.008883193 -0.024942555 0.0027797967 -0.042946637
0.046733305 0.048882447 -0.014539123 0.037505597 0.012684509 0.05455108 0.057684198 -0.034668922
0.020098366 0.016960114 0.005365275 -0.0060425773 0.060845762 0.035516612 -0.01823514 -0.04001742
0.05824352 0.011307038 -0.0342945 -0.04044851 -0.018206008 -0.017300718 0.04547336 -0.0028156638
0.018349335 -0.021023512 0.05622179 -0.015499704 -0.019389465 -0.012572147 -0.031431213 -0.0038990304
-0.04930257 -0.029284678 0.050879538 0.0005424097 0.027952284 -0.035805635 0.006077215 0.054094814
0.005193159 -0.025140375 0.034985542 0.008655824 -0.014317393 0.031224787 -0.030775592 0.025134586
0.007836118 -0.018457182 -0.057156235 0.0015799478 -0.057284757 0.027771391 0.029224426 0.010167651
0.021583445 -0.047096096 0.006875947 -0.036127664 -0.042833567 0.017491467 0.028223015 -0.04908722
0.058572263 0.03635627 0.0049695596 -0.01755774 -0.009796634 -0.005912602 0.040128082 -0.019235045
-0.024728432 0.03755384 -0.0049281567 0.039067976 -0.021593027 0.02323901 0.05819939 0.04683747
-0.03462217 0.029658452 -0.0061550587 0.020537443 0.03223747 0.056549683 -0.021216922 0.018558748
0.03411957 -0.019098759 0.014972523 -0.007866092 -0.053850204 0.030119345 -0.035872206 -0.044527747
-0.04398416 0.018599138 0.02801504 0.008497752 -0.052943274 -0.04915314 0.0059357584 0.03790623
0.060605712 -0.0540137 0.047072776 -0.006490931 -0.03880305 -0.028319672 -0.03935846 0.034703657
0.044388615 0.05703435 0.05100689 0.02829028 -0.003346987 -0.0064835995 0.013420463 0.031108454
0.0105422065 0.017563038 -0.0056682304 -0.034902222 0.060319982 0.035550542 -0.007733032 0.02457609
-0.002980873 0.05950381 0.0034685954 -0.022792622 0.008833684 -0.0044590533 0.047226503 -0.01850146
0.04015366 0.019400649 -0.0021037534 -0.057577953 0.028811283 0.02793198 -0.046551846 0.005965829
0.045041606 -0.058669172 0.0014631674 -0.0100886 0.008725122 -0.004752621 0.019437216 -0.014648117
0.05086142 0.008889191 -0.03777051 -0.01868786 -0.03184402 -0.047893956 -0.04092674 0.0021217838
-0.02251815 -0.034564793 0.010187186 0.03983494 -0.046609245 -0.015939519 0.04650221 0.012115248
0.03578931 -0.05272097 -0.021185055 -0.05002395 -0.015463926 -0.03346286 -0.016742647 0.05797112
-0.0018898398 -0.0008221194 0.015686058 -0.054295003 -0.040436074 0.043036662 0.01843959 -0.040474884
-0.046465226 0.03578756 0.052588306 0.00094314665 0.020205788 0.0029825345 0.016470447 -0.0013589859
0.027146816 -0.04453899 0.06225033 -0.05948539 0.048970334 0.03106919 -0.050186932 0.046525225
0.017468221 0.03585521 -0.058029532 0.00242915 -0.060503572 0.031509615 0.03949642 -0.01196184
-0.051114164 -0.05061023 -0.053738236 0.020982288 0.03673087 0.03791192 -0.003341958 -0.0057615116
0.025030255 -0.0354316 -0.05450935 0.009790257 -0.056177475 0.04120917 -0.058808304 -0.019514784
-0.052443773 -0.0059017986 0.030843958 0.017476633 0.008816034 -0.052698836 0.039581254 0.034879126
0.0050880387 -0.03151843 -0.000365898 -0.05222451 0.011237808 0.046276502 -0.060139216 -0.04671295

actor_output.weight f4 [54, 256]
00000000: 1c4b 393d 803f 11bb 38e2 28bd 485d 0dbc
00000010: 5062 7f3d 0819 1d3c 84e9 fabc 5645 4dbd
00000020: d6e3 63bd 1e0a 24bd 6074 ffbc b896 2d3c
00000030: f069 edbb 10cf c7bb 04d4 053d 0c06 a8bc
00000040: 0008 56bd f0bb ec3b 9a5e 6ebd 8c6c a73c
00000050: 0cf1 1a3d 7657 67bd 2025 143c 8292 4e3d
00000060: 7477 a53c 984d 9b3c 74ff 16bd 066a 2c3d
00000070: 72e1 25bd 1e62 26bd 4e95 143d f840 50bc
00000080: c045 08bd d013 723d 68f5 eebc 34d2 793d
00000090: de6e 3abd 187b 533d 0c95 bb3c be8d 6abd
000000a0: b837 ce3c 50c8 d6bc 7849 1dbd 54eb 51bd
000000b0: f0ed b0bc 6a99 57bd 4a06 253d 641d aabc
000000c0: 28ae 7b3c e836 81bc 1ea1 46bd 7499 3e3d
000000d0: 0af6 1cbd e8fa 5cbc 54f4 913c 50dd 68bc
000000e0: 1006 f4bc 82f0 6f3d 00a2 cb3b 0a2a 0ebd
000000f0: 64af 84bc c0ad 963b f83e d73c 300c f73b
00000100: 944e 9e3c 3e08 2bbd c055 63bb 1cf3 1bbd
00000110: d0dd 38bc ec76 553d 00e1 e7bb 0098 0b3a
00000120: 74e0 c53c 4877 213d 340f 883c c04b 3cbc
00000130: 3833 cb3c 9888 283c 8052 573a 1838 c4bc
00000140: 48f9 5f3c 684e 083d e007 863b b07e e93c
00000150: 1059 2dbc 0c81 acbc 7810 9dbc 4c7d 523d
00000160: 9012 48bc f474 2abd 4cd5 f9bc 8e04 6dbd
00000170: 208c 513c 7008 cbbc 3a26 5e3d 848b 933c
00000180: c000 a33a d0e4 1d3d b0a0 6a3c c04c 38bc
00000190: 9e69 073d 3e41 32bd 1825 bc3c f4fa e93c
000001a0: f405 a83c 6853 233c 8c14 363d 74f1 7a3d
000001b0: c856 9a3c 7494 e53c 7c0a a9bc 943a 693d
000001c0: 48a8 b63c b052 983b d655 07bd a459 6ebd
000001d0: ca23 423d a009 15bb f861 863c 1a5c 77bd
000001e0: 7cd9 b23c 4077 91bb 703a debc fcdf 7a3d
000001f0: 0030 8fbc d8fa 2cbc b0c8 313d a68c 27bd
00000200: 906c 5b3c 7086 be3c 4411 9cbc 68b1 c4bc
00000210: 08dc 323d 80b1 e2bc 0cde 57bd d0d0 03bc
00000220: 3e8a 3abd 2c8a 51bd e23e 073d e80b 05bc
00000230: 4cf4 a73c f07f 4bbc b6ca 253d f040 8cbc
00000240: 3ce6 35bd 7056 91bc 92a9 1abd d22e 2cbd
00000250: ec87 8fbc 525a 6dbd 46dd 793d 54d2 bc3c
00000260: 225d 043d 8cff 3a3d c042 0c3c 7885 b43c
00000270: 2c99 52bd ea60 073d 4cef 4d3d f8c4 afbc
00000280: b4a9 30bd b0f4 9dbc 2071 2bbc 00f6 d53a
00000290: 78d0 31bc 68b7 2f3d 00b2 6eb9 9c87 84bc
000002a0: da28 30bd c40a 643d 6cf4 f23c 686f 523c
000002b0: 9004 da3c 38aa bd3c 9abd 41bd 80af 46bb
000002c0: 6012 7a3b a651 0cbd 8897 1bbc f893 273d
000002d0: 649c e13c 102d 483c e83e 0a3c 5c6e ae3c
000002e0: 7e12 063d 94d4 b2bc b46f 353d aa5f 2a3d
000002f0: dc4f fbbc 82d0 313d 5471 953c 52a2 36bd
00000300: 48c7 5e3d 3608 53bd 806d db3a 82be 5b3d
00000310: 80a0 b1ba 9235 7d3d fc9e de3c a071 a1bc
00000320: 7058 1ebd 3470 d63c a8dc 613c 7670 5cbd
00000330: 1095 e2bc 58a2 2bbc 0422 88bc d681 4ebd
00000340: 6077 79bd 5c44 0a3d e6f9 48bd d642 243d
00000350: 2a15 6cbd 2a0e 713d 209f 1d3c 308f a4bc
00000360: 726b 6d3d d0ec cebb 0009 96ba d47b 163d
00000370: 6a6f 743d 8436 febc c242 43bd 2c48 853c
00000380: f050 90bc 70f6 5ebd cc92 223d e69b 413d
00000390: 62bb 36bd d8b8 42bd 6c5c 3dbd 7807 6bbc
000003a0: 8038 ef3c 4848 543d a4aa e2bc 6475 38bd
000003b0: dc1b 123d e6b7 4e3d 40f5 e73b 2887 893c
000003c0: 50a4 113d bea9 1c3d 7803 7f3d b685 663d
000003d0: 22b9 523d e0ed b53b 60d1 4a3c 0002 ed39
000003e0: 94d6 903c d237 243d 9ae7 3bbd 1c21 65bd
000003f0: ca76 11bd 7c59 fe3c 2802 67bd 4829 4dbd
0.045237646 -0.0022163093 -0.041231364 -0.008628197 0.062349617 0.009588487 -0.030628927 -0.050114952
-0.055637203 -0.04004871 -0.031183422 0.010595016 -0.0072452947 -0.006097682 0.032672897 -0.020510696
-0.052253723 0.0072245523 -0.058195688 0.020437501 0.037827536 -0.056479894 0.009042054 0.05043269
0.020198561 0.018957898 -0.036864713 0.0420933 -0.040498205 -0.040620916 0.0362752 -0.012710802
-0.033269644 0.059100926 -0.029169753 0.06099148 -0.045515887 0.051631063 0.02289822 -0.057264082
0.025173053 -0.026218563 -0.038400143 -0.051249817 -0.021597832 -0.05263654 0.0402892 -0.020765968
0.015361346 -0.015773252 -0.048493497 0.046533063 -0.03832058 -0.013487555 0.0178167 -0.014212921
-0.029788047 0.058578975 0.0062143803 -0.03470806 -0.016196914 0.0045983493 0.026275143 0.0075392947
0.019324578 -0.041755907 -0.0034688562 -0.038073644 -0.011283353 0.052115366 -0.0070763826 0.0005325079
0.02415488 0.039420396 0.016608812 -0.01149267 0.024804696 0.010286473 0.00082138926 -0.023952529
0.013670273 0.0332779 0.0040902942 0.028502792 -0.010580316 -0.021057628 -0.019172892 0.051389024
-0.012211457 -0.04161544 -0.030497216 -0.05786567 0.012789756 -0.024784297 0.054235674 0.018010862
0.0012436137 0.03854829 0.014320537 -0.011248767 0.03305971 -0.04351925 0.022966906 0.028562047
0.020510651 0.009968616 0.04445319 0.061265424 0.018840209 0.02802489 -0.020634882 0.05694063
0.02229704 0.004648529 -0.033040844 -0.058190957 0.047397412 -0.0022741333 0.016404137 -0.06039057
0.02183222 -0.0044392645 -0.027127475 0.061248764 -0.017478943 -0.010557853 0.04340428 -0.040905617
0.013392583 0.023257464 -0.019051202 -0.024010375 0.04366687 -0.02767253 -0.052701995 -0.00804539
-0.045541994 -0.05115716 0.033018954 -0.008120514 0.020502232 -0.012420639 0.040476523 -0.017120808
-0.04440902 -0.017741412 -0.03775937 -0.04203684 -0.017520867 -0.057947464 0.06100204 0.023049511
0.03231538 0.045653865 0.008560836 0.0220363 -0.051415607 0.03305141 0.05027704 -0.021456227
-0.04313059 -0.019281715 -0.010463983 0.0016323924 -0.0108529255 0.04289952 -0.00022763759 -0.016177945
-0.04300771 0.05567433 0.029657565 0.012843944 0.026613504 0.023152456 -0.04729996 -0.0030317008
0.0038157925 -0.034257554 -0.009496577 0.0409126 0.027540393 0.012217775 0.00843785 0.021292858
0.03273248 -0.02182988 0.04429598 0.04159514 -0.030677728 0.04341174 0.018242516 -0.044588394
0.05438927 -0.051521502 0.0016741008 0.05364848 -0.0013551861 0.061818667 0.027175419 -0.019707501
-0.03865856 0.02617655 0.013785519 -0.05381819 -0.02765897 -0.0104757175 -0.016617782 -0.05041679
-0.06090486 0.0337566 -0.049066447 0.040102802 -0.05763737 0.0588514 0.009620458 -0.020087808
0.057963796 -0.0063148513 -0.0011446774 0.036739185 0.059676565 -0.031031854 -0.047671087 0.016269766
-0.017616719 -0.05443424 0.039690778 0.047267817 -0.044612296 -0.047539562 -0.04623072 -0.014345042
0.029201746 0.051826745 -0.027669258 -0.045033827 0.0356711 0.050468348 0.0070787966 0.01678808
0.03555709 0.038247816 0.062259167 0.05627986 0.051446088 0.0055520386 0.01237902 0.00045205653
0.017680444 0.040092297 -0.04587517 -0.05593978 -0.035513677 0.031048529 -0.05639854 -0.050088197

actor_output.bias f4 [54]
00000000: fa86 553d e81e 7fbd 903b ce3c a872 cfbc
00000010: 2451 8b3c 0808 4dbc 307f f23c 0e18 45bd
00000020: 78f3 5b3c 36fc 48bd a057 983b 8cfe e43c
00000030: 18f1 00bd ac32 843c 4adb 653d 001d 553d
00000040: 286e 32bd d8bd 04bc 402b c43c 9a6d 233d
00000050: b065 793d 6678 50bd 1426 e73c 70f1 e5bb
00000060: 94d4 24bd e090 05bd 0cc1 543d 403a 33bb
00000070: 24ee 46bd c035 703d b683 59bd 30c6 973c
00000080: f046 7e3c 86c9 15bd 1002 553c a255 46bd
00000090: f4c6 1c3d 606e 1bbc 4862 083c 10b2 97bb
000000a0: 4881 033c 4c77 76bd d08f ecbc d035 c6bc
000000b0: 4cb6 6bbd b4f8 bebc 9881 c83c 9aaa 70bd
000000c0: a405 9f3c a03b 313d 1436 cd3c ac57 3abd
000000d0: e8dc 093c 00b7 243b
0.052130677 -0.062285334 0.025174886 -0.025323227 0.017006464 -0.012514122 0.029601663 -0.048118643
0.013424747 -0.049068652 0.0046491176 0.027953409 -0.031479925 0.016137443 0.056117333 0.05202961
-0.043562084 -0.008101903 0.023946404 0.039899446 0.060887992 -0.05089607 0.0282164 -0.007017307
-0.040241793 -0.032608867 0.051941916 -0.0027347952 -0.048566952 0.05864501 -0.053104125 0.01852712
0.0155198425 -0.03656914 0.01300098 -0.04842151 0.038275674 -0.009486765 0.008324213 -0.004629381
0.0080264285 -0.060172364 -0.028877169 -0.024195582 -0.0575469 -0.02331195 0.024475858 -0.05875645
0.01941187 0.043269753 0.0250502 -0.045493767 0.008414485 0.002513349

critic_body.0.weight f4 [256, 19]
00000000: d3ff a9bd f6f2 2dbe 88f6 59be 4324 0b3e
00000010: 3134 a83d 0a1c 5b3d d068 30bd 41d0 13be
00000020: 0b66 3dbe f666 8e3b 912c 9fbd 895c 14be
00000030: fc51 b439 b3f5 e5bc 21ff 07bc 70ed 0e3e
00000040: 2609 4ebe 7788 d1b8 9e09 52bd 8c0f b3bd
00000050: 36a8 cdbd 2f81 3c3d 6e5f a13e a857 553d
00000060: 3a57 073c aeb7 21bb f4cd 9b3e 84e2 e6bd
00000070: a3c1 50be c270 0abe 62af c43d d276 86bd
00000080: 3e1c f5bc e999 5fbc 9b93 243e c4fe 0c3e
00000090: 3f1c 56bd 8798 ba3d 538e aebd 9be7 ad3d
000000a0: f0a6 823d 48df 013e f60f 99bd 8782 33bd
000000b0: b899 98bb d000 e33b cffd ac3c 645f 033e
000000c0: dc39 643e 340d a83a 0849 30bd b8e8 53bb
000000d0: 363f 03bc cac3 1abd f844 b2bd 15ec a83b
000000e0: 4e28 95be 1478 843d cfb6 b6bd ecfd e83d
000000f0: cd94 cbbd 25bf cc3d 8c19 f4bd 98a7 fa3c
00000100: a59c 03be 43fc 2cbe ab13 3fbd 439f 3bbd
00000110: e481 02bd 6e33 473c 3d85 8ebc 1839 0bbd
00000120: 66c6 e63c 1ea3 d3bd 8876 863d 909e 13be
00000130: 65cb 7bbb 5864 943c de0a 0bbe 4f8e 403d
00000140: 021d 9ebd 0a34 d7bd 987d d6bc 88fe 88bd
00000150: 93de 163e a3ba 75bd 70d6 c6bd d52e 623c
00000160: d32c b0bd b702 36bd 1c65 c7bc 36a1 223d
00000170: 2aef 903d 8870 5a3d 5e2e 2d3d 5e58 4e3c
00000180: 1848 06be f2eb bd3d 3b79 31be 33b3 7cbe
00000190: 232b 85be 4f5f 12be a6d7 66be 791a 513e
000001a0: 2f0b 2d3e 3745 643e ee9d c63c 4708 943d
000001b0: 3570 b33d 0eb1 223d a9d5 3c3e 8b07 223e
000001c0: 459e d6bd 32bc bc3d 776d 83bd b4b2 a2bc
000001d0: 7590 743e fb4c c83d bbff 36bd 412b 813e
000001e0: 8389 833e 6a05 fabd a6a4 3d3e 7f76 253e
000001f0: c335 01be 1dae 08be ad8f 75bd 392b e6bc
00000200: 8331 e1bc 3c48 e7bd d373 763e e5cd aa3d
00000210: 4799 253e c259 413e d23a 013e 6648 413c
00000220: cde8 753e ce45 00bd ca33 57be df62 b9bd
00000230: c801 5f3e c12e 343d a07e 0c3e 7df0 9ebe
00000240: 976f d2bd 1ca7 00bc f786 34bd 292f 86bd
00000250: 750d 63bd 2cc2 c3be 29b7 0abe 548a 923c
00000260: 3e04 04bd 9cec f8bd 54d6 10be b91f 43bd
00000270: 69d4 a5bc 76b9 bfbd 50f6 203e df44 433e
00000280: 8ba0 20be 3395 57bc 0c2f 1a3e fa17 3cbe
00000290: 9390 6d3e 06f5 3fbe 25fe 85bd e731 bb3d
000002a0: a917 763d 3d4c fdbc 37d9 2ebc 4b20 313d
000002b0: 0b2a 613e 0c5a 35bd a48f bcbc 5918 5ebc
000002c0: ab9b d4bd 02d3 1d3e 7b9a fb3d 37d2 d83d
000002d0: 8747 59bc cc4b 27be f9c7 b3be bd02 543d
000002e0: 6a22 a43b 57bf cbbb 251a a7be b1c0 a2be
000002f0: 8bfa a3be de50 beba 2223 c13c 0263 06bd
00000300: a7c6 4dbd d96b 943e e523 13bc a859 143d
00000310: 4dd4 7d3d 3d04 adbd e1d1 80be 1156 843d
00000320: 8679 f4bd ecb2 e2bd a553 0fbd f4ed f9bb
00000330: e815 5c3b 519f b2bc 8a71 c43d a86c 913c
00000340: 6d59 4ebe 8731 bdbd 5c5d 44be 69e1 e93d
00000350: 6e5a 653e 38ea 20be 75d9 4dbe b0ba 3f3e
00000360: 243f 7cbd e0f9 363d 378d d3bd fba8 443c
00000370: fce1 423e 80b7 643d 5801 d23d 8e1d 4abd
00000380: a4ea 043d 776c 63be 2b95 063e 4311 313e
00000390: 02bd 65bd cb9b dbbc adee 14be bd4a 24be
000003a0: ccba 593e ac7e 4e3d e0a0 5cbe 2f80 773d
000003b0: 03d5 8abe 9512 78be 64fc 473c 3733 2cbe
000003c0: 8189 00be 8600 b4bd 84b8 793d 37fb 8e3d
000003d0: c16a b3bd ead8 6abd 45de 9a3d 03c0 acbc
000003e0: 024f acbd f9ce 61be 3cf1 9b3d 0cd6 3abd
000003f0: 15aa 083d 2836 3fbe 8bc4 4bbc 21b2 a53d
-0.08300748 -0.16987213 -0.2128545 0.13588051 0.0821308 0.053493537 -0.043068707 -0.14434911
-0.18495958 0.00434577 -0.07772172 -0.14488424 0.00034393359 -0.02807126 -0.008300574 0.13957763
-0.20120677 -9.991315e-05 -0.051278703 -0.087432 -0.10041849 0.046021637 0.3151812 0.05208555
0.0082605425 -0.0024676132 0.30430567 -0.11273673 -0.20386367 -0.13519576 0.09603764 -0.06565632
-0.029920693 -0.013647535 0.16071932 0.1376906 -0.05227303 0.091111235 -0.0852324 0.08491441
0.06379497 0.12682831 -0.074737474 -0.043825652 -0.0046569966 0.006927587 0.02111712 0.12829357
0.22287697 0.0012821318 -0.043038398 -0.0032334756 -0.008010676 -0.037784375 -0.08704561 0.0051550963
-0.29132313 0.064682156 -0.08921587 0.11376557 -0.09940491 0.099973954 -0.11918935 0.030597493
-0.12852724 -0.16893105 -0.046649616 -0.04580618 -0.031862155 0.012158258 -0.017397517 -0.033989996
0.028170776 -0.103338465 0.06565577 -0.14415956 -0.0038420793 0.018114254 -0.13578364 0.047010716
-0.077203766 -0.105079725 -0.026182935 -0.06689173 0.14733343 -0.059992444 -0.097088695 0.013805111
-0.086022995 -0.044436183 -0.024340205 0.039704524 0.07076867 0.053329974 0.042280547 0.012594311
-0.13113439 0.092735186 -0.17331402 -0.24677734 -0.26009473 -0.1429417 -0.22543201 0.20420255
0.16898797 0.22292028 0.024245229 0.07228141 0.08761636 0.039719634 0.1844088 0.1582319
-0.10479406 0.09215583 -0.06417363 -0.019860603 0.23883231 0.09780308 -0.044677477 0.25228313
0.2569085 -0.12208064 0.1851984 0.16158484 -0.12618165 -0.13347669 -0.059951473 -0.028096782
-0.02748943 -0.112930745 0.24067621 0.083400525 0.16171752 0.18881896 0.12620094 0.011797046
0.24014588 -0.03131657 -0.2101585 -0.09052061 0.21778023 0.0439899 0.13720179 -0.31042853
-0.1027519 -0.007852342 -0.044074025 -0.06551964 -0.055432756 -0.3823408 -0.13546433 0.017888226
-0.03223061 -0.12154505 -0.1414426 -0.047637675 -0.020242887 -0.09361546 0.15718961 0.19069241
-0.15686242 -0.01315813 0.1505701 -0.18368521 0.23199682 -0.18745813 -0.06542615 0.091403775
0.060081158 -0.030920142 -0.010671905 0.043243688 0.21988694 -0.04427533 -0.023017712 -0.01355561
-0.10381254 0.15412524 0.12285324 0.1058697 -0.013261682 -0.16337508 -0.35113505 0.051760424
0.0050089853 -0.006217878 -0.32637134 -0.31787637 -0.32027087 -0.001451995 0.023576323 -0.032809265
-0.050238278 0.2898853 -0.008980726 0.036218315 0.061970044 -0.08448074 -0.25160125 0.06461728
-0.11937241 -0.11069283 -0.03499188 -0.007627243 0.0033582393 -0.021804484 0.09591968 0.017752007
-0.201513 -0.09237962 -0.19176239 0.11419947 0.22397777 -0.15714347 -0.20102485 0.1872356
-0.061583653 0.044671893 -0.10329669 0.012003179 0.19031519 0.05583906 0.102541625 -0.04934459
0.032450333 -0.22209345 0.1314284 0.17291741 -0.056088455 -0.026807686 -0.14544173 -0.16044135
0.21262664 0.050413772 -0.21545744 0.06042498 -0.2711564 -0.24225838 0.012206171 -0.16816412
-0.12552454 -0.08789162 0.060966983 0.06981509 -0.08760596 -0.05733577 0.07561926 -0.021087652
-0.08413507 -0.2205161 0.07614371 -0.045614287 0.033365328 -0.18673003 -0.012436996 0.08090616

critic_body.0.bias f4 [256]
00000000: 1c81 61be 3c8f 5abe d4e1 48be 149b ccbe
00000010: 11bb c2be 6dce 153e 2ca0 53bb 1385 ca3d
00000020: e791 dfbe 2b9a 75bd ac2e 80be d033 4c3e
00000030: 0962 7bbe c24a cfbe dc00 8cbc 9420 4dbe
00000040: 19a7 92be 6488 b8be 8c70 2abe d277 1a3e
00000050: 3a4d 043e f422 d13d 9ad0 9abd 9373 dabe
00000060: 77f2 82be 587e a53e 4621 b4be 658b 7fbe
00000070: 1888 e13d 937a 8a3d ee73 333e 918c 1ebc
00000080: 7621 ecbd 234c f23d 8871 b1be 3eb5 81be
00000090: 7227 583e ad66 abbe 7187 84be 0724 14bd
000000a0: 1aa8 343e 624d 68be a5a9 8cbd cb6e 9fbe
000000b0: 8d10 013c 0378 97be 6716 a73b dd8b 90be
000000c0: 4932 2bbd bffc e13d 7811 573e 18ef 3a3e
000000d0: 09be acbe 26fe 9ebe 4629 36bc a2bf 0dbd
000000e0: 1532 653e b6da 28be 7782 a2be 23dd 8e3c
000000f0: 166b acbe b1cf 783d 5a48 a03e fee3 3ebe
00000100: cde9 b1bc 716c 5ebe 0964 3d3b 77a2 3bbe
00000110: 5908 89be f4fb 09be 178e 653d d86a b4bd
00000120: ef3f f3be fa32 6f3e 7262 b83d b59c e13d
00000130: 694f 01be d4f0 5ebe da87 0a3d 9b69 25bd
00000140: 6246 a3be 5723 103c e3ba d03d edc0 5bbe
00000150: 14a0 14be 8bd1 b9be 4a5c 933e eeda 893e
00000160: 0477 9fbd 6797 3f3e 768c b5bd 0748 79be
00000170: d4bf a8be e423 adbe 24da 073e 92de 7cbe
00000180: 38b2 233c ee19 f43d c527 d4be 6df3 03be
00000190: 3e7a a1be 1fb6 9fbe 99ee c5be a268 abbe
000001a0: 99d5 d3be e749 07ba 8aa7 08ba 6464 6b3e
000001b0: c7b5 c1be ed4a 073e 76ac d4be facd 35bc
000001c0: 9c2b 893e afcb a63d 31b1 183e a765 ccbe
000001d0: d711 bbbe 66ba 603c 24b2 1b3d 1a58 583c
000001e0: a8c8 dbbd aae8 a5be 5568 c8be 9277 d9be
000001f0: 05a9 7fbe 12c5 2ebe cad8 31bc c1bd 843a
00000200: e48a 92be 8190 7b3d 43b1 99bd a348 9abe
00000210: d600 6c3c afe8 97be 39a9 b1be ac50 a2be
00000220: e84e 59be a441 cebe ba48 dabd de8c 57bd
00000230: 714d 8a3e 6fc9 abbe de99 073e 0777 9ebe
00000240: 9a99 c7bd fda5 193e 7d03 8d3e 7485 b8bd
00000250: 2aab 8dbc 41e8 973c 3620 9bbb 882d 703b
00000260: 0c17 69be f2b3 42bc e936 72be 5e71 333e
00000270: 33a7 b0be e089 88bd 0d2a b53d d070 cdbe
00000280: 110e 753d 99ae c3be 119c 43be fbc9 56be
00000290: ba99 2abe 99cc 7d3e be29 713e 0f2a 763e
000002a0: 2b78 bfbe 37ee 603e e53f a83a ef4f b2be
000002b0: e7ec 433e f154 bd3d 20b5 953e 3ac0 33bd
000002c0: e732 1b3d e921 eabd 2232 d53a 8245 643e
000002d0: 98b6 93be cc51 823e 3a5b b8be db16 c2be
000002e0: 1e4c 023d 8f6b 113d f949 abbe d33a 543e
000002f0: 092a 163e 976a 8cbe 01d2 4b3b 4e0b 053e
00000300: 27f9 91be c659 d2be 1010 0f3e eddc 1cbd
00000310: 6891 463e 56c3 0b3e b1ee 51be 311f 8dbe
00000320: bab5 3a3e d86e e73d b376 99be fe0f 9d3e
00000330: 7c9e 7cbe 09b6 bbbe d41b cfbe e921 6bbe
00000340: 6852 03bd 5585 3fbd 1ee5 65be a5ef 7c3e
00000350: 89e7 b9bd e819 2a3d 7db9 b03c 81dc 7fbe
00000360: 44b4 243d 7474 033d 01e8 903e 5ec1 bdbe
00000370: c85e 233e f714 84be 9cb6 613e 64cf be3d
00000380: bd7d 83be b1e4 5b3e 0800 80bd 4391 96be
00000390: 895b 093e 4905 40be 5c28 a9be 6371 98be
000003a0: b60c 003e db13 64be afe7 77be 3772 bbbe
000003b0: a129 2dbe 1692 34bd c9a0 f43a cd99 b03d
000003c0: 00a4 723e 767d 42be 22ba d5be 1336 26bc
000003d0: 1ff4 08be ec23 c1be 648c f53c 926c b03d
000003e0: a592 98bc 4ba1 e93d 4285 0ebe 6a70 56be
000003f0: f3ec cdbe 9a36 3bbe aab2 d0bb 816e 7a3e
-0.22021908 -0.21343702 -0.19617397 -0.39962065 -0.38033345 0.14629526 -0.0032291515 0.09888663
-0.43666002 -0.05996148 -0.25035608 0.1994164 -0.24549116 -0.40486723 -0.017090254 -0.20031959
-0.2864311 -0.36041558 -0.16644496 0.1508477 0.12920085 0.10211745 -0.07559319 -0.426663
-0.2557561 0.32322955 -0.35181636 -0.24955519 0.11012286 0.067616604 0.17524692 -0.009677068
-0.1152982 0.11830928 -0.3465693 -0.2533359 0.21108797 -0.33476773 -0.25884584 -0.03616717
0.1764225 -0.22685769 -0.068682946 -0.31139216 0.007877481 -0.2958375 0.005099106 -0.28231707
-0.041796003 0.110345356 0.21002758 0.1825527 -0.33738735 -0.31053275 -0.011118239 -0.034606583
0.22382386 -0.16489682 -0.31740162 0.01743943 -0.3367545 0.060744945 0.313052 -0.1864166
-0.02171793 -0.21721055 0.0028898737 -0.18323694 -0.2676418 -0.13475019 0.05604371 -0.08809441
-0.47509715 0.2335929 0.09003152 0.110162176 -0.12627949 -0.21771556 0.033820964 -0.040383916
-0.31889635 0.008797488 0.10191896 -0.21460314 -0.1451419 -0.3629268 0.28781348 0.26924843
-0.07786372 0.18710099 -0.088646814 -0.24343883 -0.32958853 -0.33816445 0.13266808 -0.24694279
0.009991221 0.11919008 -0.41436592 -0.12885828 -0.31538576 -0.31193635 -0.38658598 -0.33478266
-0.413739 -0.00051608536 -0.00052129535 0.22987515 -0.37833998 0.13212176 -0.41537827 -0.011096472
0.26791084 0.08144318 0.14911343 -0.39921305 -0.36537048 0.013716316 0.038011685 0.013204599
-0.107316315 -0.3240407 -0.391421 -0.42474037 -0.2496682 -0.17067364 -0.010854909 0.0010127352
-0.2862159 0.061417107 -0.07504513 -0.30133542 0.014404496 -0.2966971 -0.3469942 -0.31702173
-0.21221507 -0.40284455 -0.10658403 -0.052624576 0.27012208 -0.3355212 0.1324229 -0.30950186
-0.09746094 0.15004726 0.27541724 -0.09009829 -0.017293531 0.018543364 -0.0047340645 0.0036648232
-0.22762698 -0.011883723 -0.23653759 0.17523715 -0.34502563 -0.066669226 0.08845911 -0.40125132
0.059827868 -0.38219145 -0.19102503 -0.20975487 -0.16660205 0.24785079 0.2355108 0.24039482
-0.37396368 0.21965872 0.0012836425 -0.3482661 0.1913334 0.09244717 0.2923975 -0.043884493
0.03789034 -0.11432249 0.0016265551 0.2229214 -0.28850245 0.2545303 -0.360071 -0.37908062
0.031810872 0.035502966 -0.33454874 0.20725565 0.14664473 -0.27425072 0.0031100514 0.12992594
-0.285104 -0.41084117 0.13970971 -0.03829663 0.19391406 0.13648733 -0.2050121 -0.2756286
0.18233386 0.11300439 -0.29973373 0.30676264 -0.24669832 -0.3666232 -0.4045092 -0.22962154
-0.03206101 -0.046758015 -0.22450683 0.24700792 -0.09077365 0.041528612 0.021572823 -0.2498646
0.040210977 0.03209348 0.28302005 -0.3706159 0.15954125 -0.25797245 0.22042316 0.093169
-0.25681868 0.21473958 -0.06250006 -0.294077 0.13413824 -0.18752016 -0.33038604 -0.29774007
0.12504849 -0.222732 -0.24209474 -0.36610577 -0.16910411 -0.04408463 0.001866364 0.08623085
0.23695374 -0.18993172 -0.4174357 -0.010144728 -0.13374375 -0.3772272 0.02997417 0.08614458
-0.018624613 0.11407717 -0.13918021 -0.2094132 -0.4021984 -0.18282548 -0.0063689547 0.24456216
